NeuroAI/Neural Embeddings Rank Aligning 3D latent dynamics with movements/NER/data_NER/Fig8/Supp_Cebra/Type_ curve-straight=[13]_parameters_5000itr_lr0.0001.npz (npz, 425644 bytes, 7 tensors)

train_loss_stable f4 [5000]
000000 59 a0 c7 40 59 a0 c7 40 5a a0 c7 40 59 a0 c7 40
       6.2383237 6.2383237 6.238324 6.2383237
000010 59 a0 c7 40 59 a0 c7 40 59 a0 c7 40 5a a0 c7 40
       6.2383237 6.2383237 6.2383237 6.238324
000020 5a a0 c7 40 5a a0 c7 40 58 a0 c7 40 58 a0 c7 40
       6.238324 6.238324 6.238323 6.238323
000030 58 a0 c7 40 59 a0 c7 40 58 a0 c7 40 58 a0 c7 40
       6.238323 6.2383237 6.238323 6.238323
000040 58 a0 c7 40 58 a0 c7 40 57 a0 c7 40 57 a0 c7 40
       6.238323 6.238323 6.2383227 6.2383227
000050 57 a0 c7 40 57 a0 c7 40 56 a0 c7 40 56 a0 c7 40
       6.2383227 6.2383227 6.2383223 6.2383223
000060 55 a0 c7 40 57 a0 c7 40 54 a0 c7 40 54 a0 c7 40
       6.238322 6.2383227 6.2383213 6.2383213
000070 53 a0 c7 40 54 a0 c7 40 54 a0 c7 40 52 a0 c7 40
       6.238321 6.2383213 6.2383213 6.2383204
000080 52 a0 c7 40 52 a0 c7 40 51 a0 c7 40 51 a0 c7 40
       6.2383204 6.2383204 6.23832 6.23832
000090 4f a0 c7 40 50 a0 c7 40 4f a0 c7 40 50 a0 c7 40
       6.238319 6.2383194 6.238319 6.2383194
0000a0 4c a0 c7 40 4c a0 c7 40 4a a0 c7 40 48 a0 c7 40
       6.2383175 6.2383175 6.2383165 6.2383156
0000b0 49 a0 c7 40 48 a0 c7 40 48 a0 c7 40 45 a0 c7 40
       6.238316 6.2383156 6.2383156 6.238314
0000c0 42 a0 c7 40 44 a0 c7 40 43 a0 c7 40 41 a0 c7 40
       6.2383127 6.2383137 6.238313 6.2383122
0000d0 3e a0 c7 40 3b a0 c7 40 37 a0 c7 40 3b a0 c7 40
       6.238311 6.2383094 6.2383075 6.2383094
0000e0 34 a0 c7 40 32 a0 c7 40 2f a0 c7 40 2f a0 c7 40
       6.238306 6.238305 6.2383037 6.2383037
0000f0 2d a0 c7 40 24 a0 c7 40 22 a0 c7 40 23 a0 c7 40
       6.2383027 6.2382984 6.2382975 6.238298
000100 19 a0 c7 40 1b a0 c7 40 19 a0 c7 40 0d a0 c7 40
       6.238293 6.238294 6.238293 6.2382874
000110 18 a0 c7 40 08 a0 c7 40 05 a0 c7 40 00 a0 c7 40
       6.2382927 6.238285 6.2382836 6.2382812
000120 f1 9f c7 40 01 a0 c7 40 ec 9f c7 40 e6 9f c7 40
       6.238274 6.2382817 6.2382717 6.238269
000130 e2 9f c7 40 d9 9f c7 40 da 9f c7 40 cf 9f c7 40
       6.238267 6.2382627 6.238263 6.238258
000140 c2 9f c7 40 b0 9f c7 40 a2 9f c7 40 8e 9f c7 40
       6.2382517 6.238243 6.2382364 6.238227
000150 9f 9f c7 40 7c 9f c7 40 88 9f c7 40 5c 9f c7 40
       6.238235 6.2382183 6.238224 6.238203
000160 5e 9f c7 40 40 9f c7 40 28 9f c7 40 27 9f c7 40
       6.238204 6.2381897 6.2381783 6.238178
000170 31 9f c7 40 11 9f c7 40 ed 9e c7 40 dd 9e c7 40
       6.2381825 6.2381673 6.23815 6.2381425
000180 71 9e c7 40 86 9e c7 40 4a 9e c7 40 49 9e c7 40
       6.238091 6.238101 6.2380724 6.238072
000190 fc 9d c7 40 20 9e c7 40 0c 9e c7 40 06 9e c7 40
       6.238035 6.2380524 6.238043 6.23804
0001a0 8a 9d c7 40 46 9d c7 40 3c 9d c7 40 e0 9c c7 40
       6.237981 6.2379484 6.2379436 6.2379
0001b0 04 9d c7 40 b9 9c c7 40 9a 9c c7 40 2c 9c c7 40
       6.237917 6.237881 6.2378664 6.237814
0001c0 a9 9b c7 40 0d 9b c7 40 22 9b c7 40 ad 9b c7 40
       6.2377515 6.237677 6.237687 6.2377534
0001d0 c1 9a c7 40 6c 9a c7 40 ca 99 c7 40 38 99 c7 40
       6.237641 6.2376003 6.237523 6.2374535
0001e0 e7 98 c7 40 4b 99 c7 40 fa 97 c7 40 b9 97 c7 40
       6.237415 6.2374625 6.237302 6.237271
0001f0 4e 96 c7 40 f0 94 c7 40 4f 95 c7 40 39 94 c7 40
       6.2370977 6.236931 6.236976 6.2368436
000200 b3 94 c7 40 e6 93 c7 40 08 92 c7 40 ba 90 c7 40
       6.2369018 6.236804 6.236576 6.236417
000210 2a 8f c7 40 20 8f c7 40 5a 8c c7 40 ac 8c c7 40
       6.236226 6.2362213 6.2358828 6.235922
000220 ac 8a c7 40 60 8b c7 40 64 87 c7 40 32 86 c7 40
       6.2356777 6.2357635 6.235277 6.2351313
000230 1e 87 c7 40 43 84 c7 40 f7 81 c7 40 49 7f c7 40
       6.235244 6.234895 6.234615 6.2342877
000240 04 7f c7 40 76 7d c7 40 da 76 c7 40 28 78 c7 40
       6.234255 6.234065 6.2332582 6.2334175
000250 da 72 c7 40 1c 72 c7 40 15 70 c7 40 3f 6f c7 40
       6.23277 6.2326794 6.232432 6.23233
000260 1f 66 c7 40 92 68 c7 40 3a 69 c7 40 25 5f c7 40
       6.231216 6.231515 6.231595 6.2303643
000270 7c 5c c7 40 e2 54 c7 40 f6 54 c7 40 ba 4e c7 40
       6.2300396 6.2291117 6.229121 6.22836
000280 cf 4a c7 40 d1 43 c7 40 27 37 c7 40 09 33 c7 40
       6.227882 6.2270284 6.2254825 6.22498
000290 19 26 c7 40 6a 21 c7 40 04 2d c7 40 4e 06 c7 40
       6.2234006 6.222829 6.224245 6.2195196
0002a0 d2 05 c7 40 78 fb c6 40 f0 f9 c6 40 8c fe c6 40
       6.2194605 6.218197 6.21801 6.2185726
0002b0 d3 dc c6 40 51 f0 c6 40 dc d4 c6 40 fa bc c6 40
       6.214456 6.2168355 6.213484 6.2105684
0002c0 7e 8b c6 40 2a 9f c6 40 de 9b c6 40 29 93 c6 40
       6.204528 6.206929 6.2065268 6.205464
0002d0 e3 83 c6 40 da 41 c6 40 bd 55 c6 40 1a 28 c6 40
       6.2035995 6.1955385 6.197966 6.192395
0002e0 d3 dd c5 40 dd 15 c6 40 1c 0c c6 40 4b ac c5 40
       6.183328 6.190169 6.188978 6.177282
0002f0 37 a5 c5 40 fe af c5 40 37 73 c5 40 ba 41 c5 40
       6.176418 6.1777334 6.1703143 6.1642733
000300 ff 41 c5 40 09 03 c5 40 32 1d c5 40 a7 cf c4 40
       6.164306 6.1566205 6.159814 6.150348
000310 e0 8c c4 40 48 f9 c3 40 07 52 c4 40 43 5f c4 40
       6.1421967 6.12418 6.135013 6.1366286
000320 92 b4 c3 40 19 a9 c3 40 ad 9c c3 40 fd 97 c2 40
       6.1157923 6.114392 6.1128755 6.0810533
000330 61 37 c2 40 a1 29 c2 40 1f df c1 40 7b 33 c1 40
       6.06926 6.0675817 6.0584865 6.037534
000340 f2 94 c1 40 1b f3 c0 40 aa 1b c2 40 0d 16 c0 40
       6.049432 6.029676 6.065877 6.0026917
000350 41 e9 c0 40 4e 5d c0 40 57 4d c1 40 ae 58 bf 40
       6.0284734 6.0113897 6.040691 5.979575
000360 ee 53 bf 40 33 ef bf 40 63 65 c0 40 17 86 be 40
       5.9789953 5.997949 6.0123763 5.9538684
000370 fe 33 bf 40 47 39 bf 40 36 02 c0 40 07 0a c0 40
       5.9750967 5.975742 6.00027 6.001224
000380 1a a9 be 40 fb 05 c0 40 ef 62 bf 40 c2 4b be 40
       5.9581423 6.00073 5.980827 5.946748
000390 25 24 bf 40 ca 41 be 40 ba cf bf 40 30 33 bf 40
       5.973162 5.945531 5.9941072 5.9749985
0003a0 57 07 bf 40 ba e7 be 40 d2 7f c0 40 8d ba bf 40
       5.969646 5.965787 6.015603 5.9915223
0003b0 4a db bd 40 52 f0 bf 40 74 0a bf 40 44 29 bf 40
       5.9330187 5.998086 5.970026 5.9737873
0003c0 12 6e be 40 31 c2 bd 40 fa 94 c0 40 44 cc be 40
       5.9509363 5.929955 6.0181856 5.962435
0003d0 af e2 be 40 df d9 be 40 ba 91 be 40 0d ee be 40
       5.9651713 5.9640956 5.955289 5.966559
0003e0 1c c4 be 40 bf 3f be 40 f2 2e bf 40 43 a3 be 40
       5.961439 5.9452815 5.9744806 5.9574294
0003f0 70 8a be 40 85 0f bf 40 09 c9 bd 40 7d fd be 40
       5.954399 5.9706445 5.9307904 5.9684434

cebra_veldir_train f8 [5000, 3]
000000 00 00 00 20 52 4d ea bf 00 00 00 40 8e a5 d7 bf
       -0.8219385743141174 -0.3694797158241272
000010 00 00 00 80 13 be db 3f 00 00 00 e0 67 20 ea bf
       0.4334763288497925 -0.8164557814598083
000020 00 00 00 20 aa fc d6 bf 00 00 00 20 3c ef dc 3f
       -0.35917142033576965 0.4521017372608185
000030 00 00 00 e0 85 e3 e9 bf 00 00 00 00 7a 5d d6 bf
       -0.8090237975120544 -0.3494553565979004
000040 00 00 00 00 44 3f de 3f 00 00 00 40 f5 9b e9 bf
       0.4726114273071289 -0.8002878427505493
000050 00 00 00 40 84 b3 d5 bf 00 00 00 c0 6d a6 df 3f
       -0.3390818238258362 0.4945330023765564
000060 00 00 00 40 70 41 e9 bf 00 00 00 e0 bf 2c d5 bf
       -0.7892380952835083 -0.3308562934398651
000070 00 00 00 00 06 8e e0 3f 00 00 00 a0 6d d3 e8 bf
       0.5173368453979492 -0.775809109210968
000080 00 00 00 a0 2f ad d4 bf 00 00 00 e0 ec 57 e1 3f
       -0.3230704367160797 0.5419830679893494
000090 00 00 00 60 cc 40 e8 bf 00 00 00 00 e6 42 d4 bf
       -0.7579099535942078 -0.31658315658569336
0000a0 00 00 00 e0 a7 40 e2 3f 00 00 00 c0 cc 87 e7 bf
       0.5703925490379333 -0.7353271245956421
0000b0 00 00 00 00 c5 e6 d3 bf 00 00 00 00 e7 44 e3 3f
       -0.310960054397583 0.6021609306335449
0000c0 00 00 00 20 cc a4 e6 bf 00 00 00 c0 7c 8c d3 bf
       -0.7076168656349182 -0.3054496645927429
0000d0 00 00 00 40 a7 63 e4 3f 00 00 00 80 44 7f e5 bf
       0.6371647119522095 -0.6717855930328369
0000e0 00 00 00 c0 a1 30 d3 bf 00 00 00 40 d2 ac e5 3f
       -0.2998432517051697 0.6773463487625122
0000f0 00 00 00 a0 e5 0d e4 bf 00 00 00 c0 81 b2 d2 bf
       -0.6266964077949524 -0.2921451926231384
000100 00 00 00 20 22 1e e7 3f 00 00 00 e0 5b 18 e2 bf
       0.7224283814430237 -0.5654734969139099
000110 00 00 00 00 fd 08 d2 bf 00 00 00 40 e1 cd e8 3f
       -0.2817986011505127 0.7751318216323853
000120 00 00 00 c0 75 4b df bf 00 00 00 40 ce 28 d1 bf
       -0.4889807105064392 -0.2681155800819397
000130 00 00 00 80 e9 8f ea 3f 00 00 00 20 25 f1 d8 bf
       0.8300673961639404 -0.38971832394599915
000140 00 00 00 00 7f 38 d0 bf 00 00 00 a0 f7 54 ec 3f
       -0.2534482479095459 0.8853719830513
000150 00 00 00 80 2d 2a d1 bf 00 00 00 c0 f2 02 cd bf
       -0.2681993246078491 -0.22665247321128845
000160 00 00 00 40 58 f6 ed 3f 00 00 00 e0 dd 57 bf bf
       0.9363213777542114 -0.12243448942899704
000170 00 00 00 00 d1 e9 c7 bf 00 00 00 00 06 31 ef 3f
       -0.1868230104446411 0.9747343063354492
000180 00 00 00 c0 7f 97 a2 3f 00 00 00 00 fa 08 c2 bf
       0.03631209582090378 -0.1408989429473877
000190 00 00 00 c0 d1 a8 ef 3f 00 00 00 40 d6 01 c9 3f
       0.9893578290939331 0.19536855816841125
0001a0 00 00 00 c0 1a 3a b5 bf 00 00 00 60 5f 45 ef 3f
       -0.08291785418987274 0.9772183299064636
0001b0 00 00 00 a0 34 68 d5 3f 00 00 00 40 d2 88 9c bf
       0.3344852030277252 -0.027865681797266006
0001c0 00 00 00 00 c6 24 ee 3f 00 00 00 20 f4 ed dc 3f
       0.9419889450073242 0.45202353596687317
0001d0 00 00 00 80 04 89 9b 3f 00 00 00 00 fe 87 ec 3f
       0.026889868080615997 0.8916006088256836
0001e0 00 00 00 00 80 79 e1 3f 00 00 00 20 2a 1b b4 3f
       0.54608154296875 0.07853949815034866
0001f0 00 00 00 60 79 b0 ea 3f 00 00 00 c0 0b af e3 3f
       0.8340422511100769 0.6151179075241089
000200 00 00 00 80 5e 61 be 3f 00 00 00 20 47 f1 e8 3f
       0.11867323517799377 0.7794528603553772
000210 00 00 00 20 9d 3f e5 3f 00 00 00 a0 87 a7 c3 3f
       0.6640153527259827 0.15355010330677032
000220 00 00 00 a0 c3 6a e7 3f 00 00 00 c0 01 67 e6 3f
       0.7317827343940735 0.7000740766525269
000230 00 00 00 60 38 c9 c7 3f 00 00 00 40 1c 10 e6 3f
       0.18582825362682343 0.6894665956497192
000240 00 00 00 20 fe 33 e7 3f 00 00 00 c0 cc 02 cb 3f
       0.7250967621803284 0.21102294325828552
000250 00 00 00 20 01 fa e4 3f 00 00 00 e0 63 c0 e7 3f
       0.655518114566803 0.7422351241111755
000260 00 00 00 60 57 b3 cd 3f 00 00 00 e0 32 1e e4 3f
       0.2320355623960495 0.6286863684654236
000270 00 00 00 00 68 19 e8 3f 00 00 00 c0 6e a5 cf 3f
       0.7531013488769531 0.24723610281944275
000280 00 00 00 80 84 82 e3 3f 00 00 00 20 f2 4f e8 3f
       0.6096823215484619 0.7597590088844299
000290 00 00 00 60 98 99 d0 3f 00 00 00 80 52 14 e3 3f
       0.2593747079372406 0.5962307453155518
0002a0 00 00 00 c0 1d 71 e8 3f 00 00 00 20 be 49 d1 3f
       0.7638081312179565 0.2701258957386017
0002b0 00 00 00 80 24 c2 e2 3f 00 00 00 c0 49 6d e8 3f
       0.5861990451812744 0.7633408308029175
0002c0 00 00 00 80 d9 db d1 3f 00 00 00 e0 d1 a4 e2 3f
       0.2790435552597046 0.5826196074485779
0002d0 00 00 00 80 90 67 e8 3f 00 00 00 e0 46 2d d2 3f
       0.7626421451568604 0.2840134799480438
0002e0 00 00 00 60 a0 98 e2 3f 00 00 00 40 a4 46 e8 3f
       0.5811311602592468 0.7586232423782349
0002f0 00 00 00 c0 dd 49 d2 3f 00 00 00 00 93 bc e2 3f
       0.28575843572616577 0.5855193138122559
000300 00 00 00 20 36 33 e8 3f 00 00 00 e0 c9 6a d2 3f
       0.7562513947486877 0.28776785731315613
000310 00 00 00 40 9e cd e2 3f 00 00 00 00 00 0d e8 3f
       0.5875998735427856 0.7515869140625
000320 00 00 00 60 46 42 d2 3f 00 00 00 a0 2a 08 e3 3f
       0.2852950990200043 0.5947468876838684
000330 00 00 00 c0 31 d4 e7 3f 00 00 00 60 ad 23 d2 3f
       0.7446526288986206 0.28342756628990173
000340 00 00 00 40 4f 56 e3 3f 00 00 00 80 ab 9c e7 3f
       0.6042858362197876 0.7378747463226318
000350 00 00 00 c0 f2 ff d1 3f 00 00 00 80 2f a2 e3 3f
       0.2812468409538269 0.6135480403900146
000360 00 00 00 c0 7c 6b e7 3f 00 00 00 20 45 d0 d1 3f
       0.7318710088729858 0.2783367931842804
000370 00 00 00 80 7c e7 e3 3f 00 00 00 20 9c 3a e7 3f
       0.6220076084136963 0.7259045243263245
000380 00 00 00 a0 d2 73 d1 3f 00 00 00 e0 a6 34 e4 3f
       0.27269425988197327 0.6314272284507751
000390 00 00 00 40 f5 08 e7 3f 00 00 00 20 ea 3d d1 3f
       0.7198435068130493 0.26940396428108215
0003a0 00 00 00 a0 9e 78 e4 3f 00 00 00 80 04 c9 e6 3f
       0.63972407579422 0.7120382785797119
0003b0 00 00 00 e0 a4 02 d1 3f 00 00 00 40 e9 cb e4 3f
       0.26578637957572937 0.6498914957046509
0003c0 00 00 00 00 ba 8d e6 3f 00 00 00 80 07 e3 d0 3f
       0.7048006057739258 0.26385676860809326
0003d0 00 00 00 00 84 12 e5 3f 00 00 00 00 5c 61 e6 3f
       0.6585102081298828 0.6993846893310547
0003e0 00 00 00 80 df d9 d0 3f 00 00 00 40 6e 43 e5 3f
       0.2632979154586792 0.6644812822341919
0003f0 00 00 00 20 0b 38 e6 3f 00 00 00 60 63 ee d0 3f
       0.694341242313385 0.2645500600337982
000400 00 00 00 a0 8b 6a e5 3f 00 00 00 20 a5 16 e6 3f
       0.6692560315132141 0.6902642846107483
000410 00 00 00 80 6f f9 d0 3f 00 00 00 c0 cf 8a e5 3f
       0.2652243375778198 0.6731947660446167
000420 00 00 00 c0 f3 f8 e5 3f 00 00 00 e0 e8 31 d1 3f
       0.686639666557312 0.2686712443828583
000430 00 00 00 80 f2 9d e5 3f 00 00 00 a0 35 dd e5 3f
       0.6755306720733643 0.6832531094551086
000440 00 00 00 80 0e bb d1 3f 00 00 00 20 61 9e e5 3f
       0.277042031288147 0.6755834221839905
000450 00 00 00 a0 b5 c1 e5 3f 00 00 00 00 82 34 d2 3f
       0.6798961758613586 0.2844548225402832
000460 00 00 00 00 e3 a0 e5 3f 00 00 00 20 f5 a2 e5 3f
       0.6758894920349121 0.6761422753334045
000470 00 00 00 c0 c1 e3 d2 3f 00 00 00 20 29 9a e5 3f
       0.2951511740684509 0.6750684380531311
000480 00 00 00 e0 f0 91 e5 3f 00 00 00 a0 c4 8a d3 3f
       0.6740650534629822 0.30534473061561584
000490 00 00 00 40 00 86 e5 3f 00 00 00 20 8c 6f e5 3f
       0.6726075410842896 0.6698666214942932
0004a0 00 00 00 60 54 4f d4 3f 00 00 00 60 db 7a e5 3f
       0.3173418939113617 0.6712471842765808
0004b0 00 00 00 40 ce 3e e5 3f 00 00 00 40 3a 29 d5 3f
       0.6639167070388794 0.33064132928848267
0004c0 00 00 00 e0 b1 76 e5 3f 00 00 00 e0 d1 e3 e4 3f
       0.6707391142845154 0.6528100371360779
0004d0 00 00 00 80 39 0f d6 3f 00 00 00 20 05 96 e5 3f
       0.34467923641204834 0.6745629906654358
0004e0 00 00 00 80 fd 7d e4 3f 00 00 00 80 59 0f d7 3f
       0.6403796672821045 0.3603118658065796
0004f0 00 00 00 a0 9f b4 e5 3f 00 00 00 e0 d7 00 e4 3f
       0.6782987713813782 0.6251029372215271
000500 00 00 00 00 c1 d8 d7 3f 00 00 00 20 9d f2 e5 3f
       0.3726046085357666 0.6858659386634827
000510 00 00 00 00 06 6b e3 3f 00 00 00 60 34 cc d8 3f
       0.6068143844604492 0.38746365904808044
000520 00 00 00 00 52 35 e6 3f 00 00 00 c0 d7 a7 e2 3f
       0.6940088272094727 0.5829886198043823
000530 00 00 00 80 e5 b3 d9 3f 00 00 00 c0 e1 99 e6 3f
       0.4016050100326538 0.7062844038009644
000540 00 00 00 e0 fc a0 e1 3f 00 00 00 60 ab 99 da 3f
       0.5509018301963806 0.41562923789024353
000550 00 00 00 e0 a6 28 e7 3f 00 00 00 60 03 20 e0 3f
       0.7237123847007751 0.5039078593254089
000560 00 00 00 60 83 54 db 3f 00 00 00 20 a8 06 e8 3f
       0.42703327536582947 0.7508125901222229
000570 00 00 00 20 57 95 dc 3f 00 00 00 c0 3e 00 dc 3f
       0.4466150104999542 0.4375149607658386
000580 00 00 00 40 84 f9 e8 3f 00 00 00 80 9f 10 d8 3f
       0.7804585695266724 0.3760145902633667
000590 00 00 00 c0 45 55 dc 3f 00 00 00 e0 6f 0c ea 3f
       0.44270461797714233 0.814018189907074
0005a0 00 00 00 a0 44 55 d2 3f 00 00 00 e0 fd 75 dc 3f
       0.28645434975624084 0.4447016417980194
0005b0 00 00 00 40 08 28 eb 3f 00 00 00 e0 ad b0 c6 3f
       0.8486367464065552 0.17726682126522064
0005c0 00 00 00 20 d9 10 dc 3f 00 00 00 e0 a7 31 ec 3f
       0.4385283291339874 0.8810614943504333
0005d0 00 00 00 80 a7 5f a3 3f 00 00 00 a0 dd 2e da 3f
       0.03783915936946869 0.4091104567050934
0005e0 00 00 00 60 a5 2c ed 3f 00 00 00 40 62 e6 bd bf
       0.9116999506950378 -0.11679662764072418
0005f0 00 00 00 e0 21 50 d7 3f 00 00 00 00 ef 90 ed 3f
       0.36426588892936707 0.9239420890808105
000600 00 00 00 40 fd 67 d1 bf 00 00 00 40 d7 cc d3 3f
       -0.27197200059890747 0.3093774914741516
000610 00 00 00 20 b1 28 ed 3f 00 00 00 a0 8c ae da bf
       0.9112172722816467 -0.41690364480018616
000620 00 00 00 00 62 18 cf 3f 00 00 00 40 41 07 ec 3f
       0.24293160438537598 0.8758856058120728
000630 00 00 00 40 23 97 e1 bf 00 00 00 00 d7 8b c5 3f
       -0.5496994256973267 0.16833007335662842
000640 00 00 00 60 ea 2e ea 3f 00 00 00 40 eb 12 e5 bf
       0.8182269930839539 -0.6585594415664673
000650 00 00 00 00 85 07 b8 3f 00 00 00 40 92 e4 e7 3f
       0.09386473894119263 0.7466517686843872
000660 00 00 00 00 db ad e7 bf 00 00 00 c0 63 a1 93 3f
       -0.7399725914001465 0.01917034015059471
000670 00 00 00 20 01 84 e5 3f 00 00 00 e0 62 9b e9 bf
       0.672363817691803 -0.8002180457115173
000680 00 00 00 20 21 74 a9 bf 00 00 00 80 e8 1f e3 3f
       -0.04971412196755409 0.5976450443267822
000690 00 00 00 00 3c f8 ea bf 00 00 00 60 e7 15 be bf
       -0.8428020477294922 -0.1175217255949974
0006a0 00 00 00 a0 bc ce e0 3f 00 00 00 80 f5 f5 eb bf
       0.5252364277839661 -0.8737742900848389
0006b0 00 00 00 20 bf 78 c6 bf 00 00 00 e0 c6 06 dd 3f
       -0.1755598932504654 0.4535386264324188
0006c0 00 00 00 20 14 8b ec bf 00 00 00 a0 36 a2 cd bf
       -0.8919773697853088 -0.2315128594636917
0006d0 00 00 00 a0 ee d9 d8 3f 00 00 00 80 d9 d7 ec bf
       0.3883015215396881 -0.9013488292694092
0006e0 00 00 00 c0 e8 11 d2 bf 00 00 00 80 a7 04 d5 3f
       -0.2823430895805359 0.3284090757369995
0006f0 00 00 00 e0 7d dd ec bf 00 00 00 40 21 9a d5 bf
       -0.9020375609397888 -0.3375323414802551
000700 00 00 00 00 7e 38 d1 3f 00 00 00 a0 11 b7 ec bf
       0.2690730094909668 -0.8973472714424133
000710 00 00 00 80 08 bf d8 bf 00 00 00 20 5b 3b cb 3f
       -0.38665974140167236 0.21274890005588531
000720 00 00 00 20 6b 5e ec bf 00 00 00 a0 f4 c5 db bf
       -0.8865256905555725 -0.4339572489261627
000730 00 00 00 a0 8f 8a c4 3f 00 00 00 40 14 da eb bf
       0.16047854721546173 -0.8703709840774536
000740 00 00 00 60 d3 b8 de bf 00 00 00 20 7e 12 bc 3f
       -0.4800308644771576 0.1096571758389473
000750 00 00 00 00 64 37 eb bf 00 00 00 40 76 b5 e0 bf
       -0.8505115509033203 -0.5221511125564575
000760 00 00 00 40 d4 2a b0 3f 00 00 00 40 83 72 ea bf
       0.06315352022647858 -0.8264786005020142
000770 00 00 00 80 53 ff e1 bf 00 00 00 80 64 7c 99 3f
       -0.56241774559021 0.02488858252763748
000780 00 00 00 00 2b a5 e9 bf 00 00 00 20 35 23 e3 bf
       -0.8014121055603027 -0.5980477929115295
000790 00 00 00 60 3e 05 82 bf 00 00 00 00 1e cc e8 bf
       -0.008799063973128796 -0.7749166488647461
0007a0 00 00 00 c0 a9 30 e4 bf 00 00 00 00 a8 48 a3 bf
       -0.630940318107605 -0.03766369819641113
0007b0 00 00 00 20 1f fc e7 bf 00 00 00 e0 b1 16 e5 bf
       -0.7495265603065491 -0.6590203642845154
0007c0 00 00 00 80 ba fb af bf 00 00 00 00 3b 38 e7 bf
       -0.062467411160469055 -0.725614070892334
0007d0 00 00 00 c0 43 de e5 bf 00 00 00 60 cf 98 b4 bf
       -0.6833819150924683 -0.0804566964507103
0007e0 00 00 00 c0 9e 86 e6 bf 00 00 00 80 56 8b e6 bf
       -0.7039331197738647 -0.7045090198516846
0007f0 00 00 00 a0 a7 1a b7 bf 00 00 00 20 53 e7 e5 bf
       -0.09025046974420547 -0.6844878792762756

cebra_veldir_test f8 [1300, 3]
000000 00 00 00 20 38 41 ed bf 00 00 00 80 72 38 d0 bf
       -0.9142113327980042 -0.25344526767730713
000010 00 00 00 60 a2 3c d4 3f 00 00 00 00 8d 59 ed bf
       0.3162008225917816 -0.9171814918518066
000020 00 00 00 00 39 88 cc bf 00 00 00 80 71 23 d5 3f
       -0.2229071855545044 0.330288290977478
000030 00 00 00 e0 e5 6e ed bf 00 00 00 20 ac 1a c8 bf
       -0.9197873473167419 -0.18831397593021393
000040 00 00 00 20 b1 08 d6 3f 00 00 00 00 47 7a ed bf
       0.34428051114082336 -0.9211764335632324
000050 00 00 00 e0 3c 1e c3 bf 00 00 00 e0 6e ff d6 3f
       -0.1493602842092514 0.3593403995037079
000060 00 00 00 80 82 7b ed bf 00 00 00 40 52 19 ba bf
       -0.9213268756866455 -0.10194887220859528
000070 00 00 00 20 05 03 d8 3f 00 00 00 e0 bc 5c ed bf
       0.3751843273639679 -0.9175705313682556
000080 00 00 00 60 88 c3 a9 bf 00 00 00 40 74 3d d9 3f
       -0.05031992122530937 0.39437586069107056
000090 00 00 00 e0 75 1c ed bf 00 00 00 a0 35 2f 80 3f
       -0.9097241759300232 0.007902544923126698
0000a0 00 00 00 a0 9e 91 da 3f 00 00 00 c0 05 af ec bf
       0.41513791680336 -0.8963650465011597
0000b0 00 00 00 c0 da 8b b3 3f 00 00 00 40 c3 f2 db 3f
       0.07635276019573212 0.4366920590400696
0000c0 00 00 00 c0 1f 08 ec bf 00 00 00 00 a7 7b c3 3f
       -0.875991702079773 0.15221107006072998
0000d0 00 00 00 e0 9d 4a dd 3f 00 00 00 00 31 20 eb bf
       0.45767924189567566 -0.847679615020752
0000e0 00 00 00 20 4f f3 cd 3f 00 00 00 c0 ba 78 de 3f
       0.2339877039194107 0.4761187434196472
0000f0 00 00 00 80 2c e5 e9 bf 00 00 00 60 97 ae d4 3f
       -0.80922532081604 0.3231562077999115
000100 00 00 00 60 97 66 df 3f 00 00 00 60 68 52 e8 bf
       0.4906366765499115 -0.7600595355033875
000110 00 00 00 60 8b 76 da 3f 00 00 00 00 f5 0a e0 3f
       0.4134853780269623 0.5013375282287598
000120 00 00 00 40 a9 84 e6 bf 00 00 00 60 1b f7 df 3f
       -0.7036939859390259 0.4994572103023529
000130 00 00 00 60 a7 2b e0 3f 00 00 00 e0 bd 78 e4 bf
       0.5053288340568542 -0.6397389769554138
000140 00 00 00 c0 1c 94 e2 3f 00 00 00 40 e1 1d e0 3f
       0.5805801153182983 0.5036474466323853
000150 00 00 00 c0 f8 39 e2 bf 00 00 00 80 48 04 e5 3f
       -0.569576621055603 0.6567728519439697
000160 00 00 00 80 f1 a0 df 3f 00 00 00 a0 8e 19 e0 bf
       0.494198203086853 -0.5031197667121887
000170 00 00 00 80 ac f8 e6 3f 00 00 00 20 fc cb de 3f
       0.71785569190979 0.481200248003006
000180 00 00 00 80 7d ef db bf 00 00 00 a0 9e b9 e8 3f
       -0.43649232387542725 0.77265864610672
000190 00 00 00 00 2c 80 dd 3f 00 00 00 40 6f b7 d7 bf
       0.46094799041748047 -0.37057095766067505
0001a0 00 00 00 c0 61 2d ea 3f 00 00 00 00 e1 26 dc 3f
       0.8180397748947144 0.43987298011779785
0001b0 00 00 00 80 4c 21 d4 bf 00 00 00 40 a1 54 eb 3f
       -0.31453239917755127 0.8540807962417603
0001c0 00 00 00 80 51 83 da 3f 00 00 00 00 8b f6 d0 bf
       0.4142650365829468 -0.2650477886199951
0001d0 00 00 00 e0 8f 37 ec 3f 00 00 00 a0 0e f8 d8 3f
       0.8817824721336365 0.39014020562171936
0001e0 00 00 00 a0 9e c3 cb bf 00 00 00 00 94 fb ec 3f
       -0.21690733730793 0.9057102203369141
0001f0 00 00 00 c0 05 4f d7 3f 00 00 00 e0 e2 32 c6 bf
       0.36419814825057983 -0.17342792451381683
000200 00 00 00 e0 a5 94 ed 3f 00 00 00 e0 1d be d5 3f
       0.9243955016136169 0.33972880244255066
000210 00 00 00 c0 3d 83 c0 bf 00 00 00 e0 44 1a ee 3f
       -0.12900516390800476 0.9407066702842712
000220 00 00 00 40 34 14 d4 3f 00 00 00 e0 f5 b3 b7 bf
       0.31373316049575806 -0.09258972853422165
000230 00 00 00 00 d0 7c ee 3f 00 00 00 20 a7 84 d2 3f
       0.9527359008789062 0.28934648633003235
000240 00 00 00 60 0f 50 a7 bf 00 00 00 a0 ae dc ee 3f
       -0.04553268477320671 0.9644387364387512
000250 00 00 00 00 a8 a9 d0 3f 00 00 00 80 18 73 7c bf
       0.26035499572753906 -0.006945701315999031
000260 00 00 00 20 9a 19 ef 3f 00 00 00 20 61 21 ce 3f
       0.9718752503395081 0.23539365828037262
000270 00 00 00 a0 24 7b a1 3f 00 00 00 c0 8d 4e ef 3f
       0.0341426320374012 0.9783390760421753
000280 00 00 00 a0 5c 22 ca 3f 00 00 00 80 de e7 b2 3f
       0.20417363941669464 0.07385054230690002
000290 00 00 00 c0 fa 63 ef 3f 00 00 00 60 c9 fe c6 3f
       0.9809545278549194 0.1796504706144333
0002a0 00 00 00 40 b9 15 be 3f 00 00 00 40 e5 66 ef 3f
       0.11751897633075714 0.9813104867935181
0002b0 00 00 00 00 1e 81 c3 3f 00 00 00 80 83 9c c4 3f
       0.15237784385681152 0.16102641820907593
0002c0 00 00 00 20 b4 52 ef 3f 00 00 00 a0 fe 27 c0 3f
       0.9788456559181213 0.12622053921222687
0002d0 00 00 00 e0 a8 df ca 3f 00 00 00 40 ca 22 ef 3f
       0.2099505513906479 0.9729968309402466
0002e0 00 00 00 c0 51 8d b8 3f 00 00 00 e0 5a b6 d0 3f
       0.09590636193752289 0.26113006472587585
0002f0 00 00 00 e0 da d3 ee 3f 00 00 00 20 79 56 af 3f
       0.9633612036705017 0.06120661273598671
000300 00 00 00 80 5a b3 d3 3f 00 00 00 40 03 6e ee 3f
       0.3078218698501587 0.9509292840957642
000310 00 00 00 a0 c1 05 a0 3f 00 00 00 e0 33 0a d7 3f
       0.03129391744732857 0.3599977195262909
000320 00 00 00 e0 b1 da ed 3f 00 00 00 80 62 cf 6d 3f
       0.9329461455345154 0.003638927824795246
000330 00 00 00 c0 ad 25 da 3f 00 00 00 40 4b 31 ed 3f
       0.4085497260093689 0.9122673273086548
000340 00 00 00 20 46 f3 9d bf 00 00 00 20 a5 4a dd 3f
       -0.029248328879475594 0.45768097043037415
000350 00 00 00 a0 97 62 ec 3f 00 00 00 c0 3c 21 af bf
       0.8870351910591125 -0.0608004555106163
000360 00 00 00 c0 45 39 e0 3f 00 00 00 c0 8b 6e eb 3f
       0.5069912672042847 0.8572443723678589
000370 00 00 00 20 46 07 b7 bf 00 00 00 c0 49 a7 e1 3f
       -0.08995474129915237 0.5516709089279175
000380 00 00 00 c0 43 6c ea 3f 00 00 00 c0 56 21 be bf
       0.8257158994674683 -0.11769621074199677
000390 00 00 00 60 8b f9 e2 3f 00 00 00 40 78 55 e9 3f
       0.5929619669914246 0.7916833162307739
0003a0 00 00 00 60 a4 d3 c2 bf 00 00 00 60 45 37 e4 3f
       -0.1470838040113449 0.6317469477653503
0003b0 00 00 00 20 94 2f e8 3f 00 00 00 20 64 0a c6 bf
       0.7558079361915588 -0.17219211161136627
0003c0 00 00 00 a0 8c 42 e5 3f 00 00 00 c0 02 18 e7 3f
       0.6643736958503723 0.7216809988021851
0003d0 00 00 00 40 7d e1 c8 bf 00 00 00 c0 53 24 e6 3f
       -0.19438138604164124 0.6919344663619995
0003e0 00 00 00 40 78 01 e6 3f 00 00 00 80 46 23 cc bf
       0.6876794099807739 -0.21982651948928833
0003f0 00 00 00 a0 ca 01 e7 3f 00 00 00 40 18 df e4 3f
       0.7189686894416809 0.6522332429885864
000400 00 00 00 00 7e bd ce bf 00 00 00 40 54 c1 e7 3f
       -0.2401578426361084 0.7423497438430786
000410 00 00 00 e0 84 c0 e3 3f 00 00 00 e0 da ad d0 bf
       0.6172508597373962 -0.26061126589775085
000420 00 00 00 60 20 70 e8 3f 00 00 00 e0 de 95 e2 3f
       0.7636873126029968 0.5807947516441345
000430 00 00 00 a0 66 0a d2 bf 00 00 00 c0 33 1e e9 3f
       -0.2818848192691803 0.784936785697937
000440 00 00 00 40 7d 66 e1 3f 00 00 00 60 c0 01 d3 bf
       0.5437608957290649 -0.29698190093040466
000450 00 00 00 00 04 b2 e9 3f 00 00 00 20 46 18 e0 3f
       0.8029804229736328 0.502963125705719
000460 00 00 00 e0 0c 77 d4 bf 00 00 00 40 0d 3a ea 3f
       -0.31976625323295593 0.8195863962173462
000470 00 00 00 40 0e 6c dd 3f 00 00 00 80 a5 e2 d5 bf
       0.4597201943397522 -0.3419584035873413
000480 00 00 00 e0 18 b3 ea 3f 00 00 00 e0 1a 14 da 3f
       0.8343624472618103 0.40747711062431335
000490 00 00 00 20 03 c2 d7 bf 00 00 00 20 18 29 eb 3f
       -0.3712165653705597 0.8487663865089417
0004a0 00 00 00 a0 a9 a2 d5 3f 00 00 00 60 93 05 da bf
       0.3380531370639801 -0.4065903127193451
0004b0 00 00 00 e0 2e 7e eb 3f 00 00 00 20 2b 4b ce 3f
       0.8591532111167908 0.23666895925998688
0004c0 00 00 00 40 6b 09 dd bf 00 00 00 e0 e5 fe ea 3f
       -0.45369988679885864 0.8436154723167419
0004d0 00 00 00 20 9b 35 b3 3f 00 00 00 20 83 03 e1 bf
       0.07503671199083328 -0.5316787362098694
0004e0 00 00 00 60 b2 21 e8 3f 00 00 00 80 88 1a ca bf
       0.7541133761405945 -0.20393472909927368
0004f0 00 00 00 00 17 fa e3 bf 00 00 00 00 44 2e dd 3f
       -0.6242785453796387 0.4559488296508789
000500 00 00 00 20 db 6d e3 bf 00 00 00 40 e4 d2 e4 bf
       -0.6071601510047913 -0.6507436037063599
000510 00 00 00 00 a1 77 a8 bf 00 00 00 00 e2 de eb bf
       -0.04778769612312317 -0.8709573745727539
000520 00 00 00 40 41 4c df bf 00 00 00 e0 0e 27 d7 bf
       -0.4890292286872864 -0.36175891757011414
000530 00 00 00 00 18 48 ec bf 00 00 00 40 07 fd d2 bf
       -0.8838005065917969 -0.2966936230659485
000540 00 00 00 40 17 c8 e0 bf 00 00 00 e0 99 a6 ea bf
       -0.5244251489639282 -0.8328370451927185
000550 00 00 00 c0 de aa c6 bf 00 00 00 40 28 97 e3 bf
       -0.17708954215049744 -0.6122018098831177
000560 00 00 00 80 14 13 e9 bf 00 00 00 e0 a3 1b bb bf
       -0.7835791110992432 -0.10589050501585007
000570 00 00 00 e0 a8 59 e5 bf 00 00 00 80 c9 be e7 bf
       -0.6671947836875916 -0.7420394420623779
000580 00 00 00 00 95 a5 b0 bf 00 00 00 20 d4 73 e6 bf
       -0.06502658128738403 -0.7016392350196838
000590 00 00 00 80 83 c4 e6 bf 00 00 00 00 63 bd a3 bf
       -0.7114884853363037 -0.03855428099632263
0005a0 00 00 00 60 c9 4d e7 bf 00 00 00 60 12 eb e5 bf
       -0.7282454371452332 -0.684945285320282
0005b0 00 00 00 a0 79 17 97 bf 00 00 00 80 d8 f8 e7 bf
       -0.022550487890839577 -0.749126672744751
0005c0 00 00 00 e0 27 31 e5 bf 00 00 00 a0 c5 4d 8f bf
       -0.6622504591941833 -0.01528505701571703
0005d0 00 00 00 20 c1 73 e8 bf 00 00 00 40 b4 a3 e4 bf
       -0.764130175113678 -0.6449834108352661
0005e0 00 00 00 20 3a a3 84 bf 00 00 00 c0 43 de e8 bf
       -0.010076955892145634 -0.7771319150924683
0005f0 00 00 00 80 ef 22 e4 bf 00 00 00 80 c1 a8 83 bf
       -0.6292645931243896 -0.009599220007658005
000600 00 00 00 e0 ff 31 e9 bf 00 00 00 e0 9e b9 e3 bf
       -0.7873534560203552 -0.6164087653160095
000610 00 00 00 00 b7 ef 85 bf 00 00 00 80 98 7e e9 bf
       -0.010711126029491425 -0.796703577041626
000620 00 00 00 c0 56 55 e3 bf 00 00 00 40 4a 09 90 bf
       -0.6041673421859741 -0.015660438686609268
000630 00 00 00 a0 b0 ba e9 bf 00 00 00 60 54 03 e3 bf
       -0.8040392994880676 -0.5941564440727234
000640 00 00 00 a0 40 df 96 bf 00 00 00 a0 37 ef e9 bf
       -0.022336015477776527 -0.810451328754425
000650 00 00 00 80 e3 b8 e2 bf 00 00 00 c0 20 12 9e bf
       -0.5850694179534912 -0.02936602756381035
000660 00 00 00 60 73 19 ea bf 00 00 00 40 e5 79 e2 bf
       -0.8156067728996277 -0.5773798227310181
000670 00 00 00 80 ec 47 a3 bf 00 00 00 00 4f 36 ea bf
       -0.03765811026096344 -0.819129467010498
000680 00 00 00 20 d7 4a e2 bf 00 00 00 60 54 56 a8 bf
       -0.5716357827186584 -0.04753364250063896
000690 00 00 00 60 fa 49 ea bf 00 00 00 a0 42 26 e2 bf
       -0.8215305209159851 -0.5671704411506653
0006a0 00 00 00 00 a9 e0 ad bf 00 00 00 20 bf 5f ea bf
       -0.05835464596748352 -0.8241878151893616
0006b0 00 00 00 40 04 fd e1 bf 00 00 00 00 76 95 b1 bf
       -0.5621358156204224 -0.068686842918396
0006c0 00 00 00 80 ff 68 ea bf 00 00 00 80 4d e2 e1 bf
       -0.8253171443939209 -0.5588748455047607
0006d0 00 00 00 40 f9 a7 b4 bf 00 00 00 20 45 6b ea bf
       -0.08068807423114777 -0.8255944848060608
0006e0 00 00 00 80 3b cf e1 bf 00 00 00 40 f4 ce b7 bf
       -0.5565469264984131 -0.09300161898136139
0006f0 00 00 00 20 d5 65 ea bf 00 00 00 40 37 c5 e1 bf
       -0.824930727481842 -0.5553241968154907
000700 00 00 00 20 fa f9 ba bf 00 00 00 40 42 5b ea bf
       -0.10537684708833694 -0.823639988899231
000710 00 00 00 00 4a bf e1 bf 00 00 00 80 0b 54 be bf
       -0.554600715637207 -0.11846992373466492
000720 00 00 00 80 ad 49 ea bf 00 00 00 e0 bf c3 e1 bf
       -0.8214938640594482 -0.5551452040672302
000730 00 00 00 e0 99 ab c0 bf 00 00 00 e0 04 37 ea bf
       -0.13023684918880463 -0.8192161917686462
000740 00 00 00 c0 f8 c6 e1 bf 00 00 00 40 57 38 c2 bf
       -0.555538535118103 -0.1423443853855133
000750 00 00 00 c0 f4 24 ea bf 00 00 00 e0 0d c9 e1 bf
       -0.8170112371444702 -0.5557927489280701
000760 00 00 00 a0 87 a8 c3 bf 00 00 00 c0 9f 0f ea bf
       -0.15358062088489532 -0.814407229423523
000770 00 00 00 40 7c cf e1 bf 00 00 00 20 89 04 c5 bf
       -0.5565778017044067 -0.16420091688632965
000780 00 00 00 00 08 fb e9 bf 00 00 00 00 af d1 e1 bf
       -0.8118934631347656 -0.5568461418151855
000790 00 00 00 00 35 72 c6 bf 00 00 00 80 9d e7 e9 bf
       -0.1753603219985962 -0.809523344039917
0007a0 00 00 00 60 56 d3 e1 bf 00 00 00 20 dd ba c7 bf
       -0.5570480227470398 -0.18539012968540192
0007b0 00 00 00 40 11 d6 e9 bf 00 00 00 a0 f8 d2 e1 bf
       -0.807381272315979 -0.5570033192634583
0007c0 00 00 00 c0 cb e9 c8 bf 00 00 00 00 c9 c8 e9 bf
       -0.19463488459587097 -0.8057599067687988
0007d0 00 00 00 20 1b cb e1 bf 00 00 00 20 bd 18 ca bf
       -0.5560432076454163 -0.2038799673318863
0007e0 00 00 00 80 42 c4 e9 bf 00 00 00 40 69 bc e1 bf
       -0.8052074909210205 -0.5542494058609009
0007f0 00 00 00 c0 6a fc ca bf 00 00 00 e0 d1 c4 e9 bf
       -0.21082815527915955 -0.8052758574485779

continuous_index_train f8 [5000, 3]
000000 7b 49 0d f1 44 8b 12 40 9c 33 ab ba 7d 79 e7 3f
       4.636005178867317 0.7335804601549287
000010 00 00 00 00 00 00 00 00 fa c6 b3 50 b7 8d 1c 40
       0.0 7.138394604656918
000020 39 89 c0 d0 21 45 a7 3f 00 00 00 00 00 00 00 00
       0.04544931100123723 0.0
000030 3e 13 33 9f 97 61 1b 40 23 5d 35 7f 78 00 5e bf
       6.845304954044705 -0.0018311669089906078
000040 00 00 00 00 00 00 00 00 41 9c c0 35 a3 8c 15 40
       0.0 5.387341346627239
000050 3a e6 75 70 20 40 f5 3f 00 00 00 00 00 00 00 00
       1.3281559365262994 0.0
000060 59 21 f5 63 5a 4c 11 40 c0 9b d7 ec f4 7c 0f 40
       4.324563562237324 3.9360140326784574
000070 00 00 00 00 00 00 00 00 40 3f 77 e5 14 62 10 40
       0.0 4.095782838252319
000080 a6 8b 2e 40 02 1b 19 40 00 00 00 00 00 00 00 00
       6.276375773278152 0.0
000090 31 07 15 25 38 87 14 40 bf 5e ba e8 53 c8 1e 40
       5.132050113113835 7.6956325877906115
0000a0 00 00 00 00 00 00 00 00 bc 8d 66 73 36 90 24 40
       0.0 10.281665426510578
0000b0 92 55 c4 48 6f 8f 25 40 00 00 00 00 00 00 00 00
       10.780145906416497 0.0
0000c0 ec ec a4 48 35 4a 2e 40 8b 8c 5c 25 0a 56 2c 40
       15.14493777287722 14.168046157405362
0000d0 00 00 00 00 00 00 00 00 fd 01 62 b6 ca 02 34 40
       0.0 20.010905646255186
0000e0 97 ad 63 5e a9 7b 33 40 00 00 00 00 00 00 00 00
       19.483053111396284 0.0
0000f0 15 8c 3c 1f d2 6a 3a 40 6c 7b 1b 32 93 69 3b 40
       26.417268707544356 27.412402278623105
000100 00 00 00 00 00 00 00 00 7a ba bf c8 09 27 41 40
       0.0 34.30498608934154
000110 21 d0 76 87 e7 0a 42 40 00 00 00 00 00 00 00 00
       36.08519070912758 0.0
000120 3e fc 17 4b 4f 8b 46 40 cf 53 e3 81 b1 7b 46 40
       45.08835734053763 44.966354595184036
000130 00 00 00 00 00 00 00 00 86 d8 76 77 13 17 4f 40
       0.0 62.18028157523172
000140 07 61 06 0a 3a ec 4a 40 00 00 00 00 00 00 00 00
       53.845521214594605 0.0
000150 bd 52 86 ab 44 da 55 40 b6 8c 42 01 2f 2b 50 40
       87.41044128530025 64.67474395274152
000160 00 00 00 00 00 00 00 00 f5 54 cd bc cb 70 5e 40
       0.0 121.76243515064182
000170 29 1c a4 ab 4b 2f 54 40 00 00 00 00 00 00 00 00
       80.73899355913512 0.0
000180 da 5d 94 b3 52 89 64 40 10 1a ab f3 11 25 5a 40
       164.29134539583066 104.57922069272195
000190 00 00 00 00 00 00 00 00 d6 fc 1a 62 f7 bb 6a 40
       0.0 213.8739481474974
0001a0 64 29 a2 e6 c0 25 61 40 00 00 00 00 00 00 00 00
       137.17979747459606 0.0
0001b0 e7 fb 5c e9 97 79 70 40 68 9c 29 39 28 bf 65 40
       263.5995877868831 173.97366006972447
0001c0 00 00 00 00 00 00 00 00 77 81 da 17 bc 6f 73 40
       0.0 310.9834211860065
0001d0 85 2d a3 8b af 54 6a 40 00 00 00 00 00 00 00 00
       210.64642888899485 0.0
0001e0 2d 10 46 98 8b 12 76 40 2a a8 2d 24 2e 3f 6e 40
       353.1590807663768 241.97438248555528
0001f0 00 00 00 00 00 00 00 00 29 0a b3 87 cd 1f 78 40
       0.0 385.9876782411325
000200 61 00 6b e7 3d 66 70 40 00 00 00 00 00 00 00 00
       262.39011327550367 0.0
000210 91 71 d7 8f df a9 79 40 b2 2f b0 20 5d e9 70 40
       410.61708053739227 270.5852362520483
000220 00 00 00 00 00 00 00 00 7c df 1d 8e 7e cb 7a 40
       0.0 428.7183972517885
000230 5e b6 6a 7f 01 c9 70 40 00 00 00 00 00 00 00 00
       268.56286565479775 0.0
000240 5d 38 bb c1 a9 c5 7b 40 b0 04 98 20 61 44 70 40
       444.35394452221755 260.27371272451546
000250 00 00 00 00 00 00 00 00 a6 a3 23 0d 21 b6 7c 40
       0.0 459.3830691711577
000260 8e 4b 2c c1 07 57 6f 40 00 00 00 00 00 00 00 00
       250.71969660426515 0.0
000270 6b 51 66 db dd c8 7d 40 9a 4d d5 43 35 98 6e 40
       476.5541643139647 244.75650207196014
000280 00 00 00 00 00 00 00 00 d1 0f 59 d4 12 1c 7f 40
       0.0 497.7545970419861
000290 f1 5c 05 ef e4 ca 6e 40 00 00 00 00 00 00 00 00
       246.34044600532027 0.0
0002a0 b5 f6 cf c9 c6 2d 80 40 f1 47 55 40 76 c0 6f 40
       517.7220646140255 254.0144349733014
0002b0 00 00 00 00 00 00 00 00 94 4b 74 2b 50 c4 80 40
       0.0 536.5391453824582
0002c0 f4 a9 58 59 54 ae 70 40 00 00 00 00 00 00 00 00
       266.89559301981285 0.0
0002d0 02 a1 86 97 07 49 81 40 dc 72 4c f8 91 b7 71 40
       553.1287069814573 283.47313718664896
0002e0 00 00 00 00 00 00 00 00 52 f9 de 6a b5 89 81 40
       0.0 561.2135827464901
0002f0 55 dc 5d 5c 33 8f 72 40 00 00 00 00 00 00 00 00
       296.95003925957036 0.0
000300 b0 ec bc 0f 53 92 81 40 d0 a5 d2 48 56 10 73 40
       562.2905573615772 305.02106554302463
000310 00 00 00 00 00 00 00 00 e6 a0 28 55 95 88 81 40
       0.0 561.0729163335898
000320 7c ed 10 10 12 45 73 40 00 00 00 00 00 00 00 00
       308.31690985309956 0.0
000330 d9 6b b0 f7 b6 85 81 40 78 35 a4 b4 83 34 73 40
       560.7143396170533 307.28215469497763
000340 00 00 00 00 00 00 00 00 db 9b 62 6e ab af 81 40
       0.0 565.9587066367925
000350 e5 f9 80 51 3c 1a 73 40 00 00 00 00 00 00 00 00
       305.63972616559323 0.0
000360 79 7e ba 83 64 16 82 40 87 f9 f2 10 1c 29 73 40
       578.7990793771597 306.5693521014404
000370 00 00 00 00 00 00 00 00 eb d3 06 69 26 a5 82 40
       0.0 596.6437550099776
000380 c1 64 27 1a e2 77 73 40 00 00 00 00 00 00 00 00
       311.4927007235347 0.0
000390 81 96 5e 5d a1 12 83 40 ac bc 4b 40 63 e5 73 40
       610.3287913694077 318.33673123917356
0003a0 00 00 00 00 00 00 00 00 d1 b1 6a 89 e1 3c 83 40
       0.0 615.6101253829494
0003b0 78 23 68 b3 7c 52 74 40 00 00 00 00 00 00 00 00
       325.15544453314897 0.0
0003c0 16 8b 5e ac 69 19 83 40 89 95 77 fa 81 a5 74 40
       611.1765982996174 330.34423300468967
0003d0 00 00 00 00 00 00 00 00 ee 11 d8 85 1f 95 82 40
       0.0 594.6403920059654
0003e0 25 83 ce 19 02 a5 74 40 00 00 00 00 00 00 00 00
       330.3130128924261 0.0
0003f0 ef 5b f8 ab 3f eb 81 40 28 5a 51 35 d3 71 74 40
       573.4060897257858 327.11406451967423
000400 00 00 00 00 00 00 00 00 f8 d7 41 6c 02 4b 81 40
       0.0 553.3761830467256
000410 7d b1 c5 58 17 27 74 40 00 00 00 00 00 00 00 00
       322.4431998941798 0.0
000420 32 33 6c db 24 c5 80 40 cf 85 1e 07 5d d6 73 40
       536.6429966405033 317.3977118675511
000430 00 00 00 00 00 00 00 00 4d 83 45 ff f8 87 80 40
       0.0 528.9965806418128
000440 fb 20 c5 82 20 b2 73 40 00 00 00 00 00 00 00 00
       315.13293721202325 0.0
000450 6e 53 14 69 b4 98 80 40 b9 4d 54 99 7a dc 73 40
       531.0880910480462 317.7799313824758
000460 00 00 00 00 00 00 00 00 3e 76 d6 8b 62 db 80 40
       0.0 539.4231182818255
000470 d7 df 6d 7d e4 53 74 40 00 00 00 00 00 00 00 00
       325.2432836811035 0.0
000480 7d 51 65 1e 5d 2d 81 40 23 02 0f 8c a9 ef 74 40
       549.6704681315892 334.97889333593974
000490 00 00 00 00 00 00 00 00 ab 09 40 1f 2e 75 81 40
       0.0 558.6475205424262
0004a0 e5 3e b9 b1 77 8e 75 40 00 00 00 00 00 00 00 00
       344.90422222482295 0.0
0004b0 ba 56 94 c3 b2 91 81 40 f3 ae 93 e0 1e ed 75 40
       562.2122871006934 350.8200383919604
0004c0 00 00 00 00 00 00 00 00 b2 7c 75 01 83 5d 81 40
       0.0 555.6889676264457
0004d0 67 e2 87 a8 1d cb 75 40 00 00 00 00 00 00 00 00
       348.69474080161893 0.0
0004e0 76 6e 4c f3 67 f8 80 40 25 52 fa 60 c5 48 75 40
       543.0507570239267 340.5481881883773
0004f0 00 00 00 00 00 00 00 00 52 54 e9 e0 dd 69 80 40
       0.0 525.2333391407831
000500 8a 29 bd 26 ec 87 74 40 00 00 00 00 00 00 00 00
       328.49515413180836 0.0
000510 b6 49 46 03 b4 51 7f 40 d1 17 38 33 b3 ac 73 40
       501.1064484353659 314.79375001822797
000520 00 00 00 00 00 00 00 00 56 0f 79 58 14 d7 7d 40
       0.0 477.44246718682314
000530 0c 2c c9 60 cc 1a 73 40 00 00 00 00 00 00 00 00
       305.6748969896587 0.0
000540 34 34 8b ee ce 5b 7c 40 0d cc cb 8e d1 e9 72 40
       453.7380204618123 302.6136615715812
000550 00 00 00 00 00 00 00 00 c6 15 bd a2 4e a9 7a 40
       0.0 426.58169816838597
000560 9a 2a 81 82 8d eb 72 40 00 00 00 00 00 00 00 00
       302.7220482869685 0.0
000570 0a aa 65 5b 55 bc 78 40 12 e3 b5 a0 bd e4 72 40
       395.7708391162165 302.2962958435975
000580 00 00 00 00 00 00 00 00 d8 f4 be d3 01 7f 76 40
       0.0 359.93794607727386
000590 92 50 20 27 c6 93 72 40 00 00 00 00 00 00 00 00
       297.2358771574301 0.0
0005a0 36 0c af 03 bc 1e 74 40 f3 ec f5 cd 08 ba 71 40
       321.92090195062644 283.62714954437905
0005b0 00 00 00 00 00 00 00 00 00 97 03 eb 08 b1 71 40
       0.0 283.06467725183757
0005c0 31 8d 90 9a c9 4f 70 40 00 00 00 00 00 00 00 00
       260.98671966996613 0.0
0005d0 40 d4 fe 1f e5 9f 6e 40 a6 26 81 9c cd 08 6d 40
       244.9967193581706 232.2750990412216
0005e0 00 00 00 00 00 00 00 00 2d b2 67 ed b6 00 6a 40
       0.0 208.02233000043034
0005f0 c1 6f f1 df 53 4e 69 40 00 00 00 00 00 00 00 00
       202.44773862033438 0.0
000600 f0 17 40 c3 45 c6 64 40 44 4a 59 e3 31 a1 65 40
       166.1960159541918 173.03733985366318
000610 00 00 00 00 00 00 00 00 80 2b cf 00 6b 4f 5e 40
       0.0 121.24090595466078
000620 c4 47 ee 52 b6 70 62 40 00 00 00 00 00 00 00 00
       147.52225634135368 0.0
000630 a7 ae c8 d4 11 a8 52 40 49 64 ae 55 c2 34 5f 40
       74.62608832929492 124.82436124830669
000640 00 00 00 00 00 00 00 00 40 7e f1 43 9c a8 3f 40
       0.0 31.65863442083196
000650 32 b7 6d 66 25 97 59 40 00 00 00 00 00 00 00 00
       102.36165772165694 0.0
000660 22 3a d0 bb 26 40 bf bf 2e 92 1a 0b 97 a3 53 40
       -0.12207262120521326 78.5560939559443
000670 00 00 00 00 00 00 00 00 4b 48 f3 a5 f2 3e 2f c0
       0.0 -15.622945009181555
000680 2c 57 37 67 07 70 4a 40 00 00 00 00 00 00 00 00
       52.875225927373634 0.0
000690 63 bd df 21 48 63 30 c0 26 6a 0b 15 50 5d 3b 40
       -16.387819401859257 27.36450320748022
0006a0 00 00 00 00 00 00 00 00 06 15 dc 35 00 b2 1a c0
       0.0 -6.673828927572009
0006b0 36 7c e7 ee f0 b5 15 40 00 00 00 00 00 00 00 00
       5.427676899794326 0.0
0006c0 b6 37 20 cd d8 50 1b 40 61 07 13 c3 71 2b 22 c0
       6.828952031222732 -9.084852310250144
0006d0 00 00 00 00 00 00 00 00 62 1d 23 bb 20 84 30 40
       0.0 16.51612443549437
0006e0 29 1c bd af 77 04 2e c0 00 00 00 00 00 00 00 00
       -15.008725635370938 0.0
0006f0 e3 68 a8 25 eb 49 31 40 fd 3b 59 c9 6c 77 2f c0
       17.288744310012486 -15.733251850264418
000700 00 00 00 00 00 00 00 00 d4 45 e6 db 27 17 2c 40
       0.0 14.0452259749026
000710 22 71 0f 2f 8b da 28 c0 00 00 00 00 00 00 00 00
       -12.426843138346673 0.0
000720 ed 5c cb 18 eb e7 20 40 dc d0 5c ec 05 18 25 c0
       8.45296552164515 -10.546920191125928
000730 00 00 00 00 00 00 00 00 10 2a 0d 25 5d 50 09 40
       0.0 3.1642401594774654
000740 98 5e 7a 5f fe 2d 2a c0 00 00 00 00 00 00 00 00
       -13.08983133667725 0.0
000750 bb 48 fd 84 05 ac e6 3f 8d 65 e0 18 a1 61 33 c0
       0.7084987256478351 -19.38136439779696
000760 00 00 00 00 00 00 00 00 d7 48 3a 23 2c 09 eb 3f
       0.0 0.8448696792641169
000770 d3 f4 ba 50 7b 81 3b c0 00 00 00 00 00 00 00 00
       -27.505787892955436 0.0
000780 df ef 65 0c c0 ab c1 3f 47 94 b1 0e bb a1 41 c0
       0.13805389981632651 -35.26352103873119
000790 00 00 00 00 00 00 00 00 30 17 de 70 de 75 c6 bf
       0.0 -0.17547207366094986
0007a0 83 38 fe 1d af b3 43 c0 00 00 00 00 00 00 00 00
       -39.40378165162203 0.0
0007b0 75 e3 59 53 7e db f4 bf a4 2a d9 c5 bd 34 43 c0
       -1.3035872703460119 -38.41204140762173
0007c0 00 00 00 00 00 00 00 00 de 94 ef 25 41 2f 0b c0
       0.0 -3.3980734790553546
0007d0 2d a8 f8 03 6e 74 41 c0 00 00 00 00 00 00 00 00
       -34.90960740701153 0.0
0007e0 ba 92 70 3e 7f e5 1b c0 82 97 d7 8b 77 79 3f c0
       -6.974118209477348 -31.474480381140445
0007f0 00 00 00 00 00 00 00 00 78 74 5d e9 75 fa 27 c0
       0.0 -11.989180843980861
