NeuroAI/Neural Embeddings Rank Aligning 3D latent dynamics with movements/NER/data_NER/Fig8/Supp_Cebra/Type_ curve-up-down=[31, 38]_parameters_5000itr_lr0.0001.npz (npz, 579244 bytes, 7 tensors)

train_loss_stable f4 [5000]
00000000: 5aa0 c740 5aa0 c740 59a0 c740 59a0 c740
00000010: 5aa0 c740 59a0 c740 59a0 c740 57a0 c740
00000020: 59a0 c740 58a0 c740 5aa0 c740 57a0 c740
00000030: 58a0 c740 58a0 c740 58a0 c740 57a0 c740
00000040: 5aa0 c740 57a0 c740 58a0 c740 56a0 c740
00000050: 58a0 c740 56a0 c740 57a0 c740 56a0 c740
00000060: 55a0 c740 56a0 c740 55a0 c740 56a0 c740
00000070: 55a0 c740 55a0 c740 55a0 c740 54a0 c740
00000080: 54a0 c740 51a0 c740 51a0 c740 53a0 c740
00000090: 50a0 c740 51a0 c740 50a0 c740 51a0 c740
000000a0: 4ea0 c740 4ea0 c740 4da0 c740 4ca0 c740
000000b0: 4ba0 c740 4ea0 c740 4ba0 c740 48a0 c740
000000c0: 46a0 c740 47a0 c740 43a0 c740 47a0 c740
000000d0: 41a0 c740 3ea0 c740 39a0 c740 3da0 c740
000000e0: 35a0 c740 37a0 c740 34a0 c740 31a0 c740
000000f0: 33a0 c740 2ba0 c740 2aa0 c740 2aa0 c740
00000100: 26a0 c740 23a0 c740 1ba0 c740 23a0 c740
00000110: 1da0 c740 12a0 c740 08a0 c740 0ca0 c740
00000120: 0fa0 c740 ff9f c740 e89f c740 e89f c740
00000130: ec9f c740 e39f c740 d99f c740 c09f c740
00000140: c59f c740 cb9f c740 ad9f c740 b09f c740
00000150: d49f c740 b09f c740 939f c740 829f c740
00000160: 7e9f c740 589f c740 539f c740 6b9f c740
00000170: 379f c740 289f c740 0b9f c740 0b9f c740
00000180: ff9e c740 f69e c740 b49e c740 7b9e c740
00000190: 959e c740 1c9e c740 209e c740 459e c740
000001a0: 149e c740 cb9d c740 ee9d c740 8c9d c740
000001b0: a89d c740 af9d c740 ce9c c740 9a9c c740
000001c0: 459c c740 769b c740 ad9b c740 449c c740
000001d0: eb9a c740 1d9b c740 b19a c740 fc99 c740
000001e0: 289a c740 469a c740 4199 c740 0199 c740
000001f0: c498 c740 1298 c740 fd96 c740 6597 c740
00000200: 6497 c740 4095 c740 2394 c740 ed93 c740
00000210: 4292 c740 4f91 c740 5991 c740 0d8e c740
00000220: 6c8e c740 ba8d c740 6f8e c740 c590 c740
00000230: 1888 c740 c68a c740 7488 c740 6e85 c740
00000240: 3088 c740 a280 c740 6284 c740 1b7e c740
00000250: 687c c740 d57c c740 9375 c740 4271 c740
00000260: 796d c740 e76c c740 ea70 c740 2160 c740
00000270: f158 c740 1e61 c740 c856 c740 745c c740
00000280: 6e5c c740 684b c740 bd3e c740 bf3e c740
00000290: 4a3c c740 1c35 c740 af26 c740 9c27 c740
000002a0: d216 c740 fa11 c740 49f9 c640 75e2 c640
000002b0: c6dc c640 36df c640 cfd1 c640 22c9 c640
000002c0: 26ac c640 8383 c640 428e c640 e16f c640
000002d0: ff4b c640 b941 c640 a5f6 c540 c40b c640
000002e0: b609 c640 9ceb c540 41cb c540 63c1 c540
000002f0: 2398 c540 221e c540 a62d c540 362d c540
00000300: 45a0 c440 066a c440 d145 c440 834f c440
00000310: 3293 c440 02da c340 4b70 c240 7e41 c340
00000320: 883b c340 8b2b c240 e6b5 c240 9318 c240
00000330: 2592 c240 5828 c140 0151 c040 b366 c240
00000340: 6213 c140 6bd1 bf40 78b3 bf40 1a3f c040
00000350: 8d7d bf40 2a78 c040 762a c140 19b8 bf40
00000360: 2f27 c140 10b2 be40 911e bf40 49d9 bf40
00000370: 4bcc bf40 90b6 bf40 9617 bf40 20e6 bd40
00000380: a02a bf40 d3e1 bd40 c523 bf40 8638 bf40
00000390: 4318 bf40 1801 c040 7381 be40 272f bf40
000003a0: 367d bf40 f46d bf40 2c8e bd40 5e39 bf40
000003b0: a946 be40 07b9 be40 1b30 be40 452b be40
000003c0: f366 be40 ffbb bd40 28fe bc40 ca00 be40
000003d0: c3ae be40 743e bf40 dfc9 be40 46f1 be40
000003e0: 23d4 bc40 b555 bf40 be62 bd40 748c be40
000003f0: 4ba1 bd40 14b0 bd40 7461 bd40 a091 bd40
6.238324 6.238324 6.2383237 6.2383237 6.238324 6.2383237 6.2383237 6.2383227
6.2383237 6.238323 6.238324 6.2383227 6.238323 6.238323 6.238323 6.2383227
6.238324 6.2383227 6.238323 6.2383223 6.238323 6.2383223 6.2383227 6.2383223
6.238322 6.2383223 6.238322 6.2383223 6.238322 6.238322 6.238322 6.2383213
6.2383213 6.23832 6.23832 6.238321 6.2383194 6.23832 6.2383194 6.23832
6.2383184 6.2383184 6.238318 6.2383175 6.238317 6.2383184 6.238317 6.2383156
6.2383146 6.238315 6.238313 6.238315 6.2383122 6.238311 6.2383084 6.2383103
6.2383065 6.2383075 6.238306 6.2383046 6.2383056 6.2383018 6.2383013 6.2383013
6.2382994 6.238298 6.238294 6.238298 6.238295 6.23829 6.238285 6.238287
6.2382884 6.238281 6.23827 6.23827 6.2382717 6.2382674 6.2382627 6.2382507
6.238253 6.238256 6.2382417 6.238243 6.2382603 6.238243 6.2382293 6.238221
6.2382193 6.238201 6.2381988 6.23821 6.2381854 6.2381783 6.2381644 6.2381644
6.2381587 6.2381544 6.238123 6.2380958 6.238108 6.2380505 6.2380524 6.23807
6.2380466 6.238012 6.2380285 6.237982 6.237995 6.2379985 6.237891 6.2378664
6.237826 6.237727 6.2377534 6.2378254 6.237661 6.2376847 6.237633 6.237547
6.237568 6.237582 6.2374578 6.237427 6.237398 6.2373133 6.237181 6.237231
6.2372303 6.236969 6.236833 6.2368073 6.2366037 6.236488 6.2364926 6.23609
6.2361355 6.2360506 6.236137 6.236422 6.235363 6.23569 6.235407 6.235038
6.2353745 6.2344522 6.23491 6.2341437 6.2339363 6.2339883 6.2331023 6.2325754
6.2321134 6.2320437 6.2325335 6.2304845 6.229607 6.230605 6.2293434 6.230036
6.230033 6.227955 6.2264085 6.2264094 6.2261095 6.225233 6.223472 6.223585
6.2215357 6.2209444 6.2179303 6.2151437 6.21445 6.2147474 6.2131114 6.2120523
6.208514 6.2035537 6.2048655 6.201157 6.196777 6.195523 6.186358 6.188936
6.1886854 6.185011 6.1810613 6.179857 6.1748214 6.1599283 6.1618223 6.161769
6.144564 6.1379423 6.1335225 6.134706 6.142968 6.1203623 6.0762076 6.1017447
6.101017 6.0678153 6.0847044 6.0655 6.08034 6.036175 6.009888 6.0750365
6.033616 5.9943137 5.990658 6.007703 5.984076 6.0146685 6.036433 5.991223
6.036033 5.959236 5.9724813 5.995274 5.993688 5.9910355 5.971629 5.9343414
5.9739532 5.9338164 5.9731164 5.97565 5.9717116 6.0001335 5.953302 5.974506
5.9840345 5.982172 5.923605 5.975753 5.9461255 5.9600863 5.9433722 5.942782
5.950067 5.9291987 5.906025 5.9375963 5.958833 5.9763737 5.9621425 5.9669523
5.9008956 5.9792123 5.9183035 5.954645 5.925939 5.927744 5.918146 5.9240265

cebra_veldir_train f8 [6900, 3]
00000000: 0000 0080 2435 edbf 0000 00c0 0edb ccbf
00000010: 0000 0000 5bce d5bf 0000 0060 5852 edbf
00000020: 0000 00e0 bd96 ccbf 0000 0000 6d46 d5bf
00000030: 0000 0000 6779 edbf 0000 0060 8920 ccbf
00000040: 0000 0020 fc92 d4bf 0000 0040 9b98 edbf
00000050: 0000 00a0 dce0 cbbf 0000 00e0 0af3 d3bf
00000060: 0000 00a0 d3c3 edbf 0000 00e0 b27b cbbf
00000070: 0000 00e0 de0f d3bf 0000 00e0 9cec edbf
00000080: 0000 0020 db45 cbbf 0000 0040 c61d d2bf
00000090: 0000 0020 3720 eebf 0000 00c0 a1e3 cabf
000000a0: 0000 00e0 9be1 d0bf 0000 0040 4155 eebf
000000b0: 0000 00a0 60a9 cabf 0000 00e0 69d9 cebf
000000c0: 0000 00e0 ac99 eebf 0000 0040 c847 cabf
000000d0: 0000 00a0 89ab cabf 0000 0020 a2eb eebf
000000e0: 0000 0040 47a8 c9bf 0000 0040 66b3 c4bf
000000f0: 0000 0020 6d4c efbf 0000 00c0 ac40 c8bf
00000100: 0000 0060 8d1c b6bf 0000 00e0 8279 efbf
00000110: 0000 00a0 a90b c7bf 0000 0080 44fe 883f
00000120: 0000 0040 2b0b efbf 0000 00a0 f0bd c3bf
00000130: 0000 0000 5ffa c73f 0000 00c0 9d2e ecbf
00000140: 0000 0080 8fe1 b7bf 0000 0040 fdb8 dd3f
00000150: 0000 00e0 0903 e3bf 0000 0080 1e0e 973f
00000160: 0000 0040 ddba e93f 0000 0080 2f62 cabf
00000170: 0000 00a0 dc33 c03f 0000 0020 bc0c ef3f
00000180: 0000 0080 de40 b63f 0000 0040 1df2 c73f
00000190: 0000 0000 ce4f ef3f 0000 00c0 7dd3 cf3f
000001a0: 0000 00c0 ad4a cc3f 0000 0000 612d ee3f
000001b0: 0000 0060 62a4 d53f 0000 0040 dd91 ce3f
000001c0: 0000 0000 0521 ed3f 0000 0040 e6c7 d83f
000001d0: 0000 00c0 6e09 d03f 0000 0080 b264 ec3f
000001e0: 0000 00e0 21e8 d93f 0000 0000 a1b8 d03f
000001f0: 0000 00a0 8d0a ec3f 0000 00c0 7552 da3f
00000200: 0000 0060 b552 d13f 0000 0060 40da eb3f
00000210: 0000 00a0 8c82 da3f 0000 0040 7475 d13f
00000220: 0000 0000 68c9 eb3f 0000 00e0 da6f d93f
00000230: 0000 0040 d0e6 d13f 0000 0000 6bf7 eb3f
00000240: 0000 00e0 2d5e d83f 0000 00a0 520b d23f
00000250: 0000 00a0 432e ec3f 0000 00a0 3d34 d73f
00000260: 0000 00c0 d62b d23f 0000 0060 ae67 ec3f
00000270: 0000 0040 24d7 d53f 0000 00e0 473e d23f
00000280: 0000 0080 a0a9 ec3f 0000 0040 539c d43f
00000290: 0000 0000 a72a d23f 0000 0080 c5e6 ec3f
000002a0: 0000 00c0 d205 d33f 0000 0060 811b d23f
000002b0: 0000 0040 7b2e ed3f 0000 0060 f3ac d13f
000002c0: 0000 0060 eeda d13f 0000 0080 5e6e ed3f
000002d0: 0000 0080 ce7d d03f 0000 00e0 6283 d13f
000002e0: 0000 00c0 4ba7 ed3f 0000 00a0 afda ce3f
000002f0: 0000 0000 c010 d13f 0000 0080 7adc ed3f
00000300: 0000 0000 06e1 cc3f 0000 0040 7c92 d03f
00000310: 0000 0060 b50d ee3f 0000 0020 3e15 cb3f
00000320: 0000 0080 300e d03f 0000 0060 493a ee3f
00000330: 0000 00e0 4368 c93f 0000 0060 de9a ce3f
00000340: 0000 0060 696a ee3f 0000 0080 4a9f c73f
00000350: 0000 0080 661d cd3f 0000 0000 b398 ee3f
00000360: 0000 0040 c76e c63f 0000 00a0 b922 cb3f
00000370: 0000 0080 03c4 ee3f 0000 0060 45d3 c43f
00000380: 0000 0020 3236 c93f 0000 00c0 28f0 ee3f
00000390: 0000 00e0 d5c2 c33f 0000 00e0 0fc1 c63f
000003a0: 0000 0020 b319 ef3f 0000 0080 56f7 c23f
000003b0: 0000 0040 25b8 c33f 0000 00c0 ab42 ef3f
000003c0: 0000 00c0 7abc c13f 0000 0020 8846 c03f
000003d0: 0000 0040 d46d ef3f 0000 0080 f4f5 c03f
000003e0: 0000 0040 8176 b73f 0000 0040 fa94 ef3f
000003f0: 0000 0020 7f93 c03f 0000 0060 04b0 a83f
00000400: 0000 0080 68b1 ef3f 0000 00e0 841a c03f
00000410: 0000 0000 8f3d 82bf 0000 0020 95be ef3f
00000420: 0000 0020 4266 c03f 0000 0080 afb5 b4bf
00000430: 0000 00a0 69a1 ef3f 0000 0020 c114 c13f
00000440: 0000 0040 a9f9 c7bf 0000 00c0 6924 ef3f
00000450: 0000 0020 3210 c23f 0000 0040 e491 d5bf
00000460: 0000 00a0 96c9 ed3f 0000 0060 2da2 c43f
00000470: 0000 00a0 b203 e1bf 0000 0040 3c9b ea3f
00000480: 0000 0040 de8c c63f 0000 0000 3505 e8bf
00000490: 0000 0080 a160 e43f 0000 0000 b1da c63f
000004a0: 0000 0040 b692 edbf 0000 0000 179d d53f
000004b0: 0000 00c0 dbc2 c63f 0000 00e0 207c efbf
000004c0: 0000 0000 3631 923f 0000 0080 e3ec c53f
000004d0: 0000 00c0 dea5 eebf 0000 00c0 a292 cdbf
000004e0: 0000 0080 8603 c53f 0000 00a0 9ae5 ecbf
000004f0: 0000 0060 0868 d9bf 0000 0040 97a4 c43f
00000500: 0000 0080 962b ebbf 0000 0020 1219 e0bf
00000510: 0000 0000 e509 c53f 0000 0000 99a6 e9bf
00000520: 0000 00e0 1a65 e2bf 0000 0000 dc99 c53f
00000530: 0000 0060 006f e8bf 0000 0060 22f2 e3bf
00000540: 0000 00e0 0c79 c63f 0000 00e0 0b72 e7bf
00000550: 0000 0080 9f0a e5bf 0000 0080 4431 c73f
00000560: 0000 0080 b2a5 e6bf 0000 0060 f5d9 e5bf
00000570: 0000 0000 ae8c c83f 0000 0040 2bfe e5bf
00000580: 0000 0080 776b e6bf 0000 0000 0fc8 c93f
00000590: 0000 00e0 1370 e5bf 0000 0060 d4dd e6bf
000005a0: 0000 0080 69e6 ca3f 0000 00e0 b9fa e4bf
000005b0: 0000 00a0 6635 e7bf 0000 00e0 84f2 cb3f
000005c0: 0000 00c0 618e e4bf 0000 0040 0e82 e7bf
000005d0: 0000 00e0 4cc0 cc3f 0000 0080 7934 e4bf
000005e0: 0000 0020 2cc0 e7bf 0000 0040 eafe cd3f
000005f0: 0000 0060 eae3 e3bf 0000 00a0 63eb e7bf
00000600: 0000 0060 b730 cf3f 0000 0040 8b9a e3bf
00000610: 0000 0080 690f e8bf 0000 0020 153f d03f
00000620: 0000 00a0 6856 e3bf 0000 0040 e82a e8bf
00000630: 0000 00e0 e0c8 d03f 0000 00c0 b519 e3bf
00000640: 0000 0060 9643 e8bf 0000 0060 3b31 d13f
00000650: 0000 00e0 7ae1 e2bf 0000 00e0 465d e8bf
00000660: 0000 0060 6b88 d13f 0000 0020 abab e2bf
00000670: 0000 00a0 2877 e8bf 0000 0000 5fe7 d13f
00000680: 0000 0040 cb74 e2bf 0000 0060 8e8f e8bf
00000690: 0000 0040 f924 d23f 0000 00c0 2440 e2bf
000006a0: 0000 0040 89ab e8bf 0000 00e0 b743 d23f
000006b0: 0000 00e0 7c0e e2bf 0000 00e0 53ca e8bf
000006c0: 0000 00e0 3b4a d23f 0000 00a0 c9df e1bf
000006d0: 0000 0040 e3ea e8bf 0000 0000 7d3a d23f
000006e0: 0000 0000 67b1 e1bf 0000 00a0 c60e e9bf
000006f0: 0000 00e0 251d d23f 0000 00e0 e984 e1bf
00000700: 0000 0020 4033 e9bf 0000 0040 eba7 d13f
00000710: 0000 0020 fc5b e1bf 0000 0020 3064 e9bf
00000720: 0000 00c0 ef18 d13f 0000 0060 d838 e1bf
00000730: 0000 00c0 6694 e9bf 0000 00e0 6b92 d03f
00000740: 0000 0000 0b13 e1bf 0000 0040 b4c3 e9bf
00000750: 0000 0080 8a0a d03f 0000 00a0 aaf1 e0bf
00000760: 0000 00a0 18ef e9bf 0000 00c0 99a8 ce3f
00000770: 0000 0020 abd4 e0bf 0000 0080 5f1d eabf
00000780: 0000 00c0 3d87 cd3f 0000 0000 69bd e0bf
00000790: 0000 0020 1141 eabf 0000 0060 2a5c cc3f
000007a0: 0000 00e0 2daa e0bf 0000 0040 d461 eabf
000007b0: 0000 00e0 1d79 cb3f 0000 00c0 aa9a e0bf
000007c0: 0000 0060 947a eabf 0000 00e0 95c6 ca3f
000007d0: 0000 00c0 ec8b e0bf 0000 0020 358f eabf
000007e0: 0000 00c0 732a ca3f 0000 0080 3683 e0bf
000007f0: 0000 00a0 569e eabf 0000 00c0 1fdc c93f
-0.9127371311187744 -0.22543510794639587 -0.34071993827819824 -0.9163019061088562 -0.22335027158260345 -0.33242344856262207 -0.9210696220397949 -0.21974293887615204
-0.321471244096756 -0.924878716468811 -0.21779973804950714 -0.31170913577079773 -0.9301546216011047 -0.2147124856710434 -0.29784366488456726 -0.9351333975791931
-0.21306933462619781 -0.2830672860145569 -0.941432535648346 -0.21007177233695984 -0.26377007365226746 -0.9479070901870728 -0.20829398930072784 -0.2410099357366562
-0.9562591910362244 -0.20531561970710754 -0.20835991203784943 -0.9662638306617737 -0.2004479467868805 -0.16172483563423157 -0.9780793786048889 -0.1894737184047699
-0.08637317270040512 -0.9835829138755798 -0.18004341423511505 0.012203726917505264 -0.9701133966445923 -0.15423400700092316 0.18732821941375732 -0.8806904554367065
-0.09328553080558777 0.46441584825515747 -0.5941209197044373 0.022514797747135162 0.8040605783462524 -0.20612138509750366 0.12658269703388214 0.970304548740387
0.08692732453346252 0.18707624077796936 0.9784917831420898 0.248641699552536 0.22102901339530945 0.9430394172668457 0.3381582200527191 0.2388264238834381
0.910280704498291 0.38720089197158813 0.2505757212638855 0.8872921466827393 0.40479323267936707 0.26126885414123535 0.8762882351875305 0.4112829566001892
0.27067312598228455 0.8703920245170593 0.41421809792518616 0.27279382944107056 0.8683357238769531 0.39745208621025085 0.2797127366065979 0.8739523887634277
0.3807482421398163 0.28194108605384827 0.8806474804878235 0.36256352066993713 0.28392571210861206 0.8876563906669617 0.34125620126724243 0.2850513160228729
0.8957064151763916 0.3220413327217102 0.28385329246520996 0.9031703472137451 0.29723042249679565 0.28292879462242126 0.9119240045547485 0.27618107199668884
0.27898749709129333 0.9197227954864502 0.2576786279678345 0.27364417910575867 0.9266718626022339 0.24104876816272736 0.2666473388671875 0.9331638813018799
0.2256171703338623 0.25894075632095337 0.9391734004020691 0.21158577501773834 0.2508660554885864 0.9446150660514832 0.19849441945552826 0.23910121619701385
0.9504896998405457 0.18454867601394653 0.22745972871780396 0.9561400413513184 0.175255686044693 0.21199722588062286 0.9614274501800537 0.16269747912883759
0.19696642458438873 0.9668163061141968 0.15438340604305267 0.17776678502559662 0.9718871712684631 0.14817315340042114 0.15405717492103577 0.9768885374069214
0.13856443762779236 0.1271524578332901 0.9821568727493286 0.13250595331192017 0.09165199100971222 0.9869357347488403 0.12950123846530914 0.048217903822660446
0.9904062747955322 0.12580929696559906 -0.008906476199626923 0.992014467716217 0.12812067568302155 -0.08089730143547058 0.9884536862373352 0.1334458738565445
-0.18730655312538147 0.97319495677948 0.14111925661563873 -0.33702951669692993 0.9308579564094543 0.16119925677776337 -0.531701385974884 0.8314496278762817
0.17617395520210266 -0.7506356239318848 0.6367957592010498 0.1785489320755005 -0.9241591691970825 0.33771300315856934 0.17782160639762878 -0.9839023947715759
0.017765849828720093 0.1712917685508728 -0.9577478170394897 -0.2310374677181244 0.16417008638381958 -0.9030278325080872 -0.3969746530056 0.16127291321754456
-0.8490707874298096 -0.5030604004859924 0.16436445713043213 -0.8015866279602051 -0.5748419165611267 0.16875791549682617 -0.7635499835014343 -0.6233074069023132
0.17556916177272797 -0.7326716780662537 -0.6575467586517334 0.18119102716445923 -0.7077267169952393 -0.6828562617301941 0.19179320335388184 -0.6872764825820923
-0.7006185054779053 0.20141780376434326 -0.6699313521385193 -0.7145788073539734 0.2101566195487976 -0.655606210231781 -0.7252686619758606 0.21833859384059906
-0.6423805952072144 -0.7346259355545044 0.22461853921413422 -0.6314055919647217 -0.7422085404396057 0.23434188961982727 -0.6215717196464539 -0.747484028339386
0.24367420375347137 -0.6126152276992798 -0.7518813610076904 0.2538502514362335 -0.604297935962677 -0.7552376985549927 0.26226064562797546 -0.5968884229660034
-0.7582504153251648 0.26862987875938416 -0.5900244116783142 -0.7613863348960876 0.27395138144493103 -0.5834556221961975 -0.764545738697052 0.27974677085876465
-0.5767570734024048 -0.7675239443778992 0.28350669145584106 -0.570330023765564 -0.7709394693374634 0.2853831946849823 -0.5642685294151306 -0.7746981978416443
0.2857808768749237 -0.5585678219795227 -0.7786728143692017 0.2848198413848877 -0.5529055595397949 -0.7830536961555481 0.28302904963493347 -0.5474748015403748
-0.7875061631202698 0.27587395906448364 -0.542478621006012 -0.7934799790382385 0.2671470046043396 -0.5381891131401062 -0.7993654012680054 0.2589368522167206
-0.5335745811462402 -0.8051396608352661 0.25064337253570557 -0.5295003056526184 -0.8104365468025208 0.23952028155326843 -0.5259605050086975 -0.8160855770111084
0.23068973422050476 -0.5231213569641113 -0.8204427361488342 0.22156266868114471 -0.5207738280296326 -0.8244420289993286 0.21463368833065033 -0.5188802480697632
-0.8274633288383484 0.20918534696102142 -0.5170806646347046 -0.8299813866615295 0.2044205367565155 -0.5160171985626221 -0.8318284153938293 0.20203015208244324

cebra_veldir_test f8 [1800, 3]
00000000: 0000 0020 9fe0 e9bf 0000 0040 76dc d0bf
00000010: 0000 0020 bfd4 e0bf 0000 00e0 d1b0 e9bf
00000020: 0000 0020 003c d1bf 0000 0000 8205 e1bf
00000030: 0000 0080 5479 e9bf 0000 0040 0daa d1bf
00000040: 0000 0020 5b3c e1bf 0000 0080 2a38 e9bf
00000050: 0000 00a0 3f27 d2bf 0000 0040 377b e1bf
00000060: 0000 0080 5be8 e8bf 0000 0020 25bc d2bf
00000070: 0000 00a0 bec5 e1bf 0000 0060 b793 e8bf
00000080: 0000 0040 2858 d3bf 0000 00a0 2b11 e2bf
00000090: 0000 00c0 3227 e8bf 0000 0060 291e d4bf
000000a0: 0000 00e0 8d6c e2bf 0000 00c0 eeb2 e7bf
000000b0: 0000 0080 78ee d4bf 0000 0080 a0c8 e2bf
000000c0: 0000 0000 5633 e7bf 0000 0060 53cd d5bf
000000d0: 0000 0040 9b27 e3bf 0000 00c0 699d e6bf
000000e0: 0000 00c0 0ec8 d6bf 0000 0060 d390 e3bf
000000f0: 0000 00a0 51f9 e5bf 0000 00c0 84d7 d7bf
00000100: 0000 0080 d8f9 e3bf 0000 0080 7f50 e5bf
00000110: 0000 0020 53ed d8bf 0000 0000 105b e4bf
00000120: 0000 00c0 7f89 e4bf 0000 00e0 ed28 dabf
00000130: 0000 00a0 93c3 e4bf 0000 0040 32a3 e3bf
00000140: 0000 0000 6485 dbbf 0000 0020 a530 e5bf
00000150: 0000 0020 61a6 e2bf 0000 0020 09fa dcbf
00000160: 0000 0000 df97 e5bf 0000 0060 5880 e1bf
00000170: 0000 0020 14a2 debf 0000 0080 cbfa e5bf
00000180: 0000 00e0 7c26 e0bf 0000 0080 cb37 e0bf
00000190: 0000 0040 295d e6bf 0000 0060 b319 ddbf
000001a0: 0000 0080 dc3d e1bf 0000 00c0 a9b1 e6bf
000001b0: 0000 00a0 4560 d9bf 0000 00e0 de5e e2bf
000001c0: 0000 00e0 afec e6bf 0000 0000 94dd d4bf
000001d0: 0000 00e0 0f9a e3bf 0000 0060 b60a e7bf
000001e0: 0000 0080 38d8 cebf 0000 00c0 9b01 e5bf
000001f0: 0000 0040 0ce0 e6bf 0000 0040 7511 c0bf
00000200: 0000 0020 189a e6bf 0000 0060 3a4b e6bf
00000210: 0000 0000 ecd4 973f 0000 0000 9f2b e8bf
00000220: 0000 00e0 3ef5 e4bf 0000 0000 4b1f cd3f
00000230: 0000 00e0 9057 e9bf 0000 0060 d221 e2bf
00000240: 0000 00c0 70fa de3f 0000 0040 a7e8 e8bf
00000250: 0000 0040 8f95 d9bf 0000 00e0 a217 e73f
00000260: 0000 0000 529e e5bf 0000 00a0 2158 c3bf
00000270: 0000 0020 36a1 eb3f 0000 0000 d458 dfbf
00000280: 0000 0080 e2eb be3f 0000 00a0 f6a4 ec3f
00000290: 0000 0020 642d d3bf 0000 0000 c41f d53f
000002a0: 0000 00a0 aee3 eb3f 0000 00c0 6e0c c2bf
000002b0: 0000 00e0 070e de3f 0000 00c0 6082 ea3f
000002c0: 0000 0020 a945 9dbf 0000 0000 7ae6 e13f
000002d0: 0000 0000 a40a e93f 0000 00a0 e793 ad3f
000002e0: 0000 0020 3fd6 e33f 0000 00a0 10a9 e73f
000002f0: 0000 0060 9f8b be3f 0000 0080 3434 e53f
00000300: 0000 0000 918a e63f 0000 0080 a4ed c43f
00000310: 0000 0020 371a e63f 0000 0020 2760 e53f
00000320: 0000 0040 d5c5 c93f 0000 0000 e0ec e63f
00000330: 0000 00a0 125a e43f 0000 0020 0579 cd3f
00000340: 0000 0040 be91 e73f 0000 0080 a260 e33f
00000350: 0000 00c0 043a d03f 0000 0040 9023 e83f
00000360: 0000 00a0 ac80 e23f 0000 00a0 d673 d13f
00000370: 0000 0060 659b e83f 0000 0040 8e9c e13f
00000380: 0000 00e0 2e75 d23f 0000 00e0 b712 e93f
00000390: 0000 0040 c1d3 e03f 0000 0060 7938 d33f
000003a0: 0000 0000 2777 e93f 0000 0060 6d0d e03f
000003b0: 0000 00c0 c7e2 d33f 0000 00e0 ced5 e93f
000003c0: 0000 00c0 78a3 de3f 0000 0000 4150 d43f
000003d0: 0000 0020 d531 ea3f 0000 0020 4554 dd3f
000003e0: 0000 00e0 4fa6 d43f 0000 00e0 7880 ea3f
000003f0: 0000 00e0 5de3 db3f 0000 00a0 79ea d43f
00000400: 0000 0020 20d6 ea3f 0000 0040 778b da3f
00000410: 0000 00e0 7517 d53f 0000 00e0 1224 eb3f
00000420: 0000 00c0 8749 d93f 0000 0080 8c23 d53f
00000430: 0000 0000 2e6e eb3f 0000 00c0 991b d83f
00000440: 0000 00a0 b20b d53f 0000 0040 5bb6 eb3f
00000450: 0000 0000 b6eb d63f 0000 0080 74ef d43f
00000460: 0000 00c0 d3fb eb3f 0000 0020 ade4 d53f
00000470: 0000 0020 45ad d43f 0000 00e0 7d3c ec3f
00000480: 0000 00c0 b43a d53f 0000 00c0 7946 d43f
00000490: 0000 0000 656f ec3f 0000 0080 466b d43f
000004a0: 0000 00a0 8ae3 d33f 0000 00a0 a1a6 ec3f
000004b0: 0000 00e0 8413 d43f 0000 00a0 4b48 d33f
000004c0: 0000 0020 8cd0 ec3f 0000 00a0 56ff d33f
000004d0: 0000 00c0 369d d23f 0000 0000 1df0 ec3f
000004e0: 0000 0060 0a77 d43f 0000 0020 65b3 d13f
000004f0: 0000 0060 daff ec3f 0000 00a0 2578 d53f
00000500: 0000 0040 c990 d03f 0000 0060 4dfc ec3f
00000510: 0000 00a0 1083 d63f 0000 0040 0fc4 ce3f
00000520: 0000 0040 62f3 ec3f 0000 00c0 f049 d83f
00000530: 0000 0020 67c4 cb3f 0000 0040 d7c7 ec3f
00000540: 0000 00a0 c3e4 da3f 0000 0020 3818 c83f
00000550: 0000 00a0 ed67 ec3f 0000 0060 c2f6 dd3f
00000560: 0000 0000 f2d5 c33f 0000 0060 82d6 eb3f
00000570: 0000 0020 ab06 e13f 0000 0040 ef9a bd3f
00000580: 0000 00c0 32d7 ea3f 0000 00e0 610c e33f
00000590: 0000 0020 1812 b33f 0000 0060 2f9a e93f
000005a0: 0000 00c0 b267 e53f 0000 00c0 479d 9b3f
000005b0: 0000 00c0 78c5 e73f 0000 0040 a6bf e73f
000005c0: 0000 0080 498d 99bf 0000 0000 cc6e e53f
000005d0: 0000 00c0 28f9 e93f 0000 00e0 0386 b5bf
000005e0: 0000 0080 4f7f e23f 0000 0080 4ace eb3f
000005f0: 0000 0060 f7e2 c1bf 0000 0000 0a63 de3f
00000600: 0000 0060 4515 ed3f 0000 0020 d0bd c8bf
00000610: 0000 00e0 3aa8 d73f 0000 0060 22e7 ed3f
00000620: 0000 00a0 e100 cfbf 0000 0060 d1b3 d03f
00000630: 0000 0080 8d3d ee3f 0000 00a0 2fbc d2bf
00000640: 0000 0020 3fa9 c23f 0000 0020 f21e ee3f
00000650: 0000 00c0 da74 d5bf 0000 0020 7e79 a43f
00000660: 0000 00c0 f09b ed3f 0000 0000 a9f9 d7bf
00000670: 0000 0020 1057 aebf 0000 00c0 0cc3 ec3f
00000680: 0000 0040 3649 dabf 0000 0020 0a9a c3bf
00000690: 0000 0000 1ba7 eb3f 0000 00c0 8565 dcbf
000006a0: 0000 0000 a064 cebf 0000 0040 0b5c ea3f
000006b0: 0000 0020 a344 debf 0000 00c0 7103 d4bf
000006c0: 0000 00c0 37cb e83f 0000 0000 c60b e0bf
000006d0: 0000 00a0 0da4 d8bf 0000 00c0 963c e73f
000006e0: 0000 0020 c8d0 e0bf 0000 0060 2860 dcbf
000006f0: 0000 0020 437b e53f 0000 00e0 b68b e1bf
00000700: 0000 00a0 0aeb dfbf 0000 0080 3d90 e33f
00000710: 0000 0060 ed39 e2bf 0000 00e0 9c94 e1bf
00000720: 0000 00e0 0948 e13f 0000 00c0 06e8 e2bf
00000730: 0000 00a0 482e e3bf 0000 0060 b855 de3f
00000740: 0000 0080 6566 e3bf 0000 0040 5d6f e4bf
00000750: 0000 0000 bf54 da3f 0000 00e0 14c3 e3bf
00000760: 0000 00c0 5e73 e5bf 0000 0060 cb80 d63f
00000770: 0000 0020 210f e4bf 0000 00a0 d73f e6bf
00000780: 0000 0060 378b d23f 0000 00a0 0846 e4bf
00000790: 0000 0000 f0f4 e6bf 0000 0060 660f ce3f
000007a0: 0000 0080 d85f e4bf 0000 0080 dc80 e7bf
000007b0: 0000 00a0 0569 c73f 0000 00a0 366c e4bf
000007c0: 0000 00e0 29ee e7bf 0000 0080 62e7 c03f
000007d0: 0000 0000 3668 e4bf 0000 0020 9948 e8bf
000007e0: 0000 0000 d8a2 b53f 0000 0020 d253 e4bf
000007f0: 0000 0020 dc90 e8bf 0000 0060 4048 a43f
-0.8086696267127991 -0.26345592737197876 -0.5259700417518616 -0.8028344511985779 -0.2692871391773224 -0.5319223403930664 -0.7960608005523682 -0.2760041356086731
-0.5386176705360413 -0.7881062030792236 -0.28364554047584534 -0.5462909936904907 -0.7783639430999756 -0.29273346066474915 -0.5553887486457825 -0.7680317759513855
-0.30225569009780884 -0.5645959973335266 -0.7547849416732788 -0.3143409192562103 -0.5757512450218201 -0.740592360496521 -0.32705509662628174 -0.5869905948638916
-0.7250165939331055 -0.3406570851802826 -0.598584771156311 -0.70671546459198 -0.35596054792404175 -0.6114289164543152 -0.6866844296455383 -0.37252920866012573
-0.624248743057251 -0.6660764217376709 -0.3894851505756378 -0.6361160278320312 -0.6417845487594604 -0.4087481200695038 -0.6488741040229797 -0.6136714220046997
-0.43001651763916016 -0.6621881127357483 -0.5828099846839905 -0.4527609646320343 -0.6747889518737793 -0.5469171404838562 -0.4786424934864044 -0.6868646144866943
-0.5046982169151306 -0.5068109035491943 -0.6988722085952759 -0.45469364523887634 -0.5388014316558838 -0.709187388420105 -0.39650097489356995 -0.5740808844566345
-0.716392457485199 -0.32602405548095703 -0.6125563979148865 -0.7200576663017273 -0.24097353219985962 -0.6564463376998901 -0.714849591255188 -0.12553277611732483
-0.7063103318214417 -0.6966831088066101 0.023273169994354248 -0.7553248405456543 -0.654937207698822 0.2275174856185913 -0.7919391989707947 -0.566628634929657
0.4840356707572937 -0.7784000635147095 -0.3997533917427063 0.7216352820396423 -0.6755762100219727 -0.15112705528736115 0.8634291291236877 -0.48979663848876953
0.12078681588172913 0.8951371312141418 -0.29964545369148254 0.3300638198852539 0.8715432286262512 -0.14100441336631775 0.4696063697338104 0.8284152746200562
-0.028586046770215034 0.5593843460083008 0.7825489044189453 0.0577690489590168 0.6199031472206116 0.7393878102302551 0.11931797116994858 0.6626226902008057
0.7044148445129395 0.1635022759437561 0.690700113773346 0.6679874062538147 0.2013498842716217 0.7164154052734375 0.6359952092170715 0.23025573790073395
0.7365409135818481 0.605546236038208 0.25354117155075073 0.7543412446975708 0.5782073140144348 0.2726952135562897 0.7689692378044128 0.5503607988357544
0.2884022891521454 0.7835349440574646 0.5258489847183228 0.30032190680503845 0.7957949638366699 0.5016390681266785 0.31071656942367554 0.8073496222496033
0.4787275195121765 0.3173983097076416 0.818583071231842 0.4582684338092804 0.32265087962150574 0.8281826376914978 0.43575236201286316 0.3268112242221832
0.8386383652687073 0.41476231813430786 0.3295569121837616 0.8481535315513611 0.39511293172836304 0.33029472827911377 0.8571996688842773 0.37668460607528687
0.328838974237442 0.866010308265686 0.3581366539001465 0.32711517810821533 0.8744906187057495 0.34208229184150696 0.3230755627155304 0.8823842406272888
0.3317081332206726 0.3168014883995056 0.8885979652404785 0.31904757022857666 0.31076303124427795 0.8953407406806946 0.3136913478374481 0.30128756165504456
0.9004574418067932 0.3124596178531647 0.2908455729484558 0.9043107032775879 0.3197656571865082 0.27657440304756165 0.9062320590019226 0.3354581892490387
0.2588370442390442 0.905798614025116 0.35174956917762756 0.24035826325416565 0.9047099351882935 0.3795129656791687 0.21693123877048492 0.8993946313858032
0.42021265625953674 0.18823911249637604 0.887686550617218 0.46818599104881287 0.1549665927886963 0.8699352145195007 0.5320640206336975 0.11564536392688751
0.8387693166732788 0.5952615141868591 0.0744948461651802 0.8000714182853699 0.6689084768295288 0.026967164129018784 0.742855429649353 0.7421447038650513
-0.024953030049800873 0.6697750091552734 0.8116649389266968 -0.0840761587023735 0.5780408382415771 0.8689320087432861 -0.13973896205425262 0.474794864654541
0.9088465571403503 -0.19329263269901276 0.3696429431438446 0.9344646334648132 -0.2422143965959549 0.2609752118587494 0.9450137615203857 -0.2927359640598297
0.1457899957895279 0.9412775635719299 -0.33525723218917847 0.0399894155561924 0.9252856969833374 -0.37461304664611816 -0.05925798788666725 0.8988097906112671
-0.41071850061416626 -0.1531384140253067 0.8641486167907715 -0.44369643926620483 -0.23744583129882812 0.8237358331680298 -0.47293928265571594 -0.3127102255821228
0.7748068571090698 -0.5014371871948242 -0.38501301407814026 0.7261461019515991 -0.5254860520362854 -0.4433690011501312 0.6712966561317444 -0.5483049750328064
-0.49872079491615295 0.6113574504852295 -0.5695711970329285 -0.5493912100791931 0.5400437712669373 -0.5908235311508179 -0.5993998646736145 0.47398194670677185
-0.6062495708465576 -0.6385942697525024 0.4114224910736084 -0.6175636649131775 -0.6703332662582397 0.3516109883785248 -0.6268468499183655 -0.6952932476997375
0.28974708914756775 -0.6335490345954895 -0.7173995971679688 0.23484496772289276 -0.636699914932251 -0.7344801425933838 0.18289251625537872 -0.6382096409797668
-0.7478227019309998 0.13206130266189575 -0.637721061706543 -0.7588620781898499 0.08451604843139648 -0.6352320313453674 -0.7676830887794495 0.03961373493075371

continuous_index_train f8 [6900, 3]
00000000: 18e3 a6ef 0c34 12c0 0881 b891 2864 3dc0
00000010: 0000 0000 0000 0000 56ac 1adf bcde 97bf
00000020: 8ad2 5a4d 0e35 39c0 0000 0000 0000 0000
00000030: 8900 9281 1204 2240 3b77 7220 d638 32c0
00000040: 0000 0000 0000 0000 ba83 ed15 983e 3140
00000050: 0de4 8de1 7970 26c0 0000 0000 0000 0000
00000060: 9987 fafa 1219 3840 8adc e209 8fcf 14c0
00000070: 0000 0000 0000 0000 a773 fefc 6c75 3e40
00000080: be2d 790b cb05 bebf 0000 0000 0000 0000
00000090: 4923 b9be ed29 3f40 4bae ebd6 32f8 0340
000000a0: 0000 0000 0000 0000 2126 56a8 8f4c 3740
000000b0: 354a 088a 6910 fe3f 0000 0000 0000 0000
000000c0: 9cc8 f040 a870 2440 f02a 104f 055b f03f
000000d0: 0000 0000 0000 0000 650a 410f 4c66 31c0
000000e0: 6217 17d9 619a 0ec0 0000 0000 0000 0000
000000f0: 88e7 10c3 5d62 4dc0 edfd 9e88 6b60 2cc0
00000100: 0000 0000 0000 0000 a78c 109d 8abe 5cc0
00000110: de37 a7e6 3743 3dc0 0000 0000 0000 0000
00000120: 01c4 a2ef 6e2a 67c0 c95c 18a3 ed5b 48c0
00000130: 0000 0000 0000 0000 a04e 7548 bb8e 70c0
00000140: d389 244b 2e2a 52c0 0000 0000 0000 0000
00000150: 697b 9568 36ee 75c0 c4ee ed8f 2eeb 58c0
00000160: 0000 0000 0000 0000 c288 9965 02a6 7bc0
00000170: 82b5 5419 301e 60c0 0000 0000 0000 0000
00000180: e106 58fa 19bd 80c0 ab5c 203a 1c24 64c0
00000190: 0000 0000 0000 0000 63d1 be7a a297 83c0
000001a0: 007d 7e60 8396 68c0 0000 0000 0000 0000
000001b0: fdb1 d0d9 ca26 86c0 1dba 153e 1454 6dc0
000001c0: 0000 0000 0000 0000 64fe 8a55 6a43 88c0
000001d0: 725c c1a3 fc4c 71c0 0000 0000 0000 0000
000001e0: 495e 2ab7 ee91 89c0 e3ed 80bb b9d6 73c0
000001f0: 0000 0000 0000 0000 2630 762c b4f7 89c0
00000200: 5da0 0098 c631 76c0 0000 0000 0000 0000
00000210: f381 8e51 ff96 89c0 43a9 34da b24f 78c0
00000220: 0000 0000 0000 0000 70d9 bb7d 48b4 88c0
00000230: ee27 b34f eb22 7ac0 0000 0000 0000 0000
00000240: b025 2d5d 43a8 87c0 fb9b 1207 e3c6 7bc0
00000250: 0000 0000 0000 0000 d224 09a2 adb5 86c0
00000260: 48b7 8883 545d 7dc0 0000 0000 0000 0000
00000270: 5a04 95d9 b81e 86c0 5eeb 56c5 aedf 7ec0
00000280: 0000 0000 0000 0000 c8a3 6c8c 92bf 85c0
00000290: 3be9 7c0a dd00 80c0 0000 0000 0000 0000
000002a0: fa62 f18d 7955 85c0 2fb0 6b13 ed43 80c0
000002b0: 0000 0000 0000 0000 1acb 9757 40d3 84c0
000002c0: 5193 2847 0a27 80c0 0000 0000 0000 0000
000002d0: 3339 0e37 c820 84c0 a6c6 8e5f f443 7fc0
000002e0: 0000 0000 0000 0000 1e7a 1f4c 2513 83c0
000002f0: 77f3 5049 c985 7dc0 0000 0000 0000 0000
00000300: 69ab 971b 7cf2 81c0 e1b6 fe52 2b8d 7bc0
00000310: 0000 0000 0000 0000 6079 612a afcb 80c0
00000320: 5713 0e76 3c82 79c0 0000 0000 0000 0000
00000330: 6ccd 5e60 d16e 7fc0 3401 2576 6b78 77c0
00000340: 0000 0000 0000 0000 4026 3768 70ce 7dc0
00000350: a90d bec2 c386 75c0 0000 0000 0000 0000
00000360: f6cb d460 539f 7cc0 ec4f 586d 90a3 73c0
00000370: 0000 0000 0000 0000 24e9 dcbc d4ba 7bc0
00000380: 5b14 3c95 12a5 71c0 0000 0000 0000 0000
00000390: 8e83 4f09 25f9 7ac0 55bc 17b3 9b36 6fc0
000003a0: 0000 0000 0000 0000 13cc f2a4 7d13 7ac0
000003b0: d324 2043 43c8 6ac0 0000 0000 0000 0000
000003c0: 4fa9 cca2 56be 78c0 8647 1cfd 1602 66c0
000003d0: 0000 0000 0000 0000 6b3f b4ce dbfb 76c0
000003e0: cb46 7e24 41c4 60c0 0000 0000 0000 0000
000003f0: bb49 1a72 2822 75c0 e5ad 156f f717 57c0
00000400: 0000 0000 0000 0000 99f3 8560 1724 73c0
00000410: f359 92c3 bb67 48c0 0000 0000 0000 0000
00000420: a265 9476 df4d 71c0 08fc f07f 22f4 18c0
00000430: 0000 0000 0000 0000 3e77 fd6f abf4 6fc0
00000440: 79f6 02d9 8514 3f40 0000 0000 0000 0000
00000450: 54b8 4d4d 7e00 6ec0 8bff 7f2d 029f 5040
00000460: 0000 0000 0000 0000 aa4e 10d2 916f 6cc0
00000470: 7de6 768e 6085 5940 0000 0000 0000 0000
00000480: 60f1 5f48 49ee 6ac0 d4be f738 6b03 6140
00000490: 0000 0000 0000 0000 274e d3a2 22cf 68c0
000004a0: 994b d5b0 30a6 6540 0000 0000 0000 0000
000004b0: 92e7 6935 5dba 65c0 67b2 c6c0 9e57 6a40
000004c0: 0000 0000 0000 0000 b0a5 f7ea 66df 61c0
000004d0: a194 5694 5076 6e40 0000 0000 0000 0000
000004e0: be12 14c7 d9ad 5bc0 99f3 05bc fbdc 7040
000004f0: 0000 0000 0000 0000 a36b 4af9 95af 53c0
00000500: 9d73 7fb4 683d 7240 0000 0000 0000 0000
00000510: 6dcf f3cf aa65 49c0 13b1 9160 c483 7340
00000520: 0000 0000 0000 0000 54a0 2f25 4743 3ec0
00000530: 15f2 7829 95d3 7440 0000 0000 0000 0000
00000540: d768 5a71 f224 2cc0 60e2 2afd 3296 7640
00000550: 0000 0000 0000 0000 2a54 a519 4b55 d7bf
00000560: 7457 e5a5 7fbb 7840 0000 0000 0000 0000
00000570: 56e3 cf38 c2a2 2a40 51c4 82b7 15dd 7a40
00000580: 0000 0000 0000 0000 d805 8100 1d85 3d40
00000590: 6461 7464 e5f0 7c40 0000 0000 0000 0000
000005a0: 31ab 74ab 3ff7 4740 1833 ee24 b58f 7e40
000005b0: 0000 0000 0000 0000 1b34 1367 e97e 5040
000005c0: 09a7 c806 8c6b 7f40 0000 0000 0000 0000
000005d0: b876 78a8 0235 5440 b705 c8d3 79b6 7f40
000005e0: 0000 0000 0000 0000 617b 42ca ccf8 5640
000005f0: 6d4c 5cfb 4ac2 7f40 0000 0000 0000 0000
00000600: d393 2c7f a0b7 5840 10a5 ce3c 94e3 7f40
00000610: 0000 0000 0000 0000 1985 d73a 826e 5940
00000620: 804c 070a f337 8040 0000 0000 0000 0000
00000630: 869c b421 220a 5a40 cb4b f276 39ca 8040
00000640: 0000 0000 0000 0000 f3ce 2dea 7878 5a40
00000650: e65d 30da 4287 8140 0000 0000 0000 0000
00000660: f1f3 5907 9cf9 5a40 1f0c dfa1 fd34 8240
00000670: 0000 0000 0000 0000 17c3 8c99 9469 5b40
00000680: 2adb f214 d5c0 8240 0000 0000 0000 0000
00000690: cca1 b7b6 b391 5b40 1186 51e3 0001 8340
000006a0: 0000 0000 0000 0000 f401 e925 f4fd 5a40
000006b0: a358 feea cbe4 8240 0000 0000 0000 0000
000006c0: da31 bcf3 17bc 5940 1335 2647 099f 8240
000006d0: 0000 0000 0000 0000 2e8c dd3e 31de 5740
000006e0: eb71 1ca3 2140 8240 0000 0000 0000 0000
000006f0: 812c 51c5 7b88 5540 5eea 84ba 33e6 8140
00000700: 0000 0000 0000 0000 6c0d 9fc2 4216 5340
00000710: a9e9 c7f6 fdb9 8140 0000 0000 0000 0000
00000720: fd38 1461 c2b9 5040 614d 4074 a5b7 8140
00000730: 0000 0000 0000 0000 b35c c3b0 3b99 4c40
00000740: 9d81 ff64 75c3 8140 0000 0000 0000 0000
00000750: 9d04 8f3d 8b96 4740 c188 4cda dfbd 8140
00000760: 0000 0000 0000 0000 8fa6 db3b 9216 4240
00000770: 76ae 2dd5 8190 8140 0000 0000 0000 0000
00000780: fb6c 33d6 d8a0 3940 8d71 5f55 371e 8140
00000790: 0000 0000 0000 0000 8622 98ad 960d 2f40
000007a0: 84e7 e900 055a 8040 0000 0000 0000 0000
000007b0: f884 1564 1f85 1940 da2f 1bc5 bbe3 7e40
000007c0: 0000 0000 0000 0000 52a4 b600 f570 08c0
000007d0: 44d5 9d9a 3fda 7c40 0000 0000 0000 0000
000007e0: e93b cb18 e993 2cc0 ae31 4d1f 6ecd 7a40
000007f0: 0000 0000 0000 0000 ed05 818b 3051 3bc0
-4.55083059745882 -29.391244037194184 0.0 -0.023310614697646358 -25.207249483750765 0.0 9.00795369059803 -18.22201731485914
0.0 17.244508142935707 -11.219679878779084 0.0 24.097945867695305 -5.202694086524511 0.0 30.458694278833402
-0.11727589635955035 0.0 31.16378395099608 2.4961907187151033 0.0 23.299067040474373 1.8790069000139173 0.0
10.220033673660787 1.022221859779787 0.0 -17.399598077181867 -3.8253819427654188 0.0 -58.76848638844882 -14.188320416839781
0.0 -114.97721029869227 -29.262571731400264 0.0 -185.32604200163044 -48.71818960847447 0.0 -264.9207233984289
-72.65907553260995 0.0 -350.888283332743 -99.67471693263639 0.0 -442.37558517431546 -128.9433714537118 0.0
-535.6376845242595 -161.12844568558407 0.0 -626.9543356807375 -196.70353722290747 0.0 -708.8490482620542 -234.6274710106235
0.0 -776.4269209727177 -276.81167960673986 0.0 -818.2415602979682 -317.42034483302103 0.0 -830.9629754289097
-355.1109848045797 0.0 -818.8746672757537 -388.98116512842915 0.0 -790.5353960681659 -418.182449054554 0.0
-757.0328925635458 -444.43042666692025 0.0 -726.7097817148554 -469.833133253142 0.0 -707.8402587549165 -493.98016866639034
0.0 -695.946556900738 -512.1079301603962 0.0 -682.6843527658777 -520.4907596982138 0.0 -666.4064170702798
-516.8800185365636 0.0 -644.0977612601476 -500.247161443442 0.0 -610.3932115992682 -472.3616421854162 0.0
-574.3105995034394 -440.8230771970539 0.0 -537.4605300536314 -408.13976102350483 0.0 -502.92611729652594 -375.5262357182976
0.0 -476.9024431375765 -344.4227931426963 0.0 -457.95785601733894 -314.22276052948905 0.0 -443.676937926228
-282.3170368525368 0.0 -431.57154208240615 -249.70650629649995 0.0 -417.2181748852028 -214.25821071889968 0.0
-395.89615135141224 -176.0653062393505 0.0 -367.7411639252593 -134.13295197165857 0.0 -338.13487444180254 -92.37447716824643
0.0 -306.2557072861178 -48.810417601071 0.0 -276.86705644576625 -6.238412856181647 0.0 -255.64592742447888
31.080167353843056 0.0 -240.01541772060102 66.48450791835619 0.0 -227.4865503614904 102.08401834117281 0.0
-215.4464456437954 136.10683868778017 0.0 -198.4729780318314 173.1934436956333 0.0 -173.82387800869452 210.73812903221116
0.0 -142.9813132130489 243.69733635816831 0.0 -110.71641709289813 269.81145860981775 0.0 -78.7435286738169
291.8380627611712 0.0 -50.794275278137185 312.23544365797824 0.0 -30.262804340484152 333.22391650432957 0.0
-14.072162191664047 361.38744847060843 0.0 -0.36458089355920953 395.7186640700013 0.0 13.317888045670468 429.8178019626694
0.0 29.51997378492328 463.05600400410754 0.0 47.93163054653849 488.981724672763 0.0 65.98299576640458
502.72168615703464 0.0 80.8282872368244 507.404742986047 0.0 91.88749939434412 508.14330612234227 0.0
98.86917094567552 510.22369080277076 0.0 101.72669859930865 518.9936714716168 0.0 104.1583332313331 537.278058903635
0.0 105.8823800513599 560.9076427248626 0.0 107.90014823708022 582.6238439012121 0.0 109.6496948122625
600.1040438626417 0.0 110.27659385617079 608.1254335755385 0.0 107.96802661661769 604.5995693083572 0.0
102.93896191957847 595.8795302376697 0.0 95.47175571094041 584.0164243910089 0.0 86.13255436827787 572.7752581008933
0.0 76.34782472164596 567.2490058534796 0.0 66.90248896574845 566.9557881377806 0.0 57.197134108916906
568.4323215447836 0.0 47.17612428172399 567.7343030909761 0.0 36.176337702037124 562.0633948868624 0.0
25.628308665804962 547.7770183044937 0.0 15.526540207692289 523.2524431489733 0.0 6.380002559483948 494.2333422719945
0.0 -3.0551548057306173 461.6405283131937 0.0 -14.288887762841073 428.8393853202241 0.0 -27.317146986961166

continuous_index_test f8 [1800, 3]
00000000: 75ca a399 abde b5bf 4196 604a fa99 fdbf
00000010: 0000 0000 0000 0000 5ac6 827c 7036 f33f
00000020: 3c33 6a69 3ecf e7bf 0000 0000 0000 0000
00000030: 99b7 d6d1 0cdd 1340 d699 1317 7626 0440
00000040: 0000 0000 0000 0000 e1f1 4f25 613f 2440
00000050: 687b 4e8b e831 1a40 0000 0000 0000 0000
00000060: 20d2 bd64 c11c 2f40 4241 322d fab7 2540
00000070: 0000 0000 0000 0000 9568 074c b63d 3640
00000080: a15b 23d7 1d52 2f40 0000 0000 0000 0000
00000090: 6f2e c88e b908 3c40 dc87 011e f3e6 3140
000000a0: 0000 0000 0000 0000 6214 a714 8b24 3f40
000000b0: c355 9a08 7de9 2c40 0000 0000 0000 0000
000000c0: b426 112e b583 3f40 8b7a 6d5c 3d48 0f40
000000d0: 0000 0000 0000 0000 3392 bb2a 91f4 3c40
000000e0: 16a1 0e13 e0d3 2ac0 0000 0000 0000 0000
000000f0: eab7 eac7 687e 3540 1b18 73de c0a4 43c0
00000100: 0000 0000 0000 0000 16ca 52bc d346 2440
00000110: b0ac fb88 2f47 51c0 0000 0000 0000 0000
00000120: 5f3e 574b 15e8 17c0 811d 1d87 eff0 58c0
00000130: 0000 0000 0000 0000 f4ad 95cc d184 3cc0
00000140: 9ef5 c6d4 c870 60c0 0000 0000 0000 0000
00000150: 85f7 81f1 e517 4cc0 3390 b674 2b0a 64c0
00000160: 0000 0000 0000 0000 215b eaca e109 56c0
00000170: ed2a 6873 f548 67c0 0000 0000 0000 0000
00000180: 1ba3 a97e 3490 5ec0 5e60 6b04 fc44 6ac0
00000190: 0000 0000 0000 0000 c58f 7b92 eaa1 63c0
000001a0: 6402 1ab8 ba5c 6dc0 0000 0000 0000 0000
000001b0: 369a 9343 d5ca 67c0 7f49 82bb 9272 70c0
000001c0: 0000 0000 0000 0000 a7e6 ac24 5485 6bc0
000001d0: 7653 9308 198c 72c0 0000 0000 0000 0000
000001e0: 5a94 d560 4012 6fc0 c5d6 3619 3314 75c0
000001f0: 0000 0000 0000 0000 af24 b0db 750f 71c0
00000200: 8d9b ed84 e1c3 77c0 0000 0000 0000 0000
00000210: f065 0a3e 3f4c 72c0 ae47 0adb a95b 7ac0
00000220: 0000 0000 0000 0000 3e01 146a ef54 73c0
00000230: e8c9 2a51 3bbf 7cc0 0000 0000 0000 0000
00000240: a91e f046 7ef2 73c0 b358 3566 7473 7ec0
00000250: 0000 0000 0000 0000 ccf1 06b8 4535 74c0
00000260: adf9 3778 ab96 7fc0 0000 0000 0000 0000
00000270: 7a9a 8827 195d 74c0 c54d d57c b624 80c0
00000280: 0000 0000 0000 0000 7805 5792 43c9 74c0
00000290: 0134 6a35 3e65 80c0 0000 0000 0000 0000
000002a0: 66da 3d8e 59b6 75c0 d0ed e807 80b1 80c0
000002b0: 0000 0000 0000 0000 3049 228e 725c 77c0
000002c0: ec82 2b9e bf32 81c0 0000 0000 0000 0000
000002d0: f009 1b07 a1ae 79c0 61e6 532f 1cd6 81c0
000002e0: 0000 0000 0000 0000 3d61 d689 d91e 7cc0
000002f0: 59a9 6483 7077 82c0 0000 0000 0000 0000
00000300: 9584 9032 8b3e 7ec0 7751 eef5 d7e4 82c0
00000310: 0000 0000 0000 0000 5e0f b10e f7e0 7fc0
00000320: de14 7ff8 fff2 82c0 0000 0000 0000 0000
00000330: 9d7b 1d5d 7a57 80c0 3ec2 9d26 2d7c 82c0
00000340: 0000 0000 0000 0000 c44c 2f97 c972 80c0
00000350: a36f 12be 6f8c 81c0 0000 0000 0000 0000
00000360: 4a81 4f6f 7066 80c0 11d7 b6e0 f064 80c0
00000370: 0000 0000 0000 0000 64d3 88cb 6e46 80c0
00000380: bf2f 8b5c 4317 7ec0 0000 0000 0000 0000
00000390: 49a7 26cf d431 80c0 4d08 2c8a ae63 7bc0
000003a0: 0000 0000 0000 0000 4199 6a8c 4738 80c0
000003b0: 74a4 c0ce f2da 78c0 0000 0000 0000 0000
000003c0: 965b ba08 b14f 80c0 3f1a 17cc 0859 76c0
000003d0: 0000 0000 0000 0000 3b47 022a 0f67 80c0
000003e0: 1c6a c6ea 62d2 73c0 0000 0000 0000 0000
000003f0: e423 4e28 3064 80c0 490b 285b c250 71c0
00000400: 0000 0000 0000 0000 8d66 3fa4 bf3c 80c0
00000410: e2f9 b3b1 15b7 6dc0 0000 0000 0000 0000
00000420: 4577 643a ddaf 7fc0 f011 ce6e afc0 68c0
00000430: 0000 0000 0000 0000 b40b e658 4962 7ec0
00000440: 741e 9d2d 91ef 63c0 0000 0000 0000 0000
00000450: c829 75de b30a 7dc0 4190 e85a 3126 5ec0
00000460: 0000 0000 0000 0000 c5b7 15ec 458c 7bc0
00000470: 67bc 9c8c f334 53c0 0000 0000 0000 0000
00000480: d57e cc1f da30 7ac0 aa7d 17d2 9f4c 40c0
00000490: 0000 0000 0000 0000 db91 775e 5708 79c0
000004a0: 89bb fb81 77f5 2240 0000 0000 0000 0000
000004b0: 9355 55d0 40fa 77c0 ad1c 2329 2d69 4940
000004c0: 0000 0000 0000 0000 0b75 da79 3aec 76c0
000004d0: cb95 5569 6113 5640 0000 0000 0000 0000
000004e0: 3ac1 3c23 efee 75c0 8ab9 35c1 e2e8 5e40
000004f0: 0000 0000 0000 0000 9b33 16ea fa07 75c0
00000500: 7dba 2669 d07c 6440 0000 0000 0000 0000
00000510: 9235 9111 4b28 74c0 fc52 026f 94cd 6940
00000520: 0000 0000 0000 0000 274a 52ae af55 73c0
00000530: 4ee3 a667 39ef 6e40 0000 0000 0000 0000
00000540: 541f 1100 f384 72c0 636c 2562 4dc0 7140
00000550: 0000 0000 0000 0000 b85b c976 5c62 71c0
00000560: 3753 05be 71b7 7340 0000 0000 0000 0000
00000570: 8506 e4ac c826 70c0 1c0c b4a4 243e 7540
00000580: 0000 0000 0000 0000 2c91 e7b6 acec 6dc0
00000590: 1e5d bbbf e296 7640 0000 0000 0000 0000
000005a0: 9176 9362 a6a8 6bc0 7be5 22ba a936 7840
000005b0: 0000 0000 0000 0000 d4bc 9c90 0cab 69c0
000005c0: ea82 4fd8 c51f 7a40 0000 0000 0000 0000
000005d0: b50e bbe4 a5d7 67c0 f27a 1e17 a705 7c40
000005e0: 0000 0000 0000 0000 ecd0 6a7c 18c5 65c0
000005f0: efcf 31c0 e8c0 7d40 0000 0000 0000 0000
00000600: 6560 86b1 4358 63c0 f147 a750 a1f9 7e40
00000610: 0000 0000 0000 0000 d077 34fc b3bd 60c0
00000620: c763 5831 237e 7f40 0000 0000 0000 0000
00000630: 78d1 f357 5107 5cc0 5bbc 850d e5ee 7f40
00000640: 0000 0000 0000 0000 6eb7 5d6a 39ba 56c0
00000650: 8be4 355f 6245 8040 0000 0000 0000 0000
00000660: 572d a6a2 e99e 51c0 2bf8 e37e b7b1 8040
00000670: 0000 0000 0000 0000 6ca7 5ae2 2905 4ac0
00000680: 8254 4edf 2a48 8140 0000 0000 0000 0000
00000690: 7ebc 9b04 52be 40c0 ee0a 9fec 9cec 8140
000006a0: 0000 0000 0000 0000 3f1c 374d b356 2fc0
000006b0: 5a87 9e7a ea81 8240 0000 0000 0000 0000
000006c0: 89fb 38f8 1b9d ebbf 346c a599 710e 8340
000006d0: 0000 0000 0000 0000 3eb3 2afb 04ec 2540
000006e0: 8f52 9b5d e9a8 8340 0000 0000 0000 0000
000006f0: ce2b 9b94 4433 3340 0103 e142 854f 8440
00000700: 0000 0000 0000 0000 260e 6060 3708 3840
00000710: e68c e441 b4db 8440 0000 0000 0000 0000
00000720: ccd8 5e69 1104 3a40 8aa9 a4b0 d35f 8540
00000730: 0000 0000 0000 0000 c74e 0e4a 8e36 3b40
00000740: 3d9c 4b02 fc81 8540 0000 0000 0000 0000
00000750: 78cf 374d 463c 3a40 a113 e93f 1044 8540
00000760: 0000 0000 0000 0000 fb52 828b 915f 3840
00000770: 2bbf 65a0 72c1 8440 0000 0000 0000 0000
00000780: 3f5f 5d13 8a0a 3740 fe1c d8e7 d621 8440
00000790: 0000 0000 0000 0000 59a9 43ea 737f 3640
000007a0: a695 f94b 7598 8340 0000 0000 0000 0000
000007b0: 790f 4334 82d7 3640 5f3a 55ee 604a 8340
000007c0: 0000 0000 0000 0000 2516 682b 0f31 3840
000007d0: 1ebc d6e6 313e 8340 0000 0000 0000 0000
000007e0: 8c1f 1db7 f47f 3840 98ef 460e 914b 8340
000007f0: 0000 0000 0000 0000 3829 e6c4 05ee 3640
-0.08542892933818698 -1.8500922112811085 0.0 1.2007908691124585 -0.7440483149417569 0.0 4.965869215708062 2.5187799265724875
0.0 10.123788038262264 6.548738648095288 0.0 15.55616297547482 10.859330570587762 0.0 22.24106288128731
15.660383914056924 0.0 28.03408138644448 17.902147174237925 0.0 31.14274720267384 14.456032055701945 0.0
31.514483336627293 3.9102732869062655 0.0 28.95534007148144 -13.413818927322193 0.0 21.49378633003645 -39.287135893057176
0.0 10.138334164720657 -69.11227631166071 0.0 -5.976643731307916 -99.76461961596762 0.0 -28.518826281111572
-131.52451552256838 0.0 -56.18670481534995 -160.31780467659846 0.0 -88.15440628897024 -186.27996225686312 0.0
-122.25320402685286 -210.15576382610283 0.0 -157.0598843015015 -234.89779286460828 0.0 -190.33853319958297 -263.1608233537044
0.0 -220.16652139444088 -296.7561116938517 0.0 -248.57035867419 -337.2624752180239 0.0 -272.9662739639852
-380.2425584107921 0.0 -292.7654400259189 -421.7289686585963 0.0 -309.3084507733764 -459.95198170389494 0.0
-319.155829370468 -487.2159177860114 0.0 -323.32952120506957 -505.4168626963172 0.0 -325.81864121781075 -516.5891052879675
0.0 -332.57899698250503 -524.6553753182526 0.0 -347.39686416779875 -534.1875150868964 0.0 -373.7779675807278
-550.3435634040193 0.0 -410.91431341707266 -570.7637621454888 0.0 -449.9281099676335 -590.9299381126576 0.0
-483.90898376896195 -604.6054495447742 0.0 -510.06031674541543 -606.374985688042 0.0 -522.9347479155873 -591.5220463108924
0.0 -526.348432893305 -561.5545617523497 0.0 -524.8048998080569 -524.6176161083587 0.0 -520.8040991487037
-481.45394567842226 0.0 -518.2289107341577 -438.23011223983923 0.0 -519.0349357917804 -397.684279205808 0.0
-521.9614424285126 -357.56464776062415 0.0 -524.8824043443668 -317.1491496801916 0.0 -524.5235143761352 -277.0474502147886
0.0 -519.593574996297 -237.72139821197112 0.0 -506.9915107655 -198.02141514061032 0.0 -486.1429070459519
-159.48647194564148 0.0 -464.6689133240402 -120.59676239692 0.0 -440.76707085116897 -76.82736506754155 0.0
-419.0532529819587 -32.59862733981147 0.0 -400.52133032519276 9.479427396754334 0.0 -383.64082368215276 50.8216906949468
0.0 -366.76427636465877 88.30282052381442 0.0 -350.9333832143053 123.63884001013335 0.0 -336.4987583987474
163.900440765039 0.0 -322.518327300285 206.42436933950364 0.0 -309.3553908552589 247.47575743289275 0.0
-296.3093262356608 284.018892427621 0.0 -278.14757422118737 315.4652691085825 0.0 -258.4239930064435 339.88394613581636
0.0 -239.3960833094401 361.43035863102875 0.0 -221.27031067658802 387.4164372790471 0.0 -205.34528380024733
417.9858019929803 0.0 -190.73900066885622 448.3532935324321 0.0 -174.1592390142681 476.0568239160338 0.0
-154.75826336141031 495.6018835577407 0.0 -133.92822084663067 503.883591981194 0.0 -112.11433981714606 510.93092109909566
0.0 -90.90975436355595 520.6730331621524 0.0 -70.48300996998056 534.2145974931822 0.0 -52.04034070421662
553.0209337348499 0.0 -33.48687799076377 573.5766231942378 0.0 -15.669336712815605 592.2394916901642 0.0
-0.8629283760163712 609.8054688380857 0.0 10.960975502931998 629.1139480719156 0.0 19.200265205272267 649.9400689677278
0.0 24.032094977808946 667.4630163054942 0.0 26.01589067998502 683.9783642639388 0.0 27.213108662121865
688.2480512530379 0.0 26.2354477177864 680.5079343995204 0.0 24.37331458980314 664.1809699963536 0.0
23.04116936711875 644.2299343952034 0.0 22.49786247398274 627.0572738169474 0.0 22.84183050763338 617.2973295839728
0.0 24.19163771907019 615.7743660713347 0.0 24.499827808962024 617.4458280126446 0.0 22.929775530044225
