NeuroAI/Neural Embeddings Rank Aligning 3D latent dynamics with movements/NER/data_NER/Fig8/Supp_Cebra/Type_ curve-up-down=[37, 1]_parameters_5000itr_lr0.0001.npz (npz, 566444 bytes, 7 tensors)

train_loss_stable f4 [5000]
00000000: 5aa0 c740 5aa0 c740 5aa0 c740 5aa0 c740
00000010: 5aa0 c740 5aa0 c740 5aa0 c740 5aa0 c740
00000020: 5aa0 c740 58a0 c740 59a0 c740 59a0 c740
00000030: 59a0 c740 57a0 c740 57a0 c740 57a0 c740
00000040: 58a0 c740 57a0 c740 55a0 c740 56a0 c740
00000050: 57a0 c740 56a0 c740 56a0 c740 55a0 c740
00000060: 54a0 c740 53a0 c740 54a0 c740 53a0 c740
00000070: 53a0 c740 53a0 c740 52a0 c740 50a0 c740
00000080: 50a0 c740 51a0 c740 4da0 c740 4da0 c740
00000090: 4ea0 c740 4ba0 c740 49a0 c740 4ba0 c740
000000a0: 4aa0 c740 47a0 c740 47a0 c740 44a0 c740
000000b0: 41a0 c740 40a0 c740 3fa0 c740 40a0 c740
000000c0: 40a0 c740 3aa0 c740 3da0 c740 33a0 c740
000000d0: 34a0 c740 39a0 c740 32a0 c740 31a0 c740
000000e0: 2ba0 c740 28a0 c740 29a0 c740 20a0 c740
000000f0: 20a0 c740 17a0 c740 16a0 c740 0ea0 c740
00000100: 0ea0 c740 16a0 c740 08a0 c740 02a0 c740
00000110: fb9f c740 eb9f c740 ed9f c740 ed9f c740
00000120: e39f c740 e89f c740 d59f c740 d49f c740
00000130: cb9f c740 c19f c740 c39f c740 9b9f c740
00000140: 9b9f c740 a09f c740 909f c740 7a9f c740
00000150: 799f c740 4c9f c740 509f c740 579f c740
00000160: 309f c740 389f c740 0e9f c740 209f c740
00000170: f69e c740 c79e c740 d79e c740 8f9e c740
00000180: 829e c740 809e c740 859e c740 759e c740
00000190: 469e c740 079e c740 269e c740 0e9e c740
000001a0: 9f9d c740 849d c740 299d c740 469d c740
000001b0: 609d c740 189d c740 d69c c740 759c c740
000001c0: 099c c740 299c c740 639c c740 919b c740
000001d0: e69a c740 b39b c740 dc9a c740 199a c740
000001e0: 389a c740 029a c740 d698 c740 fe98 c740
000001f0: 6f99 c740 7198 c740 f397 c740 6898 c740
00000200: 1d98 c740 0b97 c740 3f97 c740 de94 c740
00000210: 9795 c740 5d94 c740 7393 c740 e593 c740
00000220: a492 c740 d290 c740 e092 c740 898f c740
00000230: 8b8f c740 fb8e c740 588e c740 948e c740
00000240: f58c c740 d688 c740 8b89 c740 cd87 c740
00000250: db87 c740 9f87 c740 db86 c740 4484 c740
00000260: 6e83 c740 837e c740 a182 c740 c57c c740
00000270: 897b c740 1d79 c740 ee74 c740 ed73 c740
00000280: dd74 c740 b373 c740 a471 c740 2968 c740
00000290: 856a c740 2666 c740 d768 c740 7f66 c740
000002a0: 6f65 c740 065d c740 ac5d c740 fb5a c740
000002b0: 9650 c740 914c c740 6448 c740 544b c740
000002c0: b041 c740 ef39 c740 403e c740 3431 c740
000002d0: db2d c740 2b2f c740 4416 c740 291c c740
000002e0: 6921 c740 3022 c740 b417 c740 c907 c740
000002f0: e6ff c640 5010 c740 b0fa c640 e5e5 c640
00000300: 6fe3 c640 a4d3 c640 8ad4 c640 c4cf c640
00000310: 09c7 c640 8998 c640 a4a7 c640 3197 c640
00000320: 47a2 c640 db9d c640 837c c640 e769 c640
00000330: e559 c640 cf66 c640 a375 c640 c461 c640
00000340: b71e c640 8840 c640 3817 c640 e9ed c540
00000350: d9f9 c540 dadd c540 b0e2 c540 a9e5 c540
00000360: 2fc0 c540 91c1 c540 ff92 c540 3ceb c540
00000370: 5b50 c540 6374 c540 e088 c540 da98 c540
00000380: cf0f c540 5127 c540 8f04 c540 f1ea c440
00000390: 39e0 c440 50c3 c440 0d80 c440 3f6c c440
000003a0: 6886 c440 963f c440 9b52 c440 7017 c440
000003b0: b062 c440 729d c340 3b64 c440 b5b6 c340
000003c0: 619a c340 d762 c340 d489 c340 4e14 c440
000003d0: 3f4d c340 6d45 c340 3d15 c340 558d c340
000003e0: 0fe3 c240 8fa9 c240 fee3 c240 fc7e c240
000003f0: a768 c240 1df9 c140 c8ea c140 4c2e c240
6.238324 6.238324 6.238324 6.238324 6.238324 6.238324 6.238324 6.238324
6.238324 6.238323 6.2383237 6.2383237 6.2383237 6.2383227 6.2383227 6.2383227
6.238323 6.2383227 6.238322 6.2383223 6.2383227 6.2383223 6.2383223 6.238322
6.2383213 6.238321 6.2383213 6.238321 6.238321 6.238321 6.2383204 6.2383194
6.2383194 6.23832 6.238318 6.238318 6.2383184 6.238317 6.238316 6.238317
6.2383165 6.238315 6.238315 6.2383137 6.2383122 6.238312 6.2383113 6.238312
6.238312 6.238309 6.2383103 6.2383056 6.238306 6.2383084 6.238305 6.2383046
6.2383018 6.2383003 6.238301 6.2382965 6.2382965 6.238292 6.2382917 6.238288
6.238288 6.2382917 6.238285 6.238282 6.238279 6.238271 6.238272 6.238272
6.2382674 6.23827 6.2382607 6.2382603 6.238256 6.238251 6.238252 6.238233
6.238233 6.2382355 6.238228 6.2382174 6.238217 6.2381954 6.2381973 6.2382007
6.238182 6.238186 6.238166 6.2381744 6.2381544 6.238132 6.2381396 6.2381053
6.238099 6.238098 6.2381005 6.238093 6.2380705 6.2380404 6.238055 6.238044
6.237991 6.237978 6.2379346 6.2379484 6.237961 6.2379265 6.237895 6.2378488
6.2377973 6.2378125 6.23784 6.23774 6.2376585 6.2377563 6.2376537 6.2375607
6.2375755 6.23755 6.2374067 6.237426 6.2374797 6.2373586 6.2372985 6.2373543
6.2373185 6.237188 6.2372127 6.2369223 6.2370105 6.2368608 6.236749 6.2368035
6.2366505 6.2364283 6.236679 6.2362714 6.2362723 6.2362037 6.236126 6.2361546
6.2359567 6.2354536 6.23554 6.2353272 6.235334 6.2353053 6.235212 6.2348957
6.2347937 6.2341933 6.234696 6.2339807 6.23383 6.2335343 6.2330236 6.232901
6.2330155 6.2328734 6.232622 6.231465 6.231753 6.2312193 6.231548 6.2312617
6.231132 6.2301054 6.2301846 6.229856 6.228587 6.2280965 6.2275867 6.2279453
6.2267685 6.225822 6.226349 6.2247562 6.2243476 6.224508 6.221468 6.2221875
6.2228284 6.2229233 6.2216434 6.2197003 6.2187376 6.2207413 6.2181015 6.2155633
6.215263 6.213335 6.2134447 6.212862 6.2117963 6.20612 6.207964 6.205956
6.2073092 6.2067695 6.202699 6.2004275 6.1984735 6.20005 6.20186 6.1994343
6.1912494 6.1953773 6.1903343 6.185292 6.186749 6.1833315 6.183922 6.1842847
6.17971 6.1798787 6.174194 6.184965 6.166059 6.1704574 6.1729584 6.1749086
6.1581798 6.1610494 6.1568065 6.1536794 6.152371 6.148842 6.140631 6.1382136
6.141407 6.132762 6.1350837 6.127861 6.137047 6.1129694 6.137235 6.116053
6.112595 6.1058154 6.1105747 6.1274786 6.1031795 6.102225 6.0963426 6.1110024
6.090217 6.083198 6.090331 6.078001 6.075275 6.0616593 6.05991 6.0681515

cebra_veldir_train f8 [6800, 3]
00000000: 0000 00a0 96c3 dd3f 0000 0000 5187 dd3f
00000010: 0000 0040 632d e83f 0000 00c0 9572 dd3f
00000020: 0000 0080 72ae dd3f 0000 0080 313a e83f
00000030: 0000 0060 3412 dd3f 0000 0020 18d2 dd3f
00000040: 0000 00a0 524c e83f 0000 0020 89a6 dc3f
00000050: 0000 0040 1af4 dd3f 0000 00c0 cc61 e83f
00000060: 0000 0080 ec14 dc3f 0000 0060 4010 de3f
00000070: 0000 0040 6683 e83f 0000 0040 2b71 db3f
00000080: 0000 00e0 b427 de3f 0000 0080 70aa e83f
00000090: 0000 0000 61a3 da3f 0000 00e0 d837 de3f
000000a0: 0000 0080 b1dd e83f 0000 00e0 f8b8 d93f
000000b0: 0000 0020 a13c de3f 0000 0000 a819 e93f
000000c0: 0000 0040 9a96 d83f 0000 00c0 1331 de3f
000000d0: 0000 0020 7065 e93f 0000 00a0 6431 d73f
000000e0: 0000 00a0 dd12 de3f 0000 00a0 c0c1 e93f
000000f0: 0000 0040 c799 d53f 0000 0060 76df dd3f
00000100: 0000 0020 8428 ea3f 0000 0040 a394 d33f
00000110: 0000 0040 2f88 dd3f 0000 0000 e3a5 ea3f
00000120: 0000 00c0 6919 d13f 0000 00e0 8a06 dd3f
00000130: 0000 00e0 4835 eb3f 0000 00e0 82a9 cb3f
00000140: 0000 00c0 8639 dc3f 0000 0060 01e0 eb3f
00000150: 0000 0000 7304 c43f 0000 0020 7924 db3f
00000160: 0000 0060 588b ec3f 0000 0020 8f3f b53f
00000170: 0000 00a0 719e d93f 0000 00a0 2d34 ed3f
00000180: 0000 0040 8232 6abf 0000 0060 468d d73f
00000190: 0000 0060 18c1 ed3f 0000 0000 dd21 bbbf
000001a0: 0000 00c0 fdcb d43f 0000 00e0 9f12 ee3f
000001b0: 0000 00e0 1010 ccbf 0000 00c0 1e55 d13f
000001c0: 0000 0060 9efe ed3f 0000 00a0 8e0d d6bf
000001d0: 0000 0060 8d05 ca3f 0000 0020 d053 ed3f
000001e0: 0000 0000 76e3 ddbf 0000 0080 9f7e c03f
000001f0: 0000 0080 77fe eb3f 0000 0060 1c54 e2bf
00000200: 0000 0080 9238 ac3f 0000 0020 ee2b ea3f
00000210: 0000 0080 ba2c e5bf 0000 0040 3118 8fbf
00000220: 0000 0000 c6fc e73f 0000 0060 4ebb e7bf
00000230: 0000 0080 a193 b6bf 0000 0080 b647 e53f
00000240: 0000 00e0 f482 e9bf 0000 00e0 be97 c2bf
00000250: 0000 0020 f3bf e23f 0000 0000 28e4 eabf
00000260: 0000 0020 ed5b c9bf 0000 0060 2e25 e03f
00000270: 0000 00e0 170d ecbf 0000 00e0 3e0c d0bf
00000280: 0000 0000 7049 da3f 0000 00e0 67a8 ecbf
00000290: 0000 0000 3a0a d2bf 0000 0000 9208 d63f
000002a0: 0000 0000 0313 edbf 0000 0080 a6c7 d3bf
000002b0: 0000 0040 79fc d13f 0000 00e0 5564 edbf
000002c0: 0000 0000 19cf d5bf 0000 0040 48ad c93f
000002d0: 0000 0020 9180 edbf 0000 00e0 2c6f d7bf
000002e0: 0000 0080 c229 c03f 0000 00a0 bf84 edbf
000002f0: 0000 0040 df3e d8bf 0000 00a0 8c16 b33f
00000300: 0000 00e0 d572 edbf 0000 00c0 b904 d9bf
00000310: 0000 00e0 8b8a 913f 0000 0020 cf37 edbf
00000320: 0000 0040 feeb d9bf 0000 0080 4462 a8bf
00000330: 0000 0020 65d2 ecbf 0000 0020 11be dabf
00000340: 0000 00c0 8579 bebf 0000 0020 3361 ecbf
00000350: 0000 0000 7146 dbbf 0000 00c0 8bd7 c6bf
00000360: 0000 00a0 87f4 ebbf 0000 00e0 dfa3 dbbf
00000370: 0000 00e0 7fb5 ccbf 0000 0000 9416 ebbf
00000380: 0000 0040 e176 dcbf 0000 0080 18ba d2bf
00000390: 0000 00c0 3065 eabf 0000 00a0 9bfb dcbf
000003a0: 0000 0020 f1a8 d5bf 0000 0000 d092 e9bf
000003b0: 0000 0060 6692 ddbf 0000 00e0 529b d8bf
000003c0: 0000 0000 89a5 e8bf 0000 00c0 8a41 debf
000003d0: 0000 00c0 5866 dbbf 0000 00a0 c288 e7bf
000003e0: 0000 0040 44f1 debf 0000 0080 0c62 debf
000003f0: 0000 0080 8f3b e6bf 0000 0000 14bd dfbf
00000400: 0000 0080 68ab e0bf 0000 0000 50a6 e4bf
00000410: 0000 00e0 1b35 e0bf 0000 00a0 f04c e2bf
00000420: 0000 00a0 e7e4 e2bf 0000 00e0 b985 e0bf
00000430: 0000 00e0 98d9 e3bf 0000 00c0 8d18 e1bf
00000440: 0000 0080 c8c7 e0bf 0000 00e0 7837 e5bf
00000450: 0000 0020 551a debf 0000 0000 85e3 e0bf
00000460: 0000 0080 e3a1 e6bf 0000 0040 8fab dabf
00000470: 0000 00c0 08ef e0bf 0000 00e0 f3a6 e7bf
00000480: 0000 00e0 a759 d7bf 0000 0060 4fe9 e0bf
00000490: 0000 00c0 8e87 e8bf 0000 00a0 4f61 d4bf
000004a0: 0000 0020 aad8 e0bf 0000 0000 eb39 e9bf
000004b0: 0000 0040 df25 d1bf 0000 0040 fbac e0bf
000004c0: 0000 00c0 4aee e9bf 0000 00c0 c2da cdbf
000004d0: 0000 0000 b48e e0bf 0000 00a0 bd58 eabf
000004e0: 0000 00a0 f755 c8bf 0000 00c0 af4e e0bf
000004f0: 0000 0080 3bda eabf 0000 0060 8f7a c4bf
00000500: 0000 0060 3a20 e0bf 0000 00c0 5429 ebbf
00000510: 0000 0000 acd3 c0bf 0000 0000 a4ce dfbf
00000520: 0000 0000 a072 ebbf 0000 0000 f91a bbbf
00000530: 0000 00c0 3c58 dfbf 0000 0080 63b1 ebbf
00000540: 0000 00a0 ea55 b4bf 0000 0060 eac1 debf
00000550: 0000 0040 6cf2 ebbf 0000 0020 8a98 abbf
00000560: 0000 0000 341a debf 0000 0060 c82f ecbf
00000570: 0000 0080 f56f 9fbf 0000 00e0 f772 ddbf
00000580: 0000 0020 e164 ecbf 0000 0040 6bb0 79bf
00000590: 0000 0040 f4a9 dcbf 0000 0060 439c ecbf
000005a0: 0000 0040 e60f 953f 0000 0020 91c3 dbbf
000005b0: 0000 0020 19d3 ecbf 0000 0020 765b aa3f
000005c0: 0000 0000 deb1 dabf 0000 0000 6909 edbf
000005d0: 0000 0080 2670 b53f 0000 0000 0e6e d9bf
000005e0: 0000 00c0 303e edbf 0000 0020 0909 be3f
000005f0: 0000 0080 d40e d8bf 0000 00c0 176a edbf
00000600: 0000 00c0 551a c43f 0000 0020 255e d6bf
00000610: 0000 0060 cb8e edbf 0000 00a0 bbd5 c93f
00000620: 0000 00e0 5463 d4bf 0000 0060 23a3 edbf
00000630: 0000 0040 d21d d03f 0000 00a0 8f0e d2bf
00000640: 0000 0000 9e9f edbf 0000 00a0 947a d33f
00000650: 0000 0080 14e9 cebf 0000 00a0 6e7c edbf
00000660: 0000 00c0 252a d73f 0000 0060 9fee c8bf
00000670: 0000 0020 012c edbf 0000 00a0 cd01 db3f
00000680: 0000 00c0 914e c2bf 0000 0000 e4a5 ecbf
00000690: 0000 00c0 7614 df3f 0000 0060 67d5 b5bf
000006a0: 0000 0080 04d7 ebbf 0000 00e0 6085 e13f
000006b0: 0000 0000 c36a 99bf 0000 0040 edc3 eabf
000006c0: 0000 0060 da79 e33f 0000 0040 92e6 a33f
000006d0: 0000 0000 355c e9bf 0000 0080 0b45 e53f
000006e0: 0000 0000 ed70 ba3f 0000 0020 b8ad e7bf
000006f0: 0000 0060 26ca e63f 0000 00a0 401f c53f
00000700: 0000 00e0 a5d5 e5bf 0000 0080 ee09 e83f
00000710: 0000 0040 297d cc3f 0000 0040 8ae2 e3bf
00000720: 0000 0000 1e14 e93f 0000 0060 91c8 d13f
00000730: 0000 00a0 c4c6 e1bf 0000 00e0 f3dc e93f
00000740: 0000 00e0 53f4 d43f 0000 00c0 6f53 dfbf
00000750: 0000 0040 aa75 ea3f 0000 0060 bfef d73f
00000760: 0000 00c0 91e1 dabf 0000 00a0 4ad3 ea3f
00000770: 0000 00e0 f380 da3f 0000 0020 6eb2 d6bf
00000780: 0000 0040 5902 eb3f 0000 0060 60ec dc3f
00000790: 0000 0040 847a d2bf 0000 0020 7c0b eb3f
000007a0: 0000 00a0 f62a df3f 0000 0060 4034 ccbf
000007b0: 0000 00c0 c4ee ea3f 0000 0000 2989 e03f
000007c0: 0000 0080 3f14 c4bf 0000 0000 40b3 ea3f
000007d0: 0000 0080 7263 e13f 0000 0020 dca6 b7bf
000007e0: 0000 0000 035a ea3f 0000 0080 5721 e23f
000007f0: 0000 0080 3023 9ebf 0000 00a0 34e7 e93f
0.4650627672672272 0.4613840579986572 0.7555404901504517 0.46011871099472046 0.46377241611480713 0.757103681564331 0.45423611998558044 0.4659481346607208
0.7593167424201965 0.4476645290851593 0.4680238366127014 0.7619384527206421 0.4387770891189575 0.46974191069602966 0.7660399675369263 0.42878228425979614
0.471173495054245 0.7708055973052979 0.41622185707092285 0.47215864062309265 0.777062177658081 0.4019148051738739 0.47245052456855774 0.7843818664550781
0.3841920495033264 0.47174543142318726 0.7936325669288635 0.3623897135257721 0.4699014723300934 0.8049014210700989 0.337510883808136 0.46676406264305115
0.8174458146095276 0.30594712495803833 0.46143704652786255 0.8327498435974121 0.26717609167099 0.45352432131767273 0.850254476070404 0.21611057221889496
0.44101113080978394 0.8710944056510925 0.15638577938079834 0.4241011440753937 0.8920099139213562 0.08300108462572098 0.4002956449985504 0.912619411945343
-0.0031979125924408436 0.3679977357387543 0.9298211932182312 -0.10598546266555786 0.324950635433197 0.9397734999656677 -0.21924029290676117 0.2708203196525574
0.9373313784599304 -0.34457746148109436 0.20329444110393524 0.916481077671051 -0.467008113861084 0.12886422872543335 0.8748128414154053 -0.572767436504364
0.0551191121339798 0.8178625702857971 -0.6617100238800049 -0.015182862058281898 0.7496061325073242 -0.7416145205497742 -0.08819016814231873 0.6650040149688721
-0.797235906124115 -0.145255908370018 0.5859313607215881 -0.8403511047363281 -0.19811786711215973 0.5045387148857117 -0.8765982985496521 -0.250747412443161
0.4107322692871094 -0.8955573439598083 -0.2818741798400879 0.34427309036254883 -0.9085707664489746 -0.3090606927871704 0.28103476762771606 -0.9184979796409607
-0.34076523780822754 0.20060065388679504 -0.9219442009925842 -0.3661606013774872 0.12627440690994263 -0.9224546551704407 -0.3788374066352844 0.07456282526254654
-0.9202679991722107 -0.3909134268760681 0.01713007502257824 -0.9130626320838928 -0.4050288796424866 -0.04762472212314606 -0.9006829857826233 -0.4178507626056671
-0.11904178559780121 -0.8868651986122131 -0.4261744022369385 -0.17845293879508972 -0.8735998272895813 -0.43187710642814636 -0.2242889255285263 -0.8465061187744141
-0.4447558522224426 -0.292608380317688 -0.8248523473739624 -0.4528569281101227 -0.33843639492988586 -0.7991714477539062 -0.4620605409145355 -0.38448020815849304
-0.7702069282531738 -0.47275036573410034 -0.42812174558639526 -0.7354443669319153 -0.4834757447242737 -0.47473442554473877 -0.6947705745697021 -0.49591541290283203
-0.5209238529205322 -0.6453018188476562 -0.5064830183982849 -0.5718920826911926 -0.5904424786567688 -0.516323983669281 -0.6203121542930603 -0.5342472791671753
-0.5243875980377197 -0.6630215048789978 -0.470357209444046 -0.527773380279541 -0.7072618007659912 -0.4167211651802063 -0.5291789770126343 -0.7391299605369568
-0.3648471534252167 -0.5284802317619324 -0.7665475606918335 -0.31843939423561096 -0.5264483094215393 -0.7883200645446777 -0.2679365277290344 -0.5211158990859985
-0.8103383779525757 -0.23323854804039001 -0.5174198150634766 -0.8233326077461243 -0.19012351334095 -0.5096052885055542 -0.8391396999359131 -0.15999023616313934
-0.5039340853691101 -0.8487952947616577 -0.13145971298217773 -0.49698734283447266 -0.8577423095703125 -0.10588032007217407 -0.4897605776786804 -0.8654038906097412
-0.07943598181009293 -0.48058566451072693 -0.8733426332473755 -0.0538981594145298 -0.4703493118286133 -0.880832850933075 -0.030700527131557465 -0.4601421058177948
-0.8873143792152405 -0.00627176184207201 -0.44787317514419556 -0.8940750956535339 0.02056846395134926 -0.4338114559650421 -0.9007688164710999 0.051479045301675797
-0.41710615158081055 -0.9073987007141113 0.08374252915382385 -0.3973422050476074 -0.9138416051864624 0.11732537299394608 -0.3759051561355591 -0.9192007780075073
0.15705367922782898 -0.34949615597724915 -0.9236809611320496 0.20183511078357697 -0.31856271624565125 -0.9261643290519714 0.2518201470375061 -0.28213873505592346
-0.9257345199584961 0.30435672402381897 -0.2414880394935608 -0.9214394688606262 0.3619474768638611 -0.19478218257427216 -0.911621630191803 0.42198505997657776
-0.14302274584770203 -0.8952503204345703 0.4856240153312683 -0.08528753370046616 -0.8699972629547119 0.5475315451622009 -0.02482132613658905 -0.8364168405532837
0.6086246371269226 0.0388684943318367 -0.7925057411193848 0.6646783351898193 0.10328561067581177 -0.7399559617042542 0.712176501750946 0.16501624882221222
-0.6823300719261169 0.7512123584747314 0.22256961464881897 -0.6214038133621216 0.7837057113647461 0.2778666913509369 -0.5555136799812317 0.8082217574119568
0.32741257548332214 -0.4894675612449646 0.8268634080886841 0.37400802969932556 -0.42001765966415405 0.8382924199104309 0.4141206443309784 -0.35464051365852356
0.8440366983413696 0.4519272744655609 -0.2887278199195862 0.845151960849762 0.4869972765445709 -0.22034458816051483 0.8416465520858765 0.5167431831359863
-0.15686792135238647 0.834381103515625 0.5433895587921143 -0.09238982945680618 0.8234877586364746 0.5665700435638428 -0.029431112110614777 0.8094733357429504

cebra_veldir_test f8 [1700, 3]
00000000: 0000 00a0 f118 df3f 0000 0000 744a dd3f
00000010: 0000 0020 d6d3 e73f 0000 00c0 62e3 dd3f
00000020: 0000 0080 a33c dd3f 0000 0080 413a e83f
00000030: 0000 0080 0f79 dc3f 0000 00a0 f420 dd3f
00000040: 0000 00c0 99ae e83f 0000 0040 7af2 da3f
00000050: 0000 0080 e2f8 dc3f 0000 0020 df26 e93f
00000060: 0000 0040 3b27 d93f 0000 0020 f6bb dc3f
00000070: 0000 00a0 d7ad e93f 0000 00e0 991a d73f
00000080: 0000 0020 e867 dc3f 0000 0040 dc3e ea3f
00000090: 0000 00c0 53c6 d43f 0000 0020 7cf6 db3f
000000a0: 0000 00e0 2bd8 ea3f 0000 0060 9dec d13f
000000b0: 0000 0000 fa59 db3f 0000 00c0 e181 eb3f
000000c0: 0000 00a0 3a1f cd3f 0000 00a0 bb7d da3f
000000d0: 0000 0060 9a34 ec3f 0000 00e0 a12e c43f
000000e0: 0000 0020 a938 d93f 0000 00e0 6ff9 ec3f
000000f0: 0000 00e0 b40a b13f 0000 00e0 294b d73f
00000100: 0000 0060 a0ba ed3f 0000 0060 dd54 a9bf
00000110: 0000 0060 397e d43f 0000 00a0 1646 ee3f
00000120: 0000 0000 09e1 cbbf 0000 0000 4d7a cf3f
00000130: 0000 00e0 5c39 ee3f 0000 0040 0806 dcbf
00000140: 0000 0000 7f93 c03f 0000 0080 1f78 ec3f
00000150: 0000 00a0 a5e0 e5bf 0000 00c0 180a a4bf
00000160: 0000 0020 d351 e73f 0000 0060 26de ebbf
00000170: 0000 0000 2390 cdbf 0000 0020 94c4 db3f
00000180: 0000 00a0 297c edbf 0000 00e0 9fcf d7bf
00000190: 0000 00a0 adb9 bc3f 0000 0040 424e ecbf
000001a0: 0000 0060 3ca0 dcbf 0000 0000 9def c0bf
000001b0: 0000 00a0 c362 eabf 0000 0080 edda debf
000001c0: 0000 00c0 4af3 d2bf 0000 00a0 6684 e8bf
000001d0: 0000 00a0 4bdf dfbf 0000 0080 f6fe d9bf
000001e0: 0000 00c0 adcb e6bf 0000 0040 8528 e0bf
000001f0: 0000 0080 b731 dfbf 0000 0000 4053 e5bf
00000200: 0000 0020 443c e0bf 0000 0020 977b e1bf
00000210: 0000 00a0 aaed e3bf 0000 0080 3f3d e0bf
00000220: 0000 0020 700e e3bf 0000 0020 eec5 e2bf
00000230: 0000 00c0 9033 e0bf 0000 00a0 cc39 e4bf
00000240: 0000 0000 a6b0 e1bf 0000 00a0 d024 e0bf
00000250: 0000 0020 3c39 e5bf 0000 00a0 69a3 e0bf
00000260: 0000 0000 6a0d e0bf 0000 00c0 d41f e6bf
00000270: 0000 0080 35ac dfbf 0000 00a0 d4f6 dfbf
00000280: 0000 0080 3dc1 e6bf 0000 0080 784c debf
00000290: 0000 0020 acd3 dfbf 0000 00a0 d643 e7bf
000002a0: 0000 00e0 dbf9 dcbf 0000 0060 a8af dfbf
000002b0: 0000 00e0 c7ba e7bf 0000 0020 66ea dbbf
000002c0: 0000 0040 7e98 dfbf 0000 0020 3613 e8bf
000002d0: 0000 0080 db14 dbbf 0000 0000 028a dfbf
000002e0: 0000 0020 9754 e8bf 0000 0000 ae7a dabf
000002f0: 0000 0040 5f87 dfbf 0000 0060 b87f e8bf
00000300: 0000 0020 1421 dabf 0000 00e0 7193 dfbf
00000310: 0000 0020 da93 e8bf 0000 00e0 fbef d9bf
00000320: 0000 0000 21a5 dfbf 0000 0080 299b e8bf
00000330: 0000 0000 50d7 d9bf 0000 0020 19c4 dfbf
00000340: 0000 00c0 ac97 e8bf 0000 0080 bffb d9bf
00000350: 0000 0080 e7ee dfbf 0000 00a0 2c80 e8bf
00000360: 0000 0080 716f dabf 0000 0000 2916 e0bf
00000370: 0000 00c0 ef4c e8bf 0000 0020 85fb dabf
00000380: 0000 0040 5737 e0bf 0000 0060 1810 e8bf
00000390: 0000 00a0 a6dc dbbf 0000 0020 d860 e0bf
000003a0: 0000 0020 25b3 e7bf 0000 00e0 6101 ddbf
000003b0: 0000 00a0 6f88 e0bf 0000 00c0 bc3e e7bf
000003c0: 0000 00c0 7b49 debf 0000 0020 0fb4 e0bf
000003d0: 0000 0000 5ab5 e6bf 0000 0060 eadc dfbf
000003e0: 0000 00a0 3ae3 e0bf 0000 00a0 cb05 e6bf
000003f0: 0000 00c0 f1b6 e0bf 0000 00a0 3009 e1bf
00000400: 0000 00a0 0f51 e5bf 0000 00e0 f595 e1bf
00000410: 0000 0060 9c2c e1bf 0000 0060 187d e4bf
00000420: 0000 0060 f480 e2bf 0000 0020 fe49 e1bf
00000430: 0000 00a0 1090 e3bf 0000 0000 cd75 e3bf
00000440: 0000 0000 ba5b e1bf 0000 0020 088c e2bf
00000450: 0000 00c0 5888 e4bf 0000 0060 315f e1bf
00000460: 0000 0020 b656 e1bf 0000 0060 a1a2 e5bf
00000470: 0000 0060 5253 e1bf 0000 00c0 e2fb dfbf
00000480: 0000 0020 50ab e6bf 0000 0040 8433 e1bf
00000490: 0000 0060 da45 ddbf 0000 0060 2099 e7bf
000004a0: 0000 00a0 4102 e1bf 0000 0000 9fab dabf
000004b0: 0000 00e0 1d69 e8bf 0000 0060 bcc2 e0bf
000004c0: 0000 0040 ec43 d8bf 0000 0040 a437 e9bf
000004d0: 0000 0040 466d e0bf 0000 0020 7cbf d5bf
000004e0: 0000 0000 7ce6 e9bf 0000 00c0 ef0b e0bf
000004f0: 0000 0000 2890 d3bf 0000 0080 887b eabf
00000500: 0000 00a0 9840 dfbf 0000 00c0 42b8 d1bf
00000510: 0000 00e0 62ef eabf 0000 0000 505f debf
00000520: 0000 00a0 5c7a d0bf 0000 00c0 984c ebbf
00000530: 0000 00e0 9b6f ddbf 0000 0000 b487 cfbf
00000540: 0000 00c0 c7a5 ebbf 0000 0000 ce5d dcbf
00000550: 0000 00c0 9c94 cebf 0000 0060 d2b4 ebbf
00000560: 0000 0000 2b7c dbbf 0000 0020 956e d0bf
00000570: 0000 0020 bad0 ebbf 0000 0060 df53 dabf
00000580: 0000 0020 638d d1bf 0000 0000 bad4 ebbf
00000590: 0000 0020 12ef d8bf 0000 00a0 5e64 d3bf
000005a0: 0000 00a0 b4a3 ebbf 0000 0020 c25c d7bf
000005b0: 0000 0000 6a3c d6bf 0000 00e0 11ee eabf
000005c0: 0000 0060 92a4 d5bf 0000 0060 11f5 dabf
000005d0: 0000 0060 15db e9bf 0000 0000 8f14 d3bf
000005e0: 0000 00e0 2743 e0bf 0000 00a0 951f e8bf
000005f0: 0000 0000 547a cebf 0000 00a0 9898 e3bf
00000600: 0000 00c0 106a e5bf 0000 00c0 a126 c4bf
00000610: 0000 0000 2b3d e7bf 0000 0060 e025 e1bf
00000620: 0000 00c0 4d5c a7bf 0000 0080 62fa eabf
00000630: 0000 00e0 8ea7 d5bf 0000 0020 23ba c13f
00000640: 0000 0080 e3c8 edbf 0000 00a0 0c90 adbf
00000650: 0000 0080 710a d63f 0000 0020 51fc edbf
00000660: 0000 00e0 1d40 ce3f 0000 0020 7f48 e13f
00000670: 0000 0000 fcd8 e9bf 0000 0000 735b de3f
00000680: 0000 0060 787d e53f 0000 0020 0737 e2bf
00000690: 0000 00e0 1e5a e33f 0000 0020 7826 e73f
000006a0: 0000 00a0 3150 d5bf 0000 00e0 7275 e53f
000006b0: 0000 0020 c564 e73f 0000 00c0 f920 c0bf
000006c0: 0000 00c0 be2b e63f 0000 00a0 920c e73f
000006d0: 0000 00a0 f474 a13f 0000 0020 f30d e63f
000006e0: 0000 00e0 3f9a e63f 0000 00a0 abad c43f
000006f0: 0000 00c0 d37d e53f 0000 00e0 3c19 e63f
00000700: 0000 0060 772d d13f 0000 0040 7bd1 e43f
00000710: 0000 0040 d286 e53f 0000 0060 8b8e d63f
00000720: 0000 0020 cc1f e43f 0000 0040 9ff6 e43f
00000730: 0000 0040 adcc da3f 0000 0080 9667 e33f
00000740: 0000 0080 c275 e43f 0000 0080 6641 de3f
00000750: 0000 0020 bcb9 e23f 0000 00e0 eaf9 e33f
00000760: 0000 00c0 e88f e03f 0000 0020 cd20 e23f
00000770: 0000 0080 cd8c e33f 0000 0060 51b2 e13f
00000780: 0000 0040 1e7a e13f 0000 0020 b72a e33f
00000790: 0000 0080 6cbd e23f 0000 0060 96f7 e03f
000007a0: 0000 0000 83d2 e23f 0000 00c0 678a e33f
000007b0: 0000 0040 f781 e03f 0000 0060 4584 e23f
000007c0: 0000 0020 ee36 e43f 0000 0040 cd1d e03f
000007d0: 0000 0000 ec3f e23f 0000 00e0 fdc3 e43f
000007e0: 0000 00c0 ce8d df3f 0000 0080 9b01 e23f
000007f0: 0000 0000 c63b e53f 0000 0060 2a20 df3f
0.4858974516391754 0.4576692581176758 0.7446089386940002 0.4670035243034363 0.4568260908126831 0.7571113109588623 0.4448889493942261 0.4551364481449127
0.7713135480880737 0.42104965448379517 0.4526907205581665 0.7859950661659241 0.39301949739456177 0.44897225499153137 0.8024709820747375 0.36099860072135925
0.44384196400642395 0.8201733827590942 0.32460492849349976 0.436919242143631 0.8388881087303162 0.2800668179988861 0.4273667335510254 0.8596047163009644
0.22751553356647491 0.41392412781715393 0.8814212679862976 0.15767310559749603 0.39408329129219055 0.905448853969574 0.06656961888074875 0.3639626204967499
0.9290315508842468 -0.049475591629743576 0.32020410895347595 0.9460557103157043 -0.21780502796173096 0.2459198236465454 0.9445022940635681 -0.4378681778907776
0.12950122356414795 0.8896634578704834 -0.6836727261543274 -0.039139531552791595 0.7287383675575256 -0.870867908000946 -0.23096120357513428 0.4338732063770294
-0.9214065670967102 -0.37204739451408386 0.11220822483301163 -0.884553074836731 -0.44728001952171326 -0.13231241703033447 -0.8245561718940735 -0.4821122884750366
-0.29609936475753784 -0.7661622166633606 -0.49800387024879456 -0.40618669986724854 -0.7123631238937378 -0.5049463510513306 -0.48740947246551514 -0.666412353515625
-0.5073567032814026 -0.5463367104530334 -0.6227620244026184 -0.5074765682220459 -0.5955124497413635 -0.5866613984107971 -0.5062946081161499 -0.6320555806159973
-0.5528135299682617 -0.5044940114021301 -0.663236677646637 -0.5199478268623352 -0.5016374588012695 -0.6913856267929077 -0.49488580226898193 -0.49944034218788147
-0.7110888957977295 -0.47341740131378174 -0.49729445576667786 -0.7270310521125793 -0.45275017619132996 -0.4950962960720062 -0.7415503859519958 -0.43618157505989075
-0.4936824440956116 -0.7523451447486877 -0.4231480360031128 -0.4927983283996582 -0.7603259682655334 -0.41373777389526367 -0.4926374554634094 -0.7655908465385437
-0.4082689583301544 -0.4933743178844452 -0.7680483460426331 -0.4052724540233612 -0.49445366859436035 -0.7689406871795654 -0.4037666320800781 -0.4963438808917999
-0.7685149908065796 -0.40599048137664795 -0.498956561088562 -0.7656462788581848 -0.413051962852478 -0.5027050971984863 -0.7593916654586792 -0.4216015636920929
-0.5067554712295532 -0.7519647479057312 -0.4353424608707428 -0.5118218064308167 -0.7406182885169983 -0.45320937037467957 -0.5166547894477844 -0.7264083623886108
-0.4732350707054138 -0.5219798684120178 -0.7096376419067383 -0.49785861372947693 -0.5277379155158997 -0.6882074475288391 -0.5223320722579956 -0.5323718190193176
-0.6661451458930969 -0.5495557188987732 -0.536695659160614 -0.6402704119682312 -0.5782415270805359 -0.5402823090553284 -0.6113360524177551 -0.6081299781799316
-0.5424470901489258 -0.5795937180519104 -0.6416438817977905 -0.5428702235221863 -0.5418348908424377 -0.676102340221405 -0.541421115398407 -0.4997488856315613
-0.708412230014801 -0.5375386476516724 -0.4573884904384613 -0.7374421954154968 -0.5315254330635071 -0.41672492027282715 -0.7628316283226013 -0.5237714648246765
-0.37914568185806274 -0.7880421876907349 -0.5133391618728638 -0.339812308549881 -0.8093852996826172 -0.5014570951461792 -0.30567359924316406 -0.8275797367095947
-0.4883176386356354 -0.27687138319015503 -0.8417219519615173 -0.4745674133300781 -0.2574683725833893 -0.8531001806259155 -0.45993706583976746 -0.24632883071899414
-0.8639868497848511 -0.4432253837585449 -0.23891028761863708 -0.865822970867157 -0.42945361137390137 -0.2567494213581085 -0.8692293763160706 -0.4113691747188568
-0.27425459027290344 -0.8697175979614258 -0.3895917236804962 -0.3030010759830475 -0.8637335896492004 -0.3650365173816681 -0.34743738174438477 -0.8415612578392029
-0.338169664144516 -0.4212077558040619 -0.8079935908317566 -0.2981297969818115 -0.5081977248191833 -0.7538555264472961 -0.23810815811157227 -0.6123774647712708
-0.6691974401473999 -0.15742895007133484 -0.7262167930603027 -0.5358735918998718 -0.04562609642744064 -0.843064546585083 -0.33835193514823914 0.13849295675754547
-0.9307725429534912 -0.057739634066820145 0.344387412071228 -0.9370504021644592 0.23633168637752533 0.5400996804237366 -0.8077373504638672 0.4743316173553467
0.6715661883354187 -0.5692172646522522 0.6047510504722595 0.7234459519386292 -0.3330196440219879 0.6705870032310486 0.7310510277748108 -0.1260063350200653
0.6928399801254272 0.7202847599983215 0.03409542515873909 0.6892028450965881 0.7063292860984802 0.16155000030994415 0.6716097593307495 0.6905807852745056
0.26840004324913025 0.6505714654922485 0.6727076768875122 0.3524502217769623 0.6288815140724182 0.6551052331924438 0.41874247789382935 0.6063950061798096
0.6393749713897705 0.4727417230606079 0.585172712802887 0.624257504940033 0.5175670385360718 0.5665040612220764 0.6109378337860107 0.5530173182487488
0.5461570024490356 0.598964273929596 0.585623025894165 0.5302230715751648 0.5881972312927246 0.6106451749801636 0.5158649682998657 0.5786463618278503
0.6317053437232971 0.5036379098892212 0.5703029632568359 0.6489247679710388 0.49303025007247925 0.5626962184906006 0.6635465621948242 0.48633822798728943

continuous_index_train f8 [6800, 3]
00000000: 16bb 1c26 c6a3 2040 2650 8754 f8b1 ecbf
00000010: 0000 0000 0000 0000 9ad4 d74e ccbc 2540
00000020: 456e 3448 4cff cbbf 0000 0000 0000 0000
00000030: d37f 99b5 d0b3 2640 5c40 186c 77b7 f33f
00000040: 0000 0000 0000 0000 2521 bab2 40db 2140
00000050: 1ba9 7666 3da1 0b40 0000 0000 0000 0000
00000060: eece 26a2 034e 1240 33a8 46f0 21f7 1a40
00000070: 0000 0000 0000 0000 34cc 52d4 0756 fabf
00000080: 9454 d9e6 5f10 1e40 0000 0000 0000 0000
00000090: ef86 a977 edd3 20c0 b1e4 a0d6 2114 1740
000000a0: 0000 0000 0000 0000 987d 1db8 b3ce 2dc0
000000b0: 98bd 79c6 5bf3 ff3f 0000 0000 0000 0000
000000c0: 76e5 1753 a26f 35c0 43b3 3967 d27a 16c0
000000d0: 0000 0000 0000 0000 5dd7 af3e 7531 3cc0
000000e0: 1a90 dc4d 1cc3 31c0 0000 0000 0000 0000
000000f0: a1b7 02eb 52b3 41c0 4335 20d6 8b84 3bc0
00000100: 0000 0000 0000 0000 c7df 20ab 093c 45c0
00000110: bee1 63a6 4a12 41c0 0000 0000 0000 0000
00000120: 3e4f 4122 fa19 48c0 1d47 a8d6 5b1c 41c0
00000130: 0000 0000 0000 0000 2295 072d d278 49c0
00000140: 458f 3985 9a81 36c0 0000 0000 0000 0000
00000150: aa6a e355 6dbe 48c0 06ca 3388 3065 ebbf
00000160: 0000 0000 0000 0000 42d6 c0f9 0f03 46c0
00000170: c6b8 f8ac e48d 3d40 0000 0000 0000 0000
00000180: 1700 5894 22aa 41c0 47f4 760f 39d6 5040
00000190: 0000 0000 0000 0000 bcde da3c 40b9 39c0
000001a0: b4b6 cf8f b90b 5c40 0000 0000 0000 0000
000001b0: 2be9 6912 7157 31c0 c153 db3f 3193 6440
000001c0: 0000 0000 0000 0000 4534 86b0 b575 29c0
000001d0: c0d2 d1f7 a40e 6c40 0000 0000 0000 0000
000001e0: 0c11 a1e9 f5e4 24c0 2a46 f808 c732 7240
000001f0: 0000 0000 0000 0000 2eca 637d 07dd 24c0
00000200: 8da4 ea1c f65c 7640 0000 0000 0000 0000
00000210: 910c ca5a 8efc 26c0 253a b57d cd22 7a40
00000220: 0000 0000 0000 0000 7ab9 8188 fd15 28c0
00000230: b1d2 f584 cb3c 7d40 0000 0000 0000 0000
00000240: c860 7f8c 485a 27c0 4b2f 3df6 233e 7f40
00000250: 0000 0000 0000 0000 7b79 ef8b f772 27c0
00000260: 20ea 5cd4 4726 8040 0000 0000 0000 0000
00000270: b9e4 657f 70a7 26c0 57db f95e 5153 8040
00000280: 0000 0000 0000 0000 13c9 2e9c 3744 1fc0
00000290: 7b79 d295 b569 8040 0000 0000 0000 0000
000002a0: 7dda d1d9 0153 d2bf 9dd1 131f 2691 8040
000002b0: 0000 0000 0000 0000 aca8 68c4 7b07 2840
000002c0: 1b66 2f10 1df4 8040 0000 0000 0000 0000
000002d0: df29 5ef5 982c 4040 f9fd fa54 06a1 8140
000002e0: 0000 0000 0000 0000 9caf d38a 8845 4c40
000002f0: bdbc 5a06 2361 8240 0000 0000 0000 0000
00000300: 5f52 79b0 5dbb 5440 c8af 1687 050c 8340
00000310: 0000 0000 0000 0000 324d 5884 b2fa 5b40
00000320: 482c 4f28 3e9d 8340 0000 0000 0000 0000
00000330: e881 6c91 ff9c 6140 32f8 c235 74d7 8340
00000340: 0000 0000 0000 0000 5723 fa5a b518 6540
00000350: 53fe 817e 25c2 8340 0000 0000 0000 0000
00000360: 6291 f2a8 d785 6840 4084 bd32 008d 8340
00000370: 0000 0000 0000 0000 b03d a003 f60d 6c40
00000380: 0674 3a80 9349 8340 0000 0000 0000 0000
00000390: c891 ff04 d1ca 6f40 601f 1ac9 ff22 8340
000003a0: 0000 0000 0000 0000 7a15 8152 e1e4 7140
000003b0: 4b62 f4e1 0533 8340 0000 0000 0000 0000
000003c0: 9cee 31f7 c22b 7440 2b0a eb4c ee62 8340
000003d0: 0000 0000 0000 0000 5f96 ffa0 c87c 7640
000003e0: 90fe e1eb a586 8340 0000 0000 0000 0000
000003f0: 3b2d 0c76 a8b0 7840 9329 e284 6978 8340
00000400: 0000 0000 0000 0000 79d1 c3a0 71d8 7a40
00000410: 2e35 63e8 e71a 8340 0000 0000 0000 0000
00000420: 6357 a8f9 fc90 7c40 0dcc 3d4b a14f 8240
00000430: 0000 0000 0000 0000 8ea3 b001 0cd0 7d40
00000440: 4c46 fed9 7d3f 8140 0000 0000 0000 0000
00000450: 94b5 251d 6cc2 7e40 2883 8c5f de25 8040
00000460: 0000 0000 0000 0000 a765 c663 80a9 7f40
00000470: e519 1d76 221e 7e40 0000 0000 0000 0000
00000480: 4a7e 67ed 0a5f 8040 78df 2c0a 755f 7c40
00000490: 0000 0000 0000 0000 eae5 637f 4f1e 8140
000004a0: 7b3f ff3f bc20 7b40 0000 0000 0000 0000
000004b0: 12b1 2392 581e 8240 faee 555a c30b 7a40
000004c0: 0000 0000 0000 0000 d833 502d 232c 8340
000004d0: f098 70e0 88d2 7840 0000 0000 0000 0000
000004e0: a8ed 4edd 4b27 8440 b902 eb4b b938 7740
000004f0: 0000 0000 0000 0000 1e38 1a25 f001 8540
00000500: e4e5 4641 3521 7540 0000 0000 0000 0000
00000510: bd35 798a fd7f 8540 b01f 9760 18a2 7240
00000520: 0000 0000 0000 0000 f5d3 37ba aeb2 8540
00000530: 971b 0745 0d18 7040 0000 0000 0000 0000
00000540: e526 e3fd e8bf 8540 6045 5583 5697 6b40
00000550: 0000 0000 0000 0000 1984 ac00 f7be 8540
00000560: 006c 1370 ef0c 6740 0000 0000 0000 0000
00000570: 091a b144 e6cc 8540 1953 0cd9 3ff8 6240
00000580: 0000 0000 0000 0000 a000 efda 73fd 8540
00000590: d45c cb23 a252 5e40 0000 0000 0000 0000
000005a0: 4023 7f53 b93b 8640 ce84 d3eb f89c 5640
000005b0: 0000 0000 0000 0000 1519 c3c6 6053 8640
000005c0: f901 be86 5194 4e40 0000 0000 0000 0000
000005d0: bcfd 9f44 f224 8640 7a9a fe31 134d 4140
000005e0: 0000 0000 0000 0000 e982 4fdd d6b3 8540
000005f0: 1e03 8058 b644 2240 0000 0000 0000 0000
00000600: a2e3 211a 8dea 8440 ada3 c0dd ba78 2dc0
00000610: 0000 0000 0000 0000 e678 6b05 0ff9 8340
00000620: 33da fe2d 79f8 42c0 0000 0000 0000 0000
00000630: 17d0 1010 3219 8340 6944 e708 198a 4ec0
00000640: 0000 0000 0000 0000 11f4 42d1 ba4a 8240
00000650: d90c 67cd 08b6 55c0 0000 0000 0000 0000
00000660: 86c0 db00 27b8 8140 44a6 a5c6 25bc 5bc0
00000670: 0000 0000 0000 0000 325c d9ef 8c6f 8140
00000680: c2df c26b 1597 60c0 0000 0000 0000 0000
00000690: 030d d864 8754 8140 4a94 802c 1c15 63c0
000006a0: 0000 0000 0000 0000 e58b c796 1c43 8140
000006b0: ec52 3b31 c120 65c0 0000 0000 0000 0000
000006c0: 31d2 840a dc19 8140 87b4 0b42 20bb 66c0
000006d0: 0000 0000 0000 0000 8a81 5fb3 c4af 8040
000006e0: 5894 afa7 c211 68c0 0000 0000 0000 0000
000006f0: f609 e9d7 49c1 7f40 1c0a 2b91 add6 68c0
00000700: 0000 0000 0000 0000 99c4 2215 928b 7d40
00000710: 2406 bcd2 7af8 68c0 0000 0000 0000 0000
00000720: fadc 63f9 0a10 7b40 f61b 9a59 f6aa 68c0
00000730: 0000 0000 0000 0000 bdab c70a be4b 7840
00000740: 8dd4 ef04 bc45 68c0 0000 0000 0000 0000
00000750: 6b10 1893 96d8 7540 ac32 6120 15fd 67c0
00000760: 0000 0000 0000 0000 f616 4302 66d6 7340
00000770: a394 c5c7 361c 68c0 0000 0000 0000 0000
00000780: a822 35a5 f12b 7240 7327 c74a ca7b 68c0
00000790: 0000 0000 0000 0000 0035 0ebc baa5 7040
000007a0: 54b6 5ecc 2bb7 68c0 0000 0000 0000 0000
000007b0: 4588 7552 8c07 6e40 8106 f394 a091 68c0
000007c0: 0000 0000 0000 0000 0b5e 98c6 6117 6a40
000007d0: 60c1 e3b1 8e04 68c0 0000 0000 0000 0000
000007e0: 5e87 54a0 1d6c 6540 385b 70d9 d611 67c0
000007f0: 0000 0000 0000 0000 4e10 f774 933c 6040
8.319871130950144 -0.8967248583744591 0.0 10.868746246191495 -0.2187285759508645 0.0 11.351201701152524 1.232291624302909
0.0 8.928227982731707 3.4537303929292995 0.0 4.576185735338852 6.7413404029012325 0.0 -1.6460035604366228
7.515990836157602 0.0 -8.41392110771582 5.769660333223485 0.0 -14.90371489868157 1.996913695616831 0.0
-21.43607062657744 -5.61994324960398 0.0 -28.193195264749523 -17.7621506370052 0.0 -35.400967956854636 -27.51775873457269
0.0 -42.46904505829985 -34.142903136034406 0.0 -48.20294597805922 -34.22155268875779 0.0 -50.94391405935518
-22.50626404433503 0.0 -49.48771165470437 -0.8561022434426497 0.0 -44.02392503658167 29.5542705638152 0.0
-35.32918028160946 67.34723269096968 0.0 -25.723636439738343 112.1832007912115 0.0 -17.34156909070695 164.59976189458214
0.0 -12.729901806242319 224.45763770085432 0.0 -10.447188664351891 291.17359253866255 0.0 -10.431697767669075
357.8100861707433 0.0 -11.493273579754062 418.1751687125382 0.0 -12.042949930034172 467.79968734764685 0.0
-11.676334753560141 499.88377975368775 0.0 -11.724544880850535 516.7850730189275 0.0 -11.327030163944402 522.4147319335997
0.0 -7.816618385654027 525.2136646693538 0.0 -0.28631635924777027 530.1436139629692 0.0 12.014616143966428
542.5141910269771 0.0 32.348417921999264 564.1280917748219 0.0 56.54322944008092 588.1421019638871 0.0
82.92759334419087 609.5026990673441 0.0 111.91714581130216 627.6553503213299 0.0 140.9061972731863 634.9317431671136
0.0 168.77213810782516 632.2683077007044 0.0 196.182575677648 625.6250967794404 0.0 224.43628102585853
617.1970219198854 0.0 254.33801507869634 612.3748952904534 0.0 286.3050103227939 614.3778723804948 0.0
322.7350990248176 620.3663576471785 0.0 359.79898166502784 624.8310163169681 0.0 395.041128203931 623.0515229863107
0.0 429.52774120799546 611.363236212788 0.0 457.0617615295252 585.9537567928215 0.0 477.00293129920544
551.9364509453967 0.0 492.1513949845332 516.7335806825186 0.0 506.59384515284404 481.88341342322957 0.0
523.8803356252113 453.96607415703284 0.0 547.7888171963252 434.0459594698547 0.0 579.7932474888241 416.7351935726907
0.0 613.5171762719938 397.1584171675049 0.0 644.9120432058598 371.54523841668157 0.0 672.2422582672477
338.07550170607124 0.0 687.9987992734456 298.1309514907143 0.0 694.3353161202964 257.50323965813135 0.0
695.9887655016179 220.72931067137233 0.0 695.8706067540944 184.40422824662528 0.0 697.6124357067175 151.7577939263072
0.0 703.6815699264589 121.29114622935896 0.0 711.4654912884362 90.45269294410829 0.0 714.4222541086225
61.15873798635216 0.0 708.618294954234 34.60214829379852 0.0 694.4799143039537 9.134203687311636 0.0
669.3188974998086 -14.735800676122233 0.0 639.1323345562239 -37.941198110046024 0.0 611.1494447053436 -61.078889000819636
0.0 585.3412194472058 -86.84428725303168 0.0 567.0190446060303 -110.93980566193301 0.0 557.9438168507825
-132.72136486111964 0.0 554.5661103133174 -152.65968918908248 0.0 552.3889594640319 -169.02358304583265 0.0
547.2324419380803 -181.84768774305505 0.0 533.9710452519805 -192.55501159947266 0.0 508.0805281737406 -198.70868738561774
0.0 472.7231646879314 -199.7649930641502 0.0 433.00267924317416 -197.34257202243288 0.0 388.73389699932505
-194.17920157281733 0.0 349.5367613735204 -191.90882891639683 0.0 317.3999045010272 -192.88168705549205 0.0
290.7464954448319 -195.86844386002812 0.0 266.3580894999468 -197.72409647463303 0.0 240.23587916331795 -196.5508522745695
0.0 208.73068551787614 -192.14241880877944 0.0 171.37861649045493 -184.5574767298183 0.0 129.89300010923984

continuous_index_test f8 [1700, 3]
00000000: c36e 4355 1937 1440 381b 5d0a b88a 2a40
00000010: 0000 0000 0000 0000 8445 2cd5 1538 2040
00000020: ab8f 8523 efe0 3140 0000 0000 0000 0000
00000030: fd79 fafc b855 2440 8ed4 eb1f 9e6e 3440
00000040: 0000 0000 0000 0000 c3e7 d0b0 58c8 2440
00000050: c091 d05d 6d60 3440 0000 0000 0000 0000
00000060: 2fa7 a36d 1cba 2440 1dcc 4db7 6499 3440
00000070: 0000 0000 0000 0000 d0aa 9f0f 657a 2540
00000080: 42d2 f0a5 7831 3640 0000 0000 0000 0000
00000090: d5e5 b9f5 c88f 2740 2eaf 1faa 47de 3740
000000a0: 0000 0000 0000 0000 a267 9f30 970f 2d40
000000b0: e952 2aaa 969e 3b40 0000 0000 0000 0000
000000c0: bec3 8bd5 e4dc 3240 0ea8 d49c c608 4140
000000d0: 0000 0000 0000 0000 8889 c4f0 b6bf 3640
000000e0: f34d 13d5 badf 4240 0000 0000 0000 0000
000000f0: 52e6 497d 5543 3b40 e554 49e0 d1bc 4540
00000100: 0000 0000 0000 0000 08d6 1323 af8a 3f40
00000110: ae7a c97b 6b1d 4a40 0000 0000 0000 0000
00000120: 3c8a 5c5b a95d 4240 dd76 b64c d53b 5040
00000130: 0000 0000 0000 0000 cda3 418d 033e 4640
00000140: f1ac 360d a2f4 5440 0000 0000 0000 0000
00000150: d38a b01b 3296 4c40 4eb5 ed6d 6007 5c40
00000160: 0000 0000 0000 0000 ac96 9996 daf6 5240
00000170: 4ad7 dcda 49d5 6240 0000 0000 0000 0000
00000180: 8ec5 29ca e0c0 5840 e906 f41d 9b08 6940
00000190: 0000 0000 0000 0000 c37e 740c b438 5f40
000001a0: 1305 1592 6248 7040 0000 0000 0000 0000
000001b0: 06a5 97d5 15bc 6240 a7cf 4768 998a 7440
000001c0: 0000 0000 0000 0000 66bf 34fd feea 6440
000001d0: ca6c c4f2 e1c7 7840 0000 0000 0000 0000
000001e0: b4a5 35dc af3b 6640 dd6f 46a8 93ee 7c40
000001f0: 0000 0000 0000 0000 f419 fecc dec0 6640
00000200: b038 8f5f 563b 8040 0000 0000 0000 0000
00000210: 9b46 61e3 c3b0 6640 31cb 9572 7a92 8140
00000220: 0000 0000 0000 0000 3323 8160 5788 6640
00000230: 935d e275 cc7e 8240 0000 0000 0000 0000
00000240: 95c2 9a01 28f4 6640 8586 0cb4 0613 8340
00000250: 0000 0000 0000 0000 776b 3480 7322 6840
00000260: 8592 4baa f278 8340 0000 0000 0000 0000
00000270: ac5d d185 bfff 6940 bd3b 8b16 24df 8340
00000280: 0000 0000 0000 0000 4bca b8e1 7bbc 6c40
00000290: 5794 2a17 7074 8440 0000 0000 0000 0000
000002a0: ecbd e90e 5a1e 7040 c8a9 977d a135 8540
000002b0: 0000 0000 0000 0000 7666 ff75 19ef 7140
000002c0: d33a c117 8df9 8540 0000 0000 0000 0000
000002d0: b01f 5231 b805 7440 e122 4535 1dba 8640
000002e0: 0000 0000 0000 0000 8ca8 4f40 761e 7640
000002f0: 1784 521e ee38 8740 0000 0000 0000 0000
00000300: 20ce c979 92fe 7740 7de9 6bc3 aa3d 8740
00000310: 0000 0000 0000 0000 1868 448b ccb4 7940
00000320: 7a27 0715 3cf0 8640 0000 0000 0000 0000
00000330: fc78 2933 0b50 7b40 0624 9421 2d6a 8640
00000340: 0000 0000 0000 0000 13ce 6d2a 8807 7d40
00000350: 14b3 8ff4 0cd8 8540 0000 0000 0000 0000
00000360: f7c7 6e91 fd17 7f40 070f 421e f678 8540
00000370: 0000 0000 0000 0000 23bc 3b42 dac5 8040
00000380: a046 f36a 225b 8540 0000 0000 0000 0000
00000390: c406 757c 4613 8240 87bd d858 2f55 8540
000003a0: 0000 0000 0000 0000 50dc 042a d634 8340
000003b0: 2b97 1395 1334 8540 0000 0000 0000 0000
000003c0: 3cf5 8df3 f41c 8440 f1b4 8a42 eccd 8440
000003d0: 0000 0000 0000 0000 121a 32de d79b 8440
000003e0: b72a 32a9 63fd 8340 0000 0000 0000 0000
000003f0: 25be 576a 8cab 8440 8457 f82c a6c3 8240
00000400: 0000 0000 0000 0000 74cd 0c24 3582 8440
00000410: 33ba cfd8 9b6a 8140 0000 0000 0000 0000
00000420: e923 7e81 5242 8440 09e1 a1e0 cf04 8040
00000430: 0000 0000 0000 0000 99ce ecc6 7210 8440
00000440: 9a5b cb8c d967 7d40 0000 0000 0000 0000
00000450: d05a c939 000a 8440 5c6f 6697 2c4d 7b40
00000460: 0000 0000 0000 0000 6e49 c450 223a 8440
00000470: 2ac8 4519 9a8f 7940 0000 0000 0000 0000
00000480: 8f65 9e3e fd7a 8440 ff23 3c18 0ef7 7740
00000490: 0000 0000 0000 0000 e767 7a99 fb9b 8440
000004a0: a281 9cee d45b 7640 0000 0000 0000 0000
000004b0: e0ce 4564 f38d 8440 09b8 909c c980 7440
000004c0: 0000 0000 0000 0000 9540 c5cd c62b 8440
000004d0: ba0d 6b4c e64f 7240 0000 0000 0000 0000
000004e0: bcca 716f a85f 8340 f7d8 8e2b b2a2 6f40
000004f0: 0000 0000 0000 0000 5994 36d2 6b63 8240
00000500: 41c0 983d c3b9 6a40 0000 0000 0000 0000
00000510: d815 5517 0054 8140 9c25 1095 ddae 6540
00000520: 0000 0000 0000 0000 51df abf4 f95e 8040
00000530: 54bf 129e 10db 6040 0000 0000 0000 0000
00000540: 0fb5 7902 e27a 7f40 4c01 bb13 368a 5940
00000550: 0000 0000 0000 0000 793b e61d 03c5 7e40
00000560: 7ebb 8a9c c94e 5240 0000 0000 0000 0000
00000570: 5362 1f3b 804c 7e40 b5cb 2e40 1535 4840
00000580: 0000 0000 0000 0000 a443 1636 8ec0 7d40
00000590: 65aa 975d c514 3c40 0000 0000 0000 0000
000005a0: c971 da64 8ae9 7c40 30d8 3c19 753e 2440
000005b0: 0000 0000 0000 0000 16f5 048c 80ab 7b40
000005c0: 6999 e2d4 d856 21c0 0000 0000 0000 0000
000005d0: 353a f0b5 3324 7a40 eade 4940 d50b 3bc0
000005e0: 0000 0000 0000 0000 8d55 994f 7fc5 7840
000005f0: 76c8 9082 0e63 46c0 0000 0000 0000 0000
00000600: 0f51 a8e5 e483 7740 55aa b903 ad20 4fc0
00000610: 0000 0000 0000 0000 e3cf 98a1 655f 7640
00000620: 0ba7 07f3 3dfe 52c0 0000 0000 0000 0000
00000630: 89e8 d07e 4373 7540 8bbd 176b 40ca 54c0
00000640: 0000 0000 0000 0000 92a9 f9ce 3359 7440
00000650: 4092 be4d 06a5 55c0 0000 0000 0000 0000
00000660: 180a ea3a edeb 7240 f715 ccf4 a527 56c0
00000670: 0000 0000 0000 0000 d3bd a4a5 6b38 7140
00000680: 2c52 4205 9970 57c0 0000 0000 0000 0000
00000690: a74d 0dc1 6eb1 6e40 a5ec 5807 e19e 5ac0
000006a0: 0000 0000 0000 0000 5577 9212 2407 6b40
000006b0: a2f1 6990 aca1 5fc0 0000 0000 0000 0000
000006c0: b82d 9829 89df 6740 d8f4 e115 3e7f 62c0
000006d0: 0000 0000 0000 0000 a838 b26e d3a6 6540
000006e0: 80c4 50af 3fa0 64c0 0000 0000 0000 0000
000006f0: 3fab e733 e0c7 6340 fde6 3cd4 1690 65c0
00000700: 0000 0000 0000 0000 97c7 1e4a c2db 6140
00000710: e312 0003 3720 65c0 0000 0000 0000 0000
00000720: 9030 0bd6 ca5d 5f40 54a0 2dab 129e 63c0
00000730: 0000 0000 0000 0000 670b 2f2a 86ce 5940
00000740: 8b4e 8ae2 75c2 61c0 0000 0000 0000 0000
00000750: d5d6 d6d9 7177 5340 da7b db22 7a02 60c0
00000760: 0000 0000 0000 0000 2e47 2d02 7a62 4a40
00000770: ab96 d7d8 6b4a 5dc0 0000 0000 0000 0000
00000780: 939b 255e 9fe3 3e40 3640 56b8 6139 5bc0
00000790: 0000 0000 0000 0000 78b9 2831 fd35 2b40
000007a0: b03d 6ffd 9d66 59c0 0000 0000 0000 0000
000007b0: d717 b39c 0662 fb3f 6e34 ab99 585f 57c0
000007c0: 0000 0000 0000 0000 3d40 a775 5df1 17c0
000007d0: eb6f 34ce db07 55c0 0000 0000 0000 0000
000007e0: 5a42 6c5f 7e8a 29c0 5904 bf35 94bc 52c0
000007f0: 0000 0000 0000 0000 b544 c6a6 78c5 32c0
5.05380757545544 13.270935367455976 0.0 8.109541570333711 17.878648967845646 0.0 10.167426972938296 20.43210029132438
0.0 10.39130165624727 20.37666879980111 0.0 10.363498140551739 20.599193054669843 0.0 10.739052284470205
22.19324719552447 0.0 11.780830077116585 23.868281014190124 0.0 14.530450362642856 27.61948646100328 0.0
18.862866732237073 34.0685611761438 0.0 22.74888520048401 37.74788917009928 0.0 27.26302321485702 43.47515491085668
0.0 31.541734878866947 52.22984263742306 0.0 36.73173086184076 64.93489377802639 0.0 44.48448339181014
83.8223908456746 0.0 57.173404179765974 112.11526058400815 0.0 75.85709156988986 150.66526549466136 0.0
99.0137200744559 200.26893518125078 0.0 124.88598929764252 260.52406509600513 0.0 149.87766532533732 328.66245296527126
0.0 167.34362659742618 396.49266316154956 0.0 177.86521730878815 462.9110491515583 0.0 182.02719735745598
519.417174452703 0.0 181.5239121341627 562.3097888662943 0.0 180.26066613409202 591.8498342213446 0.0
183.62988357760028 610.3782731035759 0.0 193.0765992187332 623.1184888748254 0.0 207.99212923900393 635.8926211240392
0.0 229.89012228099668 654.5547316862602 0.0 257.8969868784468 678.703852829808 0.0 286.94371604696005
703.1938929649426 0.0 320.3574689109764 727.2642617608327 0.0 353.90386992565686 743.1162687727509 0.0
383.91076067762515 743.7083805494909 0.0 411.2999375030645 734.0293369826243 0.0 437.0027343387626 717.2720367024892
0.0 464.4707435883767 699.0063258387113 0.0 497.4994062735927 687.1201749001347 0.0 536.7315716425695
683.3918055540016 0.0 578.4094170706453 682.6481186802711 0.0 614.6045723323568 678.5095616846569 0.0
643.6196051683869 665.740361293456 0.0 659.4804042734343 639.6736625594411 0.0 661.4435622076895 600.4561404611309
0.0 656.2759476661872 557.326097128744 0.0 648.2902860502919 512.6015026709366 0.0 642.0560434818791
470.4906127875962 0.0 641.2501102190818 436.8233865739219 0.0 647.2667556128415 408.9751217580657 0.0
655.3736545920127 383.4409410809748 0.0 659.4978513300856 357.739485370019 0.0 657.7438435987242 328.0492215779382
0.0 645.4720721636137 292.99372522180386 0.0 619.9572438135142 253.08424928569704 0.0 588.4276470436117
213.80508308252504 0.0 554.5000445029536 173.46454861787504 0.0 523.872048704865 134.8457785001907 0.0
503.6801781419935 102.15955060255254 0.0 492.3132609361124 73.2310553889092 0.0 484.7813063836995 48.414711020326116
0.0 476.0347195501038 28.081136559989677 0.0 462.5962875874507 10.121987141301446 0.0 442.7188835328719
-8.669623043690722 0.0 418.26262468184296 -27.046222703966954 0.0 396.34358177086034 -44.77388031072125 0.0
376.2433830809468 -62.255279985100664 0.0 357.9623123139592 -75.97253108737293 0.0 343.2039783630831 -83.16018178289794
0.0 325.57514855884904 -86.57850974665143 0.0 302.74541751310016 -88.61950416498426 0.0 275.5262810168471
-93.75933963276537 0.0 245.54476978872592 -106.4824846619036 0.0 216.2231533871333 -126.52615747781832 0.0
190.9854934665907 -147.97632879383195 0.0 173.21330961998797 -165.00777402663152 0.0 158.24611850021208 -172.5027867497919
0.0 142.86746698390627 -169.0067152978364 0.0 125.46550513355965 -156.93977888976463 0.0 103.22693876833146
-142.07689024937676 0.0 77.8663239095725 -128.0774091994088 0.0 52.76934840403406 -117.16283246091432 0.0
30.889150509053774 -108.89658935950214 0.0 13.605447326871158 -101.60339294303299 0.0 1.711432087047333 -93.4897827312395
0.0 -5.985708082516848 -84.12279086228197 0.0 -12.770495397534592 -74.94654601720812 0.0 -18.77137224522149
