NeuroAI/Neural Embeddings Rank Aligning 3D latent dynamics with movements/NER/data_NER/Fig8/Supp_Cebra/Type_ curve-up-down=[34, 18]_parameters_5000itr_lr0.0001.npz (npz, 560044 bytes, 7 tensors)

train_loss_stable f4 [5000]
000000 57 a0 c7 40 58 a0 c7 40 57 a0 c7 40 58 a0 c7 40
       6.2383227 6.238323 6.2383227 6.238323
000010 57 a0 c7 40 57 a0 c7 40 58 a0 c7 40 57 a0 c7 40
       6.2383227 6.2383227 6.238323 6.2383227
000020 57 a0 c7 40 57 a0 c7 40 54 a0 c7 40 57 a0 c7 40
       6.2383227 6.2383227 6.2383213 6.2383227
000030 54 a0 c7 40 54 a0 c7 40 56 a0 c7 40 56 a0 c7 40
       6.2383213 6.2383213 6.2383223 6.2383223
000040 55 a0 c7 40 53 a0 c7 40 54 a0 c7 40 53 a0 c7 40
       6.238322 6.238321 6.2383213 6.238321
000050 55 a0 c7 40 54 a0 c7 40 52 a0 c7 40 54 a0 c7 40
       6.238322 6.2383213 6.2383204 6.2383213
000060 52 a0 c7 40 51 a0 c7 40 50 a0 c7 40 53 a0 c7 40
       6.2383204 6.23832 6.2383194 6.238321
000070 4e a0 c7 40 4e a0 c7 40 50 a0 c7 40 4e a0 c7 40
       6.2383184 6.2383184 6.2383194 6.2383184
000080 4d a0 c7 40 4d a0 c7 40 4d a0 c7 40 4b a0 c7 40
       6.238318 6.238318 6.238318 6.238317
000090 4d a0 c7 40 4c a0 c7 40 48 a0 c7 40 47 a0 c7 40
       6.238318 6.2383175 6.2383156 6.238315
0000a0 46 a0 c7 40 46 a0 c7 40 43 a0 c7 40 49 a0 c7 40
       6.2383146 6.2383146 6.238313 6.238316
0000b0 45 a0 c7 40 46 a0 c7 40 40 a0 c7 40 41 a0 c7 40
       6.238314 6.2383146 6.238312 6.2383122
0000c0 3d a0 c7 40 3d a0 c7 40 3a a0 c7 40 38 a0 c7 40
       6.2383103 6.2383103 6.238309 6.238308
0000d0 36 a0 c7 40 37 a0 c7 40 39 a0 c7 40 2e a0 c7 40
       6.238307 6.2383075 6.2383084 6.238303
0000e0 30 a0 c7 40 2c a0 c7 40 26 a0 c7 40 2f a0 c7 40
       6.238304 6.238302 6.2382994 6.2383037
0000f0 22 a0 c7 40 17 a0 c7 40 18 a0 c7 40 10 a0 c7 40
       6.2382975 6.238292 6.2382927 6.238289
000100 1b a0 c7 40 1c a0 c7 40 08 a0 c7 40 0a a0 c7 40
       6.238294 6.2382946 6.238285 6.238286
000110 03 a0 c7 40 04 a0 c7 40 06 a0 c7 40 03 a0 c7 40
       6.2382827 6.238283 6.238284 6.2382827
000120 0b a0 c7 40 ee 9f c7 40 f0 9f c7 40 fe 9f c7 40
       6.2382865 6.2382727 6.2382736 6.2382803
000130 e4 9f c7 40 ec 9f c7 40 c8 9f c7 40 e7 9f c7 40
       6.238268 6.2382717 6.2382545 6.2382693
000140 b2 9f c7 40 9f 9f c7 40 b6 9f c7 40 7b 9f c7 40
       6.238244 6.238235 6.238246 6.238218
000150 a0 9f c7 40 9a 9f c7 40 97 9f c7 40 81 9f c7 40
       6.2382355 6.2382326 6.238231 6.2382207
000160 27 9f c7 40 7a 9f c7 40 38 9f c7 40 24 9f c7 40
       6.238178 6.2382174 6.238186 6.2381763
000170 1b 9f c7 40 ef 9e c7 40 0c 9f c7 40 10 9f c7 40
       6.238172 6.238151 6.238165 6.238167
000180 88 9e c7 40 d0 9e c7 40 5f 9e c7 40 ae 9e c7 40
       6.238102 6.2381363 6.2380824 6.23812
000190 1c 9e c7 40 5e 9e c7 40 35 9e c7 40 40 9e c7 40
       6.2380505 6.238082 6.2380624 6.2380676
0001a0 44 9e c7 40 f5 9d c7 40 49 9d c7 40 6c 9d c7 40
       6.2380695 6.238032 6.23795 6.2379665
0001b0 0b 9d c7 40 11 9d c7 40 8e 9d c7 40 12 9d c7 40
       6.2379203 6.237923 6.2379827 6.2379236
0001c0 9d 9c c7 40 fd 9c c7 40 69 9c c7 40 ff 9b c7 40
       6.237868 6.2379136 6.237843 6.2377925
0001d0 2e 9b c7 40 31 9b c7 40 fa 99 c7 40 7a 9a c7 40
       6.237693 6.2376943 6.237546 6.237607
0001e0 52 99 c7 40 70 9b c7 40 0f 9a c7 40 83 99 c7 40
       6.237466 6.2377243 6.237556 6.237489
0001f0 22 99 c7 40 be 98 c7 40 3b 97 c7 40 21 98 c7 40
       6.237443 6.2373953 6.2372108 6.2373204
000200 7f 99 c7 40 73 96 c7 40 32 96 c7 40 62 93 c7 40
       6.2374873 6.2371154 6.2370844 6.236741
000210 11 95 c7 40 fd 93 c7 40 25 94 c7 40 4f 93 c7 40
       6.2369466 6.236815 6.236834 6.236732
000220 96 93 c7 40 8d 93 c7 40 1b 92 c7 40 39 91 c7 40
       6.236766 6.2367616 6.236585 6.2364774
000230 d0 8d c7 40 8f 8c c7 40 dc 8c c7 40 31 8a c7 40
       6.236061 6.235908 6.2359447 6.235619
000240 92 8a c7 40 39 8c c7 40 94 88 c7 40 c2 88 c7 40
       6.2356653 6.235867 6.235422 6.235444
000250 19 8a c7 40 11 87 c7 40 4a 86 c7 40 3e 82 c7 40
       6.2356076 6.2352376 6.2351427 6.2346487
000260 8a 82 c7 40 ee 7b c7 40 3a 80 c7 40 cb 7e c7 40
       6.234685 6.233878 6.2344027 6.2342277
000270 f5 74 c7 40 19 77 c7 40 93 75 c7 40 64 74 c7 40
       6.233027 6.2332883 6.2331023 6.232958
000280 2c 76 c7 40 ab 71 c7 40 30 67 c7 40 6b 65 c7 40
       6.2331753 6.2326255 6.231346 6.23113
000290 af 63 c7 40 8f 62 c7 40 87 5b c7 40 5b 60 c7 40
       6.2309184 6.230781 6.229923 6.230512
0002a0 67 54 c7 40 6d 56 c7 40 f0 46 c7 40 f8 53 c7 40
       6.229053 6.2293 6.2274094 6.229
0002b0 03 46 c7 40 aa 3f c7 40 a0 4b c7 40 5e 43 c7 40
       6.2272964 6.2265215 6.2279816 6.2269735
0002c0 48 28 c7 40 2d 20 c7 40 13 34 c7 40 20 1e c7 40
       6.223667 6.2226777 6.2251067 6.2224274
0002d0 95 19 c7 40 27 0f c7 40 fd 06 c7 40 e2 0a c7 40
       6.221873 6.2205997 6.219603 6.2200785
0002e0 39 fb c6 40 96 ed c6 40 ec e5 c6 40 6d e3 c6 40
       6.218167 6.216502 6.2155666 6.215262
0002f0 7b e2 c6 40 17 ad c6 40 d2 c7 c6 40 a6 d4 c6 40
       6.2151465 6.208629 6.211892 6.213458
000300 c9 af c6 40 de ab c6 40 70 8d c6 40 49 86 c6 40
       6.208958 6.20848 6.2047653 6.203892
000310 21 63 c6 40 c4 55 c6 40 35 2d c6 40 8f 7e c6 40
       6.1996007 6.1979694 6.1930184 6.202949
000320 f3 40 c6 40 e1 18 c6 40 6f fb c5 40 bb 17 c6 40
       6.1954284 6.190537 6.1869426 6.190397
000330 1c ed c5 40 ac e1 c5 40 29 f2 c5 40 c3 92 c5 40
       6.185194 6.183798 6.1858106 6.1741652
000340 72 82 c5 40 a5 99 c5 40 cc 47 c5 40 74 3b c5 40
       6.1721735 6.1750054 6.1650143 6.1635075
000350 98 29 c5 40 3e d3 c4 40 e2 08 c5 40 fb 97 c4 40
       6.1613274 6.1507864 6.1573343 6.1435523
000360 df 0b c5 40 8e 5b c4 40 c9 6a c4 40 c9 4e c4 40
       6.157699 6.136176 6.1380353 6.1346173
000370 a5 0e c4 40 33 f4 c3 40 9d c6 c3 40 a1 98 c3 40
       6.1267877 6.1235595 6.117995 6.1123815
000380 95 c8 c3 40 fb 83 c3 40 cc 1a c3 40 bf 43 c3 40
       6.118235 6.109861 6.097021 6.10202
000390 b8 6a c2 40 d6 9d c2 40 ae 8a c2 40 3a 33 c2 40
       6.075527 6.081767 6.0794287 6.0687532
0003a0 b9 de c1 40 4f fd c1 40 1e bb c1 40 99 20 c1 40
       6.058438 6.0621715 6.0540915 6.035229
0003b0 1b 26 c1 40 6d 90 c0 40 72 6e c1 40 81 59 c0 40
       6.0359015 6.01763 6.044732 6.010926
0003c0 98 0c c0 40 6e cb bf 40 d7 ad be 40 dc 04 bf 40
       6.0015373 5.9935827 5.9587207 5.969343
0003d0 e2 fd be 40 63 13 bf 40 47 d3 be 40 74 8b be 40
       5.9684916 5.9711165 5.9632907 5.954523
0003e0 db d4 bd 40 09 5a be 40 ea 63 bd 40 ae 00 bd 40
       5.9322333 5.9484906 5.9184465 5.906333
0003f0 71 b4 bc 40 b1 43 bd 40 46 52 bd 40 75 50 bc 40
       5.8970265 5.914513 5.916293 5.8848214

cebra_veldir_train f8 [6700, 3]
000000 00 00 00 a0 f6 77 e6 bf 00 00 00 a0 ff d7 e0 3f
       -0.7021439671516418 0.5263670086860657
000010 00 00 00 20 53 b0 de 3f 00 00 00 e0 ba 97 e6 bf
       0.4795120060443878 -0.7060217261314392
000020 00 00 00 a0 b6 7e e0 3f 00 00 00 e0 63 14 df 3f
       0.5154679417610168 0.48561951518058777
000030 00 00 00 20 d0 bf e6 bf 00 00 00 40 ce 07 e0 3f
       -0.710914671421051 0.5009528398513794
000040 00 00 00 00 3c 97 df 3f 00 00 00 00 44 f0 e6 bf
       0.4936056137084961 -0.7168292999267578
000050 00 00 00 60 08 d9 de 3f 00 00 00 20 4c 1f e0 3f
       0.48199662566185 0.5038204789161682
000060 00 00 00 00 5b 26 e7 bf 00 00 00 60 99 5e dd 3f
       -0.7234320640563965 0.4588988721370697
000070 00 00 00 c0 7f 81 e0 3f 00 00 00 80 01 63 e7 bf
       0.5158079862594604 -0.7308356761932373
000080 00 00 00 20 2d 83 db 3f 00 00 00 c0 28 f7 e0 3f
       0.42988136410713196 0.5301707983016968
000090 00 00 00 40 86 a0 e7 bf 00 00 00 60 f9 57 d9 3f
       -0.7383452653884888 0.39599451422691345
0000a0 00 00 00 e0 38 78 e1 3f 00 00 00 00 84 dd e7 bf
       0.5459255576133728 -0.7457904815673828
0000b0 00 00 00 20 89 c2 d6 3f 00 00 00 e0 b5 06 e2 3f
       0.3556235134601593 0.5633191466331482
0000c0 00 00 00 00 d2 14 e8 bf 00 00 00 00 b0 b2 d3 3f
       -0.7525415420532227 0.3077812194824219
0000d0 00 00 00 40 59 a1 e2 3f 00 00 00 60 91 40 e8 bf
       0.5821958780288696 -0.7578818202018738
0000e0 00 00 00 c0 bb 00 d0 3f 00 00 00 a0 44 48 e3 3f
       0.2500447630882263 0.6025717854499817
0000f0 00 00 00 80 01 56 e8 bf 00 00 00 20 e7 8a c7 3f
       -0.7604987621307373 0.18392647802829742
000100 00 00 00 40 89 ed e3 3f 00 00 00 60 f2 49 e8 bf
       0.6227461099624634 -0.7590267062187195
000110 00 00 00 e0 66 82 bb 3f 00 00 00 80 54 8c e4 3f
       0.10745852440595627 0.6421301364898682
000120 00 00 00 e0 d5 0d e8 bf 00 00 00 80 f8 50 95 3f
       -0.7516888976097107 0.02081669121980667
000130 00 00 00 e0 13 18 e5 3f 00 00 00 a0 7b 8f e7 bf
       0.6591891646385193 -0.7362650036811829
000140 00 00 00 a0 5c ad b3 bf 00 00 00 20 98 83 e5 3f
       -0.07686404138803482 0.6723137497901917
000150 00 00 00 20 83 c4 e6 bf 00 00 00 40 67 28 c7 bf
       -0.7114883065223694 -0.18092051148414612
000160 00 00 00 40 6f ba e5 3f 00 00 00 a0 ba ab e5 bf
       0.6790081262588501 -0.6772130131721497
000170 00 00 00 40 e8 50 d2 bf 00 00 00 a0 ef b0 e5 3f
       -0.28618818521499634 0.6778486371040344
000180 00 00 00 20 85 39 e4 bf 00 00 00 80 53 29 d9 bf
       -0.6320214867591858 -0.393147349357605
000190 00 00 00 e0 c8 5e e5 3f 00 00 00 20 f1 96 e2 bf
       0.667820394039154 -0.5809255242347717
0001a0 00 00 00 a0 86 5c df bf 00 00 00 60 31 cc e4 3f
       -0.49002233147621155 0.6499258875846863
0001b0 00 00 00 60 35 c8 e0 bf 00 00 00 20 b8 7e e2 bf
       -0.5244395136833191 -0.5779686570167542
0001c0 00 00 00 20 e7 01 e4 3f 00 00 00 60 c6 ef dd bf
       0.6252322793006897 -0.4677596986293793
0001d0 00 00 00 e0 62 dd e4 bf 00 00 00 e0 42 18 e3 3f
       -0.6520246863365173 0.5967115759849548
0001e0 00 00 00 c0 fc 43 da bf 00 00 00 60 ca e7 e6 bf
       -0.4103996157646179 -0.7157947421073914
0001f0 00 00 00 00 5f 14 e2 3f 00 00 00 c0 4c 0c d7 bf
       0.5649867057800293 -0.36012572050094604
000200 00 00 00 00 c1 72 e8 bf 00 00 00 60 99 21 e1 3f
       -0.7640080451965332 0.5353514552116394
000210 00 00 00 20 fc 11 d4 bf 00 00 00 40 b0 b1 e9 bf
       -0.313597708940506 -0.8029404878616333
000220 00 00 00 20 7d 38 e0 3f 00 00 00 60 dc 7e d1 bf
       0.5068956017494202 -0.2733679711818695
000230 00 00 00 60 c2 a5 ea bf 00 00 00 40 94 d0 de 3f
       -0.8327342867851257 0.4814806580543518
000240 00 00 00 00 05 71 ce bf 00 00 00 40 e4 65 eb bf
       -0.23782408237457275 -0.8561879396438599
000250 00 00 00 60 ea 5a dd 3f 00 00 00 40 b1 9e ca bf
       0.45867404341697693 -0.20796790719032288
000260 00 00 00 80 dc f6 eb bf 00 00 00 40 2f 1f dc 3f
       -0.8738844394683838 0.43940335512161255
000270 00 00 00 80 a9 69 c7 bf 00 00 00 e0 c0 64 ec bf
       -0.18291205167770386 -0.8872990012168884
000280 00 00 00 20 85 18 db 3f 00 00 00 00 4b 5b c4 bf
       0.4233715832233429 -0.1590360403060913
000290 00 00 00 c0 f8 c3 ec bf 00 00 00 20 54 20 da 3f
       -0.898922324180603 0.4082231819629669
0002a0 00 00 00 e0 7c de c1 bf 00 00 00 e0 13 0a ed bf
       -0.13960228860378265 -0.9074801802635193
0002b0 00 00 00 20 ae 5b d9 3f 00 00 00 60 88 c0 bf bf
       0.39622071385383606 -0.12403156608343124
0002c0 00 00 00 c0 34 3c ed bf 00 00 00 a0 7c c8 d8 3f
       -0.9135993719100952 0.38723674416542053
0002d0 00 00 00 20 db 96 bb bf 00 00 00 20 18 6d ed bf
       -0.10777062922716141 -0.9195671677589417
0002e0 00 00 00 00 f0 2e d8 3f 00 00 00 80 b5 ea b7 bf
       0.3778648376464844 -0.09342512488365173
0002f0 00 00 00 e0 48 94 ed bf 00 00 00 c0 e6 ac d7 3f
       -0.924351155757904 0.3699280619621277
000300 00 00 00 20 37 eb b3 bf 00 00 00 e0 99 bc ed bf
       -0.07780785113573074 -0.9292725920677185
000310 00 00 00 e0 60 1c d7 3f 00 00 00 80 04 cb ae bf
       0.36110708117485046 -0.060142651200294495
000320 00 00 00 80 7b e7 ed bf 00 00 00 e0 f1 73 d6 3f
       -0.9345071315765381 0.3508267104625702
000330 00 00 00 e0 5a 1e a5 bf 00 00 00 e0 4a 11 ee bf
       -0.04124721512198448 -0.9396108984947205
000340 00 00 00 60 76 be d5 3f 00 00 00 c0 fb 61 95 bf
       0.33974990248680115 -0.020881589502096176
000350 00 00 00 60 ed 39 ee bf 00 00 00 40 15 f8 d4 3f
       -0.9445711970329285 0.3276417851448059
000360 00 00 00 20 20 61 61 3f 00 00 00 60 05 64 ee bf
       0.002121508354321122 -0.9497095942497253
000370 00 00 00 80 3d 0a d4 3f 00 00 00 60 6f b3 9e 3f
       0.31312501430511475 0.02998136542737484
000380 00 00 00 80 d7 90 ee bf 00 00 00 c0 18 d9 d2 3f
       -0.9551808834075928 0.29450052976608276
000390 00 00 00 e0 68 76 b0 3f 00 00 00 40 02 be ee bf
       0.06430678814649582 -0.960694432258606
0003a0 00 00 00 c0 9d 48 d1 3f 00 00 00 e0 c6 7a b9 3f
       0.27005714178085327 0.0995296761393547
0003b0 00 00 00 c0 f9 dc ee bf 00 00 00 a0 a3 52 cf 3f
       -0.9644745588302612 0.24470944702625275
0003c0 00 00 00 80 6a 1b c2 3f 00 00 00 80 a9 ef ee bf
       0.14146167039871216 -0.9667556285858154
0003d0 00 00 00 a0 d2 43 cb 3f 00 00 00 a0 95 8b c8 3f
       0.21300728619098663 0.19175978004932404
0003e0 00 00 00 a0 f6 e9 ee bf 00 00 00 40 76 27 c6 3f
       -0.9660599827766418 0.17307928204536438
0003f0 00 00 00 40 1a 6d cf 3f 00 00 00 20 5f bf ee bf
       0.2455170452594757 -0.9608607888221741
000400 00 00 00 80 0b 6d c0 3f 00 00 00 40 6d 78 d3 3f
       0.12832778692245483 0.30422526597976685
000410 00 00 00 20 9b 62 ee bf 00 00 00 c0 8c 8a b3 3f
       -0.9495368599891663 0.07633285224437714
000420 00 00 00 60 fb 3c d7 3f 00 00 00 40 b9 ce ed bf
       0.36309704184532166 -0.9314848184585571
000430 00 00 00 00 86 d1 96 3f 00 00 00 e0 29 f3 da 3f
       0.0222836434841156 0.4210915267467499
000440 00 00 00 80 07 01 ed bf 00 00 00 80 20 7a a1 bf
       -0.9063756465911865 -0.0341348797082901
000450 00 00 00 60 62 ad de 3f 00 00 00 60 24 ec eb bf
       0.4793325364589691 -0.8725759387016296
000460 00 00 00 80 d2 15 b8 bf 00 00 00 80 3f 38 e1 3f
       -0.09408298134803772 0.5381162166595459
000470 00 00 00 20 da 7b ea bf 00 00 00 a0 67 6e c4 bf
       -0.8276186585426331 -0.1596192866563797
000480 00 00 00 40 d5 c5 e2 3f 00 00 00 80 42 f5 e8 bf
       0.5866495370864868 -0.7799389362335205
000490 00 00 00 20 72 e8 cb bf 00 00 00 c0 1c 2d e4 3f
       -0.21803118288516998 0.6305068731307983
0004a0 00 00 00 40 ad 37 e7 bf 00 00 00 e0 0b a6 d1 bf
       -0.7255464792251587 -0.27575966715812683
0004b0 00 00 00 e0 ae 61 e5 3f 00 00 00 e0 22 56 e5 bf
       0.6681742072105408 -0.6667646765708923
0004c0 00 00 00 00 69 20 d5 bf 00 00 00 a0 34 48 e6 3f
       -0.33010315895080566 0.6963141560554504
0004d0 00 00 00 20 33 93 e3 bf 00 00 00 20 07 07 d8 bf
       -0.6117187142372131 -0.3754289448261261
0004e0 00 00 00 80 cf 16 e7 3f 00 00 00 20 cd 96 e1 bf
       0.7215344905853271 -0.5496583580970764
0004f0 00 00 00 c0 1a f2 da bf 00 00 00 40 cf 96 e7 3f
       -0.42102688550949097 0.7371593713760376
000500 00 00 00 00 a8 e5 df bf 00 00 00 00 df 33 dd bf
       -0.49839210510253906 -0.45629096031188965
000510 00 00 00 80 f5 f4 e7 3f 00 00 00 00 05 b8 dc bf
       0.7486522197723389 -0.4487316608428955
000520 00 00 00 20 a8 3b df bf 00 00 00 60 7f 36 e8 3f
       -0.48801615834236145 0.7566525340080261
000530 00 00 00 00 3b 85 d9 bf 00 00 00 40 9c 94 e0 bf
       -0.398756742477417 -0.5181409120559692
000540 00 00 00 a0 42 56 e8 3f 00 00 00 e0 70 b0 d6 bf
       0.7605298161506653 -0.3545190989971161
000550 00 00 00 c0 41 68 e1 bf 00 00 00 a0 95 64 e8 3f
       -0.5439766645431519 0.7622783780097961
000560 00 00 00 00 b9 79 d3 bf 00 00 00 60 b5 47 e2 bf
       -0.3043043613433838 -0.5712534785270691
000570 00 00 00 e0 a8 57 e8 3f 00 00 00 c0 0e 48 d0 bf
       0.7607006430625916 -0.25439804792404175
000580 00 00 00 80 0b 1c e3 bf 00 00 00 20 b5 30 e8 3f
       -0.5971734523773193 0.7559457421302795
000590 00 00 00 20 41 a5 c9 bf 00 00 00 e0 6b f1 e3 bf
       -0.200355663895607 -0.6232203841209412
0005a0 00 00 00 c0 fd e4 e7 3f 00 00 00 e0 5e 02 c1 bf
       0.746703028678894 -0.13288484513759613
0005b0 00 00 00 c0 1f db e4 bf 00 00 00 a0 2e 6d e7 3f
       -0.651748538017273 0.7320778965950012
0005c0 00 00 00 60 30 c4 af bf 00 00 00 40 5e b5 e5 bf
       -0.062043678015470505 -0.6783896684646606
0005d0 00 00 00 a0 c6 c7 e6 3f 00 00 00 c0 c7 68 87 3f
       0.7118867039680481 0.011430321261286736
0005e0 00 00 00 20 6f 78 e6 bf 00 00 00 e0 ff d3 e5 3f
       -0.7022014260292053 0.6821288466453552
0005f0 00 00 00 a0 b9 96 bb 3f 00 00 00 e0 d6 24 e7 bf
       0.10776863247156143 -0.7232469916343689
000600 00 00 00 c0 16 9a e4 3f 00 00 00 60 df a8 ca 3f
       0.6438096761703491 0.2082785815000534
000610 00 00 00 c0 b8 8f e7 bf 00 00 00 40 67 1a e3 3f
       -0.736294150352478 0.5969730615615845
000620 00 00 00 20 ee 13 d4 3f 00 00 00 60 cf a0 e7 bf
       0.31371644139289856 -0.7383801341056824
000630 00 00 00 40 bf 86 e1 3f 00 00 00 e0 72 2b da 3f
       0.5476986169815063 0.4089019000530243
000640 00 00 00 e0 bd 5b e7 bf 00 00 00 40 8f 01 e0 3f
       -0.7299489378929138 0.5001903772354126
000650 00 00 00 c0 dd 9d df 3f 00 00 00 60 e8 c1 e6 bf
       0.49401038885116577 -0.7111703753471375
000660 00 00 00 e0 1e f1 dc 3f 00 00 00 80 d4 4d e2 3f
       0.45221683382987976 0.5720007419586182
000670 00 00 00 80 13 e6 e5 bf 00 00 00 a0 c1 f8 da 3f
       -0.684335470199585 0.42143288254737854
000680 00 00 00 00 d9 eb e3 3f 00 00 00 80 fd 19 e5 bf
       0.6225399971008301 -0.6594226360321045
000690 00 00 00 00 7f bb d8 3f 00 00 00 00 35 8f e5 3f
       0.3864438533782959 0.6737313270568848
0006a0 00 00 00 60 f7 27 e4 bf 00 00 00 20 ae 09 d7 3f
       -0.6298786997795105 0.35996583104133606
0006b0 00 00 00 60 95 c6 e6 3f 00 00 00 40 68 4d e3 bf
       0.7117411494255066 -0.6031991243362427
0006c0 00 00 00 00 ee a7 d5 3f 00 00 00 e0 4d c8 e7 3f
       0.33837461471557617 0.7432011961936951
0006d0 00 00 00 80 62 78 e2 bf 00 00 00 40 c7 2a d4 3f
       -0.577195405960083 0.315110981464386
0006e0 00 00 00 40 c9 c4 e8 3f 00 00 00 a0 db 92 e1 bf
       0.7740217447280884 -0.5491769909858704
0006f0 00 00 00 40 0b bc d2 3f 00 00 00 60 c9 a1 e9 3f
       0.2927272915840149 0.8009993433952332
000700 00 00 00 c0 00 b6 e0 bf 00 00 00 a0 32 d1 d1 3f
       -0.5222171545028687 0.278393417596817
000710 00 00 00 60 3d 36 ea 3f 00 00 00 00 94 0c e0 bf
       0.8191210627555847 -0.5015354156494141
000720 00 00 00 e0 f8 7f d0 3f 00 00 00 a0 02 e4 ea 3f
       0.2578108012676239 0.8403332829475403
000730 00 00 00 80 7f 84 de bf 00 00 00 00 f7 5f ce 3f
       -0.47683703899383545 0.23730361461639404
000740 00 00 00 80 c4 7f eb 3f 00 00 00 20 fa fd dc bf
       0.8593466281890869 -0.4530015289783478
000750 00 00 00 00 f9 c7 ca 3f 00 00 00 a0 6c 30 ec 3f
       0.20922768115997314 0.8809111714363098
000760 00 00 00 a0 60 2b db bf 00 00 00 80 9a 89 c7 3f
       -0.4245225489139557 0.1838868260383606
000770 00 00 00 80 5a c0 ec 3f 00 00 00 60 68 83 d9 bf
       0.8984806537628174 -0.3986454904079437
000780 00 00 00 00 5c ab c3 3f 00 00 00 60 86 53 ed 3f
       0.15366697311401367 0.9164459109306335
000790 00 00 00 40 83 a5 d7 bf 00 00 00 c0 5d 08 c0 3f
       -0.3694770932197571 0.12525531649589539
0007a0 00 00 00 60 48 cd ed 3f 00 00 00 80 96 e3 d5 bf
       0.931308925151825 -0.3420158624649048
0007b0 00 00 00 c0 d3 f4 b8 3f 00 00 00 40 4c 32 ee 3f
       0.09748576581478119 0.943639874458313
0007c0 00 00 00 40 1e 3e d4 bf 00 00 00 a0 7d 44 b2 3f
       -0.3162913918495178 0.07135758548974991
0007d0 00 00 00 c0 da 84 ee 3f 00 00 00 00 01 b2 d2 bf
       0.9537175893783569 -0.2921144962310791
0007e0 00 00 00 e0 50 31 a6 3f 00 00 00 20 2a cf ee 3f
       0.043345000594854355 0.9627886414527893
0007f0 00 00 00 60 8a 12 d1 bf 00 00 00 80 28 c5 92 3f
       -0.2667566239833832 0.018330223858356476

cebra_veldir_test f8 [1700, 3]
000000 00 00 00 60 b4 d3 e4 bf 00 00 00 80 79 66 ca bf
       -0.6508428454399109 -0.20625227689743042
000010 00 00 00 60 90 61 e7 3f 00 00 00 00 17 19 e5 bf
       0.7306596636772156 -0.6593127250671387
000020 00 00 00 20 16 49 c6 bf 00 00 00 c0 e5 67 e7 3f
       -0.1741054207086563 0.7314327955245972
000030 00 00 00 80 2e 60 e5 bf 00 00 00 a0 6a 65 c1 bf
       -0.6679909229278564 -0.13590748608112335
000040 00 00 00 40 b5 69 e7 3f 00 00 00 a0 4a ad e5 bf
       0.7316538095474243 -0.6774037480354309
000050 00 00 00 20 30 07 b6 bf 00 00 00 80 c2 60 e7 3f
       -0.08604717999696732 0.7305614948272705
000060 00 00 00 20 c7 eb e5 bf 00 00 00 40 e4 88 9f bf
       -0.6850314736366272 -0.030795637518167496
000070 00 00 00 00 a6 4a e7 3f 00 00 00 a0 a0 1d e6 bf
       0.7278623580932617 -0.6911166310310364
000080 00 00 00 60 5d 03 a4 3f 00 00 00 00 0c 18 e7 3f
       0.0390881709754467 0.7216854095458984
000090 00 00 00 a0 49 32 e6 bf 00 00 00 00 46 1a c0 3f
       -0.6936386227607727 0.12580180168151855
0000a0 00 00 00 a0 32 b2 e6 3f 00 00 00 a0 4e 03 e6 bf
       0.709252655506134 -0.6879037022590637
0000b0 00 00 00 c0 61 89 cd 3f 00 00 00 20 44 05 e6 3f
       0.2307550609111786 0.6881428360939026
0000c0 00 00 00 40 95 66 e5 bf 00 00 00 40 5b e0 d6 3f
       -0.6687723398208618 0.357443630695343
0000d0 00 00 00 a0 63 dc e4 3f 00 00 00 20 bf d6 e3 bf
       0.651902973651886 -0.6199641823768616
0000e0 00 00 00 80 f3 b7 e0 3f 00 00 00 c0 8a bb e2 3f
       0.5224549770355225 0.5853933095932007
0000f0 00 00 00 20 d9 42 e0 bf 00 00 00 20 d0 70 e7 3f
       -0.5081601738929749 0.732521116733551
000100 00 00 00 60 89 fd dc 3f 00 00 00 e0 4a 25 d3 bf
       0.4529746472835541 -0.29915115237236023
000110 00 00 00 e0 e0 a4 ed 3f 00 00 00 60 42 48 cd 3f
       0.9263767600059509 0.22876767814159393
000120 00 00 00 e0 3c d5 80 bf 00 00 00 60 30 ef ef 3f
       -0.0082192188128829 0.9979478716850281
000130 00 00 00 60 a0 41 b0 bf 00 00 00 40 7a dd d0 3f
       -0.06350138038396835 0.26351791620254517
000140 00 00 00 20 30 24 ed 3f 00 00 00 e0 2d 5d d4 bf
       0.9106674790382385 -0.3181872069835663
000150 00 00 00 c0 d1 44 dc 3f 00 00 00 e0 c3 51 e8 3f
       0.44170039892196655 0.759981095790863
000160 00 00 00 e0 bd 83 de bf 00 00 00 c0 82 ab e1 3f
       -0.4767908751964569 0.5521863698959351
000170 00 00 00 60 8b 9e e3 3f 00 00 00 c0 41 14 e2 bf
       0.6131035685539246 -0.5649727582931519
000180 00 00 00 20 cd ea e3 3f 00 00 00 60 65 00 df 3f
       0.6224122643470764 0.4843991696834564
000190 00 00 00 80 51 ac e3 bf 00 00 00 c0 6a 37 e5 3f
       -0.6147849559783936 0.6630147695541382
0001a0 00 00 00 c0 61 b1 d8 3f 00 00 00 40 57 87 e4 bf
       0.3858265280723572 -0.6415210962295532
0001b0 00 00 00 e0 da 10 e6 3f 00 00 00 20 2f ac d3 3f
       0.6895574927330017 0.30738428235054016
0001c0 00 00 00 00 03 fc e4 bf 00 00 00 a0 64 a5 e6 3f
       -0.6557631492614746 0.7076895833015442
0001d0 00 00 00 00 a5 e8 ce 3f 00 00 00 80 4c 3f e5 bf
       0.24147474765777588 -0.6639769077301025
0001e0 00 00 00 20 ad 1a e7 3f 00 00 00 20 f0 1b c7 3f
       0.7220063805580139 0.18054009974002838
0001f0 00 00 00 c0 91 5f e5 bf 00 00 00 e0 13 69 e7 3f
       -0.6679161787033081 0.7315768599510193
000200 00 00 00 e0 ff b7 c0 3f 00 00 00 40 83 69 e5 bf
       0.1306152194738388 -0.6691299676895142
000210 00 00 00 00 1d 9d e7 3f 00 00 00 20 94 e0 b6 3f
       0.7379288673400879 0.08936429768800735
000220 00 00 00 c0 eb 67 e5 bf 00 00 00 c0 49 ca e7 3f
       -0.6689356565475464 0.7434433698654175
000230 00 00 00 a0 08 99 a8 3f 00 00 00 80 a5 58 e5 bf
       0.048042554408311844 -0.6670711040496826
000240 00 00 00 60 a3 e5 e7 3f 00 00 00 20 83 95 8d 3f
       0.7467820048332214 0.014445328153669834
000250 00 00 00 60 f5 46 e5 bf 00 00 00 a0 db f8 e7 3f
       -0.6649119257926941 0.7491281628608704
000260 00 00 00 a0 e1 73 90 bf 00 00 00 80 fd 30 e5 bf
       -0.016067052260041237 -0.6622302532196045
000270 00 00 00 40 fb 03 e8 3f 00 00 00 20 4a bd a5 bf
       0.7504860162734985 -0.04245978966355324
000280 00 00 00 a0 cb 1a e5 bf 00 00 00 80 38 0a e8 3f
       -0.6595209240913391 0.7512476444244385
000290 00 00 00 e0 dc 26 b1 bf 00 00 00 80 f5 02 e5 bf
       -0.06699924916028976 -0.6566112041473389
0002a0 00 00 00 e0 3f 0d e8 3f 00 00 00 e0 8f 58 b7 bf
       0.7516173720359802 -0.09119509905576706
0002b0 00 00 00 40 8b e7 e4 bf 00 00 00 c0 f1 0b e8 3f
       -0.6532646417617798 0.7514580488204956
0002c0 00 00 00 a0 73 be bc bf 00 00 00 80 15 ce e4 bf
       -0.11228106170892715 -0.6501567363739014
0002d0 00 00 00 00 33 07 e8 3f 00 00 00 e0 b7 87 c0 bf
       0.7508788108825684 -0.12914179265499115
0002e0 00 00 00 20 e2 b9 e4 bf 00 00 00 e0 b5 00 e8 3f
       -0.6476908326148987 0.7500867247581482
0002f0 00 00 00 00 67 c9 c2 bf 00 00 00 00 97 a2 e4 bf
       -0.14677131175994873 -0.6448473930358887
000300 00 00 00 60 92 f8 e7 3f 00 00 00 e0 a3 bc c4 bf
       0.749093234539032 -0.16200684010982513
000310 00 00 00 c0 20 8e e4 bf 00 00 00 c0 a0 ef e7 3f
       -0.6423496007919312 0.7480014562606812
000320 00 00 00 40 76 cf c6 bf 00 00 00 60 59 75 e4 bf
       -0.17820623517036438 -0.6393248438835144
000330 00 00 00 80 04 e4 e7 3f 00 00 00 40 c3 fb c8 bf
       0.7465841770172119 -0.1951831877231598
000340 00 00 00 e0 3c 5a e4 bf 00 00 00 20 ce d5 e7 3f
       -0.6360153555870056 0.7448492646217346
000350 00 00 00 e0 4f c1 cb bf 00 00 00 c0 48 31 e4 bf
       -0.21683691442012787 -0.6310161352157593
000360 00 00 00 00 21 c7 e7 3f 00 00 00 20 6e 8c cd bf
       0.7430577278137207 -0.23084808886051178
000370 00 00 00 60 d1 19 e4 bf 00 00 00 a0 89 b3 e7 3f
       -0.6281515955924988 0.7406662106513977
000380 00 00 00 20 54 0c d0 bf 00 00 00 e0 4b f2 e3 bf
       -0.2507524788379669 -0.6233271956443787
000390 00 00 00 00 34 9b e7 3f 00 00 00 40 da 85 d1 bf
       0.7376956939697266 -0.2737947106361389
0003a0 00 00 00 c0 79 bf e3 bf 00 00 00 20 07 7e e7 3f
       -0.6171234846115112 0.7341342568397522
0003b0 00 00 00 e0 01 14 d3 bf 00 00 00 c0 b1 85 e3 bf
       -0.2980961501598358 -0.6100701093673706
0003c0 00 00 00 60 2c 5a e7 3f 00 00 00 60 f4 af d4 bf
       0.7297574877738953 -0.32323941588401794
0003d0 00 00 00 60 6f 47 e3 bf 00 00 00 80 22 26 e7 3f
       -0.6024700999259949 0.723405122756958
0003e0 00 00 00 80 f4 d3 d6 bf 00 00 00 c0 b5 ea e2 bf
       -0.35668671131134033 -0.5911511182785034
0003f0 00 00 00 40 53 e3 e6 3f 00 00 00 20 58 1c d9 bf
       0.7152496576309204 -0.3923549950122833
000400 00 00 00 e0 bf 81 e2 bf 00 00 00 80 70 8d e6 3f
       -0.5783385634422302 0.7047655582427979
000410 00 00 00 e0 e0 9e db bf 00 00 00 60 b1 04 e2 bf
       -0.43157216906547546 -0.5630728602409363
000420 00 00 00 20 7c 14 e6 3f 00 00 00 c0 b4 af de bf
       0.690000593662262 -0.4794742465019226
000430 00 00 00 e0 df 59 e1 bf 00 00 00 00 ea 7b e5 3f
       -0.5422210097312927 0.6713762283325195
000440 00 00 00 40 01 ee e0 bf 00 00 00 00 9d 9b e0 bf
       -0.5290533304214478 -0.5189957618713379
000450 00 00 00 20 4c a0 e4 3f 00 00 00 40 31 e7 e2 bf
       0.6445675492286682 -0.5907217264175415
000460 00 00 00 40 3e 10 df bf 00 00 00 a0 99 59 e3 3f
       -0.4853664040565491 0.604687511920929
000470 00 00 00 80 d3 4c e5 bf 00 00 00 60 dc fd db bf
       -0.66562819480896 -0.4373694360256195
000480 00 00 00 20 d0 70 e1 3f 00 00 00 c0 99 14 e8 bf
       0.545021116733551 -0.7525147199630737
000490 00 00 00 20 11 a9 d7 bf 00 00 00 00 85 56 dd 3f
       -0.3696940243244171 0.4584057331085205
0004a0 00 00 00 40 07 04 eb bf 00 00 00 a0 ea c5 d1 bf
       -0.844241738319397 -0.2777048647403717
0004b0 00 00 00 40 6d 05 d6 3f 00 00 00 20 c5 97 ed bf
       0.34408122301101685 -0.9247766137123108
0004c0 00 00 00 20 cc cb c4 bf 00 00 00 20 46 7e c8 3f
       -0.16246940195560455 0.19135357439517975
0004d0 00 00 00 20 70 67 ef bf 00 00 00 20 e7 3e 91 bf
       -0.9813767075538635 -0.016841517761349678
0004e0 00 00 00 e0 2c 64 9a 3f 00 00 00 c0 c1 b3 ef bf
       0.025772763416171074 -0.9906929731369019
0004f0 00 00 00 40 8c 1b c1 3f 00 00 00 20 cd 8c c1 bf
       0.1336531937122345 -0.1371094137430191
000500 00 00 00 20 65 77 ee bf 00 00 00 20 9c 7f d1 3f
       -0.9520745873451233 0.27341368794441223
000510 00 00 00 e0 f0 7b d1 bf 00 00 00 e0 79 33 ec bf
       -0.2731897532939911 -0.881283700466156
000520 00 00 00 e0 12 ae d8 3f 00 00 00 40 af 33 d8 bf
       0.38562461733818054 -0.37815457582473755
000530 00 00 00 00 ba 90 e9 bf 00 00 00 60 95 ee dd 3f
       -0.7989168167114258 0.4676869809627533
000540 00 00 00 e0 e4 29 dd bf 00 00 00 20 15 fb e6 bf
       -0.45568200945854187 -0.718149721622467
000550 00 00 00 e0 83 d4 e0 3f 00 00 00 60 14 56 e0 bf
       0.525941789150238 -0.5105077624320984
000560 00 00 00 e0 38 ba e4 bf 00 00 00 60 d3 18 e2 3f
       -0.6477321982383728 0.5655304789543152
000570 00 00 00 20 02 ae e1 bf 00 00 00 a0 cc b2 e2 bf
       -0.5524912476539612 -0.5843260884284973
000580 00 00 00 20 5c 05 e3 3f 00 00 00 20 f7 a4 e2 bf
       0.5944042801856995 -0.582637369632721
000590 00 00 00 60 71 04 e1 bf 00 00 00 00 c9 aa e3 3f
       -0.5317923426628113 0.6145977973937988
0005a0 00 00 00 40 d9 5d e3 bf 00 00 00 20 97 2f df bf
       -0.6052061319351196 -0.4872796833515167
0005b0 00 00 00 40 f4 24 e4 3f 00 00 00 80 79 f7 e3 bf
       0.6295109987258911 -0.6239593029022217
0005c0 00 00 00 00 04 95 dc bf 00 00 00 20 49 85 e4 3f
       -0.4465951919555664 0.6412702202796936
0005d0 00 00 00 80 9c 69 e4 bf 00 00 00 60 59 70 da bf
       -0.6378920078277588 -0.4131072461605072
0005e0 00 00 00 00 66 cc e4 3f 00 00 00 60 61 c0 e4 bf
       0.6499509811401367 -0.64848393201828
0005f0 00 00 00 c0 c0 a2 d8 bf 00 00 00 60 ef 03 e5 3f
       -0.3849336504936218 0.6567303538322449
000600 00 00 00 c0 a6 16 e5 bf 00 00 00 80 c6 c3 d6 bf
       -0.6590150594711304 -0.35569918155670166
000610 00 00 00 00 e0 34 e5 3f 00 00 00 00 f3 5e e5 bf
       0.6627044677734375 -0.6678404808044434
000620 00 00 00 40 a4 0f d5 bf 00 00 00 20 04 5d e5 3f
       -0.32907968759536743 0.6676045060157776
000630 00 00 00 a0 48 a3 e5 bf 00 00 00 40 8f 58 d3 bf
       -0.6761820912361145 -0.3022802472114563
000640 00 00 00 e0 ed 7f e5 3f 00 00 00 c0 25 f9 e5 bf
       0.6718663573265076 -0.6866635084152222
000650 00 00 00 e0 66 23 d1 bf 00 00 00 c0 a0 a0 e5 3f
       -0.2677857577800751 0.6758579015731812
000660 00 00 00 40 e5 4f e6 bf 00 00 00 20 92 67 cd bf
       -0.6972528696060181 -0.2297232300043106
000670 00 00 00 40 84 ba e5 3f 00 00 00 00 8f a2 e6 bf
       0.6790181398391724 -0.707343578338623
000680 00 00 00 80 6f 50 c8 bf 00 00 00 60 ad c9 e5 3f
       -0.1899546980857849 0.6808688044548035
000690 00 00 00 00 13 fd e6 bf 00 00 00 00 aa 00 c2 bf
       -0.7183928489685059 -0.14064526557922363
0006a0 00 00 00 a0 f9 cc e5 3f 00 00 00 20 b3 5d e7 bf
       0.6812713742256165 -0.7301879525184631
0006b0 00 00 00 a0 70 35 b4 bf 00 00 00 c0 ab b7 e5 3f
       -0.07894042879343033 0.6786707639694214
0006c0 00 00 00 00 80 af e7 bf 00 00 00 80 4e 85 82 bf
       -0.74017333984375 -0.009043324738740921
0006d0 00 00 00 60 ef 83 e5 3f 00 00 00 c0 34 f0 e7 bf
       0.6723553538322449 -0.7480720281600952
0006e0 00 00 00 60 91 b9 b4 3f 00 00 00 40 c0 13 e5 3f
       0.08095654100179672 0.6586610078811646
0006f0 00 00 00 c0 c3 fc e7 bf 00 00 00 00 2a 18 c8 3f
       -0.7496050596237183 0.18823742866516113
000700 00 00 00 a0 44 4e e4 3f 00 00 00 60 53 b1 e7 bf
       0.6345542073249817 -0.7403962016105652
000710 00 00 00 20 13 d9 d3 3f 00 00 00 20 52 15 e3 3f
       0.3101241886615753 0.5963526368141174
000720 00 00 00 a0 be ea e6 bf 00 00 00 c0 4e 28 dc 3f
       -0.7161553502082825 0.43996018171310425
000730 00 00 00 40 7f 56 e1 3f 00 00 00 a0 77 ae e5 bf
       0.5418087244033813 -0.67754727602005
000740 00 00 00 40 2e ee e1 3f 00 00 00 a0 7d 7d de 3f
       0.5603247880935669 0.47640934586524963
000750 00 00 00 80 6c 0f e4 bf 00 00 00 c0 d6 56 e5 3f
       -0.626882791519165 0.6668504476547241
000760 00 00 00 00 1d c9 d9 3f 00 00 00 60 9f 3f e2 bf
       0.40289998054504395 -0.5702664256095886
000770 00 00 00 80 eb 16 e8 3f 00 00 00 40 9e 0a d5 3f
       0.7527978420257568 0.3287730813026428
000780 00 00 00 e0 99 66 e0 bf 00 00 00 e0 04 34 ea 3f
       -0.5125245451927185 0.8188499808311462
000790 00 00 00 a0 aa 8a d0 3f 00 00 00 e0 a5 7c dd bf
       0.2584635317325592 -0.46073290705680847
0007a0 00 00 00 e0 f3 ae eb 3f 00 00 00 00 52 61 c9 3f
       0.8651065230369568 0.19828248023986816
0007b0 00 00 00 40 7f e4 da bf 00 00 00 80 e9 9e ec 3f
       -0.4201963543891907 0.8943984508514404
0007c0 00 00 00 60 cb 9d c3 3f 00 00 00 e0 ec 9a d8 bf
       0.1532530039548874 -0.3844558894634247
0007d0 00 00 00 a0 45 50 ed 3f 00 00 00 00 1c 3e bd 3f
       0.9160488247871399 0.11422896385192871
0007e0 00 00 00 00 f4 f4 d6 bf 00 00 00 a0 94 bd ed 3f
       -0.3587007522583008 0.9293921589851379
0007f0 00 00 00 a0 b7 43 b6 3f 00 00 00 00 d1 b6 d5 bf
       0.08697078377008438 -0.3392832279205322

continuous_index_train f8 [6700, 3]
000000 b5 f7 fa 37 e6 82 f5 bf 9a c8 fe 9c 11 71 17 c0
       -1.3444578348857992 -5.860418751765019
000010 00 00 00 00 00 00 00 00 aa e3 5b 6a 51 57 04 c0
       0.0 -2.542635756425132
000020 97 76 e4 4b cf f0 15 c0 00 00 00 00 00 00 00 00
       -5.485165773219385 0.0
000030 70 d5 b2 71 74 0a 00 c0 f1 91 ad 72 ee 13 f3 bf
       -2.0051049120617606 -1.1923660735711759
000040 00 00 00 00 00 00 00 00 7d 41 1d 35 16 e4 dd bf
       0.0 -0.4670463103002687
000050 bc 7d c9 f3 b9 c2 10 40 00 00 00 00 00 00 00 00
       4.190162476704639 0.0
000060 4a 87 d8 a7 dc 66 d8 3f f2 4b e0 f1 be ca 1f 40
       0.3812781943434983 7.9479940217161005
000070 00 00 00 00 00 00 00 00 60 af 7d 69 3e d2 07 40
       0.0 2.9776581040841137
000080 e6 38 24 00 40 25 23 40 00 00 00 00 00 00 00 00
       9.572753910466826 0.0
000090 f2 27 3f fd c6 80 1f 40 23 23 18 7b 41 ca 23 40
       7.875759083728541 9.895030829140131
0000a0 00 00 00 00 00 00 00 00 40 f1 8d ec 68 32 2a 40
       0.0 13.098456756903602
0000b0 b9 73 cd ef 39 d2 23 40 00 00 00 00 00 00 00 00
       9.910598272161097 0.0
0000c0 4a 38 27 41 b2 e6 32 40 b7 30 cc 41 8c b3 26 40
       18.901157447886625 11.350679451156209
0000d0 00 00 00 00 00 00 00 00 78 65 2c b2 41 17 39 40
       0.0 25.090846191252666
0000e0 a7 4b b0 f5 4c 9e 2d 40 00 00 00 00 00 00 00 00
       14.80918090607686 0.0
0000f0 82 6d 2f af c6 d4 3d 40 01 78 62 50 58 a3 33 40
       29.831156682089848 19.638066314735628
000100 00 00 00 00 00 00 00 00 04 fc 91 b6 90 f1 40 40
       0.0 33.88722879532
000110 c6 36 a5 c8 e0 de 39 40 00 00 00 00 00 00 00 00
       25.870617428145827 0.0
000120 16 e0 57 da 03 15 45 40 b1 38 a9 02 61 9b 40 40
       42.16418008127964 33.21389802229658
000130 00 00 00 00 00 00 00 00 f0 8e e1 89 3a dc 4c 40
       0.0 57.72053645623771
000140 85 69 44 35 c6 7d 45 40 00 00 00 00 00 00 00 00
       42.982611330418 0.0
000150 bf 56 f2 6c 40 fe 54 40 4c 3b 54 5b 36 5e 4c 40
       83.97268222490219 56.73603383648751
000160 00 00 00 00 00 00 00 00 b8 92 77 09 82 0d 5f 40
       0.0 124.21106182744086
000170 63 e1 95 e1 3c 77 52 40 00 00 00 00 00 00 00 00
       73.86309089314231 0.0
000180 cf 0f 68 80 10 85 65 40 47 36 c7 92 91 f7 56 40
       172.15826435398637 91.86826009229945
000190 00 00 00 00 00 00 00 00 be bb 99 26 22 cf 6b 40
       0.0 222.47291879678772
0001a0 52 cb eb 85 bc 86 5b 40 00 00 00 00 00 00 00 00
       110.1052565386465 0.0
0001b0 bb d0 8e 8b 59 c3 70 40 fa bb 1c 70 fb 7b 5f 40
       268.20936160838363 125.9372215538605
0001c0 00 00 00 00 00 00 00 00 65 c6 0c 07 30 40 73 40
       0.0 308.0117254733107
0001d0 89 f7 da c3 70 3f 61 40 00 00 00 00 00 00 00 00
       137.98251526610355 0.0
0001e0 d5 6e ab 2e 57 37 75 40 d0 b2 05 05 63 3a 62 40
       339.458784742031 145.82458735573755
0001f0 00 00 00 00 00 00 00 00 36 29 91 99 bc 28 77 40
       0.0 370.5460448904372
000200 03 9b 19 6e 04 ac 62 40 00 00 00 00 00 00 00 00
       149.3755407810314 0.0
000210 f6 d0 db 49 3c 3d 79 40 fd ab 64 51 3a 54 62 40
       403.82721887460445 146.6321188894507
000220 00 00 00 00 00 00 00 00 62 38 9b 5e e7 4d 7b 40
       0.0 436.8689867080012
000230 06 5d 68 ed 8e 1f 61 40 00 00 00 00 00 00 00 00
       136.98619718917342 0.0
000240 bb 2f 94 f5 92 29 7d 40 24 cb 69 94 9e 0d 5e 40
       466.59837873349505 120.2128039391651
000250 00 00 00 00 00 00 00 00 84 3a 62 53 e5 7b 7e 40
       0.0 487.7434877240232
000260 d1 0b 8f 8d 93 41 58 40 00 00 00 00 00 00 00 00
       97.02463091821052 0.0
000270 f2 c7 a8 78 13 3e 7f 40 6b 6d 46 b4 b5 93 51 40
       499.8797537415513 70.30796534421613
000280 00 00 00 00 00 00 00 00 27 bc e5 42 bb 93 7f 40
       0.0 505.23321809520934
000290 a8 c2 89 d5 0b eb 45 40 00 00 00 00 00 00 00 00
       43.83629864908772 0.0
0002a0 c8 9d b8 6f 3f 0b 80 40 63 38 83 ba de 0b 35 40
       513.4059748099471 21.0463673181879
0002b0 00 00 00 00 00 00 00 00 f5 41 cf fd cc 8a 80 40
       0.0 529.3500934783939
0002c0 12 ec 70 0a f7 6b 04 40 00 00 00 00 00 00 00 00
       2.5527172866545778 0.0
0002d0 0d 5d 0b a5 35 41 81 40 11 e9 3f 34 24 1f 2a c0
       552.1511937034389 -13.06082309036404
0002e0 00 00 00 00 00 00 00 00 70 53 1d fe 4a 05 82 40
       0.0 576.6616174975479
0002f0 1d b4 75 5e 5d 44 3b c0 00 00 00 00 00 00 00 00
       -27.26704969762442 0.0
000300 2b 91 fd 9a c2 b1 82 40 87 03 c1 44 ca 3f 45 c0
       598.2200221834113 -42.498360246891984
000310 00 00 00 00 00 00 00 00 16 8d 96 12 b0 fd 82 40
       0.0 607.7109729539686
000320 e9 95 06 cb a0 7a 4d c0 00 00 00 00 00 00 00 00
       -58.95803201505243 0.0
000330 3d d7 ed a1 e4 fd 82 40 69 8b 6e eb d5 04 53 c0
       607.7366369801817 -76.0755566196
000340 00 00 00 00 00 00 00 00 41 76 8e 1d a5 eb 82 40
       0.0 605.4556227807844
000350 5f 4a 12 80 51 65 57 c0 00 00 00 00 00 00 00 00
       -93.58309938226874 0.0
000360 75 d6 f2 1d 99 d7 82 40 ee af ba 01 04 5b 5b c0
       602.9497641536424 -109.4221195529096
000370 00 00 00 00 00 00 00 00 1c fe 7f 27 27 d8 82 40
       0.0 603.019118308966
000380 59 06 b4 6d 83 a6 5e c0 00 00 00 00 00 00 00 00
       -122.60177176075503 0.0
000390 04 cd 9f f9 90 f5 82 40 69 d8 be 63 59 ba 60 c0
       606.6957886204186 -133.82341182016833
0003a0 00 00 00 00 00 00 00 00 2c 95 81 74 b1 00 83 40
       0.0 608.0866479991578
0003b0 ce d0 f7 92 7b 25 62 c0 00 00 00 00 00 00 00 00
       -145.1713347282552 0.0
0003c0 11 98 90 54 07 05 83 40 ea e8 b4 b6 bf 72 63 c0
       608.6285792633445 -155.5859025510211
0003d0 00 00 00 00 00 00 00 00 80 84 d6 ff c0 0d 83 40
       0.0 609.7192379721819
0003e0 29 c4 bd 55 a6 c4 64 c0 00 00 00 00 00 00 00 00
       -166.14530455650063 0.0
0003f0 b2 ff a6 97 ef 2e 83 40 f7 30 4b 25 03 54 66 c0
       613.8669884726316 -178.625383993967
000400 00 00 00 00 00 00 00 00 ab 75 bd d3 32 45 83 40
       0.0 616.6498179246458
000410 56 5b 0d 15 23 e6 67 c0 00 00 00 00 00 00 00 00
       -191.19178249939677 0.0
000420 ca 4b 18 4d 39 4e 83 40 c8 81 06 26 35 61 69 c0
       617.7779790781144 -203.03773785849467
000430 00 00 00 00 00 00 00 00 be a7 66 bb c6 2f 83 40
       0.0 613.9720371265355
000440 fe 0b 8b f1 58 ef 6a c0 00 00 00 00 00 00 00 00
       -215.47960736425006 0.0
000450 06 5d 40 e4 41 a9 82 40 75 89 cf 1d ed 31 6c c0
       597.1571736362828 -225.56019487890777
000460 00 00 00 00 00 00 00 00 3e f8 22 0f 05 f1 81 40
       0.0 574.127470277024
000470 3c 28 8f b0 98 24 6d c0 00 00 00 00 00 00 00 00
       -233.14363887749084 0.0
000480 a2 20 c6 f8 33 16 81 40 48 f2 d7 7a 7b d9 6d c0
       546.7753768423756 -238.79632322480234
000490 00 00 00 00 00 00 00 00 0d 95 0b 9e 4d 46 80 40
       0.0 520.7878991036283
0004a0 36 d6 c9 31 14 68 6e c0 00 00 00 00 00 00 00 00
       -243.25246514722102 0.0
0004b0 0f e4 c2 af 6e 36 7f 40 23 68 d0 12 1e 06 6f c0
       499.4020230877804 -248.19117108063173
0004c0 00 00 00 00 00 00 00 00 86 48 43 84 27 4c 7e 40
       0.0 484.75964762003457
0004d0 b0 6d bd 32 37 00 70 c0 00 00 00 00 00 00 00 00
       -256.01347612376685 0.0
0004e0 d7 be ab 6a fa 94 7d 40 49 4b 7c 41 21 cc 70 c0
       473.31113688552927 -268.7581190924871
0004f0 00 00 00 00 00 00 00 00 c5 f3 90 55 64 ec 7c 40
       0.0 462.774495664806
000500 b0 ad 31 8f 8e c4 71 c0 00 00 00 00 00 00 00 00
       -284.28480452924396 0.0
000510 8a ce 25 ad c9 22 7c 40 ab b2 8e 02 b7 c7 72 c0
       450.174237392123 -300.4821801733148
000520 00 00 00 00 00 00 00 00 28 9a 0b 5f e1 1a 7b 40
       0.0 433.6800222829065
000530 bf 9a 55 d7 38 a9 73 c0 00 00 00 00 00 00 00 00
       -314.57637723387955 0.0
000540 a1 73 93 bd d5 9e 79 40 7c 84 3e 3f 83 13 74 c0
       409.9271827468711 -321.21954273625283
000550 00 00 00 00 00 00 00 00 1d 98 85 5f 2a d8 77 40
       0.0 381.5103450029872
000560 aa ae 6e f3 55 e8 73 c0 00 00 00 00 00 00 00 00
       -318.5209841083075 0.0
000570 1d c0 00 6c 90 f5 75 40 fc af 71 16 ec 52 73 c0
       351.3477592496218 -309.1826385918537
000580 00 00 00 00 00 00 00 00 2d 8f 72 d2 8a df 73 40
       0.0 317.971392104623
000590 90 e4 8c dc 17 85 72 c0 00 00 00 00 00 00 00 00
       -296.3183255675913 0.0
0005a0 9e bb ef 24 a4 f6 71 40 65 f9 8e cc 3c d4 71 c0
       287.41507428784996 -285.26484351968094
0005b0 00 00 00 00 00 00 00 00 49 4b 6f 47 8c 59 70 40
       0.0 261.59674781297923
0005c0 28 74 88 64 61 79 71 c0 00 00 00 00 00 00 00 00
       -279.5862775163864 0.0
0005d0 44 35 c4 cd 79 e9 6d 40 4e f8 fb 14 02 89 71 c0
       239.29611862489594 -280.5630082933975
0005e0 00 00 00 00 00 00 00 00 5c b5 65 b1 e3 74 6b 40
       0.0 219.65279455056123
0005f0 75 c8 a3 e7 b3 c6 71 c0 00 00 00 00 00 00 00 00
       -284.41892208078144 0.0
000600 90 c9 f9 e8 70 19 69 40 b6 2c 50 2a c9 01 72 c0
       200.7950329664859 -288.11161261862014
000610 00 00 00 00 00 00 00 00 aa a9 02 1b 38 76 66 40
       0.0 179.69434881706303
000620 28 c9 96 74 13 27 72 c0 00 00 00 00 00 00 00 00
       -290.44224985981646 0.0
000630 6d db ad bf 61 71 63 40 50 96 8d 28 1c 09 72 c0
       155.54318222004386 -288.5693746119259
000640 00 00 00 00 00 00 00 00 09 0d 89 b4 1f 40 60 40
       0.0 130.0038702656532
000650 d7 ba 89 40 b5 c8 71 c0 00 00 00 00 00 00 00 00
       -284.5442510013649 0.0
000660 d7 24 54 8a 54 72 5a 40 c8 47 54 e4 28 9a 71 c0
       105.78640993325403 -281.6349833767131
000670 00 00 00 00 00 00 00 00 17 ec f3 67 2c 6a 54 40
       0.0 81.65896033115892
000680 4a a0 b0 06 0c 7f 71 c0 00 00 00 00 00 00 00 00
       -279.9404360675295 0.0
000690 7c 5c e1 ca 4e f7 4e 40 5e 12 59 97 ec a5 71 c0
       61.93209205631226 -282.3702615241399
0006a0 00 00 00 00 00 00 00 00 a4 ab 0f d7 d4 44 47 40
       0.0 46.537745363856885
0006b0 93 8b 0e 76 96 16 72 c0 00 00 00 00 00 00 00 00
       -289.4117336815045 0.0
0006c0 45 7e 5f d2 5e 57 40 40 63 e5 60 a5 51 af 72 c0
       32.68258123076206 -298.9574331078531
0006d0 00 00 00 00 00 00 00 00 dc fd 51 b4 75 5c 34 40
       0.0 20.361171026246538
0006e0 67 35 26 02 13 44 73 c0 00 00 00 00 00 00 00 00
       -308.25464072156177 0.0
0006f0 5e b1 6d d9 b5 a1 21 40 95 f0 d8 f7 0c ab 73 c0
       8.815840525284042 -314.6906660532198
000700 00 00 00 00 00 00 00 00 dc 82 53 12 6a 9e 0c c0
       0.0 -3.577350752996024
000710 67 22 5b 23 7c bb 73 c0 00 00 00 00 00 00 00 00
       -315.7178071556031 0.0
000720 f5 7b 78 11 ad 0c 2e c0 7e f9 10 40 87 4a 73 c0
       -15.024757905919595 -308.6580200827665
000730 00 00 00 00 00 00 00 00 9c 9e 5c 67 a8 63 37 c0
       0.0 -23.389288387405585
000740 d7 32 13 8b e3 73 72 c0 00 00 00 00 00 00 00 00
       -295.2430525541253 0.0
000750 17 f9 e1 c6 23 4f 3c c0 cd 90 10 61 40 6b 71 c0
       -28.309139661950294 -278.70321756812046
000760 00 00 00 00 00 00 00 00 7d 20 92 bc fd 1c 40 c0
       0.0 -32.226493426657704
000770 63 e1 89 af b4 51 70 c0 00 00 00 00 00 00 00 00
       -261.10661271914995 0.0
000780 d4 22 af 9a a9 8c 41 c0 90 37 28 d6 0c bf 6e c0
       -35.09892591048779 -245.97031696181193
000790 00 00 00 00 00 00 00 00 f4 94 1f 74 ae a0 43 c0
       0.0 -39.25532390157778
0007a0 eb 9d 8e f1 36 50 6d c0 00 00 00 00 00 00 00 00
       -234.50670698027474 0.0
0007b0 78 5d 37 04 24 19 47 c0 f7 9d 7f 37 c8 22 6c c0
       -46.19641163543105 -225.08694052624898
0007c0 00 00 00 00 00 00 00 00 86 d8 42 a6 0b 83 4b c0
       0.0 -55.02379301322894
0007d0 de 99 4a 4a 4c e2 6a c0 00 00 00 00 00 00 00 00
       -215.07181276865498 0.0
0007e0 62 02 7e 6d b7 48 50 c0 9d 90 bb 25 08 6c 69 c0
       -65.13619553857419 -203.3759945548417
0007f0 00 00 00 00 00 00 00 00 1e 5c 57 83 8a 10 53 c0
       0.0 -76.25845416575655
