NeuroAI/Neural Embeddings Rank Aligning 3D latent dynamics with movements/NER/data_NER/Fig8/Supp_Cebra/Type_ curve-straight=[38]_parameters_5000itr_lr0.0001.npz (npz, 444844 bytes, 7 tensors)

train_loss_stable f4 [5000]
6.238324 6.238324 6.2383246 6.238324 6.2383237 6.2383237 6.2383237 6.2383237
6.2383237 6.2383237 6.2383237 6.2383237 6.238323 6.238323 6.2383237 6.2383237
6.238323 6.2383237 6.2383227 6.2383237 6.2383227 6.2383227 6.2383227 6.238322
6.2383223 6.2383223 6.238322 6.2383227 6.238322 6.238322 6.2383223 6.238322
6.238322 6.2383213 6.2383204 6.238321 6.23832 6.2383184 6.23832 6.2383194
6.238319 6.238319 6.2383194 6.2383184 6.2383175 6.238316 6.2383165 6.238316
6.238316 6.2383156 6.2383137 6.238315 6.238314 6.238313 6.238311 6.2383103
6.238309 6.238311 6.2383113 6.238308 6.238307 6.238302 6.2383013 6.238304
6.2383027 6.238299 6.2382975 6.2382927 6.2382936 6.2382894 6.2382917 6.2382874
6.2382836 6.2382774 6.2382836 6.23828 6.2382727 6.2382703 6.2382674 6.238265
6.2382593 6.2382617 6.238257 6.238254 6.238247 6.238247 6.238233 6.2382355
6.2382245 6.2382326 6.2382097 6.238195 6.2381988 6.238202 6.2381773 6.2381673
6.2381506 6.23815 6.238164 6.238155 6.2381144 6.2381063 6.238102 6.238099
6.238058 6.2380595 6.2380223 6.238065 6.2380257 6.2379646 6.237993 6.237937
6.2379165 6.23785 6.237856 6.237902 6.237812 6.2378507 6.2377872 6.237761
6.237656 6.2376895 6.237631 6.2375526 6.237528 6.237508 6.2375007 6.237365
6.237336 6.237326 6.2371345 6.2371507 6.237053 6.2369795 6.236821 6.2367244
6.2368364 6.236691 6.2364106 6.2365417 6.2362313 6.2361293 6.235929 6.2361007
6.235879 6.235465 6.2356224 6.235318 6.2354593 6.2350554 6.2347383 6.2343903
6.234587 6.2343183 6.2340264 6.233662 6.233559 6.23306 6.2325916 6.2323036
6.232079 6.2312174 6.2318025 6.2304883 6.230017 6.2301526 6.229403 6.2292266
6.227842 6.2273374 6.227597 6.22653 6.226471 6.2252197 6.2237906 6.22422
6.223446 6.2219715 6.220971 6.219385 6.218031 6.217664 6.215764 6.214441
6.2123404 6.2121224 6.2094417 6.2080207 6.2083635 6.2048206 6.2019114 6.1992655
6.198037 6.1991916 6.1954384 6.1935925 6.191316 6.1845813 6.1800694 6.177627
6.1750607 6.1705365 6.17357 6.165709 6.1707463 6.156551 6.1572022 6.14993
6.1307697 6.145169 6.1297426 6.12748 6.1402206 6.117425 6.1166787 6.1062207
6.0893745 6.0927033 6.0862966 6.0759916 6.068718 6.04334 6.034298 6.0309978
6.0406437 6.0220766 5.9964504 5.992748 5.985694 5.993978 5.980246 5.965187
5.949439 5.961643 5.937474 5.934611 5.981994 5.9412756 5.931378 5.947732
5.92608 5.913694 5.9003906 5.9066725 5.9184227 5.898206 5.902247 5.9064736
5.9369726 5.8967166 5.915458 5.9345255 5.919743 5.8746014 5.901319 5.953001
00000000: 5aa0 c740 5aa0 c740 5ba0 c740 5aa0 c740
00000010: 59a0 c740 59a0 c740 59a0 c740 59a0 c740
00000020: 59a0 c740 59a0 c740 59a0 c740 59a0 c740
00000030: 58a0 c740 58a0 c740 59a0 c740 59a0 c740
00000040: 58a0 c740 59a0 c740 57a0 c740 59a0 c740
00000050: 57a0 c740 57a0 c740 57a0 c740 55a0 c740
00000060: 56a0 c740 56a0 c740 55a0 c740 57a0 c740
00000070: 55a0 c740 55a0 c740 56a0 c740 55a0 c740
00000080: 55a0 c740 54a0 c740 52a0 c740 53a0 c740
00000090: 51a0 c740 4ea0 c740 51a0 c740 50a0 c740
000000a0: 4fa0 c740 4fa0 c740 50a0 c740 4ea0 c740
000000b0: 4ca0 c740 49a0 c740 4aa0 c740 49a0 c740
000000c0: 49a0 c740 48a0 c740 44a0 c740 47a0 c740
000000d0: 45a0 c740 43a0 c740 3ea0 c740 3da0 c740
000000e0: 3aa0 c740 3ea0 c740 3fa0 c740 38a0 c740
000000f0: 36a0 c740 2ca0 c740 2aa0 c740 30a0 c740
00000100: 2da0 c740 25a0 c740 22a0 c740 18a0 c740
00000110: 1aa0 c740 11a0 c740 16a0 c740 0da0 c740
00000120: 05a0 c740 f89f c740 05a0 c740 fd9f c740
00000130: ee9f c740 e99f c740 e39f c740 de9f c740
00000140: d29f c740 d79f c740 cd9f c740 c79f c740
00000150: b89f c740 b89f c740 9b9f c740 a09f c740
00000160: 899f c740 9a9f c740 6a9f c740 4b9f c740
00000170: 539f c740 5a9f c740 269f c740 119f c740
00000180: ee9e c740 ed9e c740 0a9f c740 f79e c740
00000190: a29e c740 919e c740 889e c740 829e c740
000001a0: 2c9e c740 2f9e c740 e19d c740 3a9e c740
000001b0: e89d c740 689d c740 a39d c740 2e9d c740
000001c0: 039d c740 789c c740 849c c740 e59c c740
000001d0: 289c c740 799c c740 f49b c740 bd9b c740
000001e0: e19a c740 279b c740 ac9a c740 089a c740
000001f0: d499 c740 aa99 c740 9b99 c740 7e98 c740
00000200: 4298 c740 2d98 c740 9b96 c740 bd96 c740
00000210: f095 c740 5695 c740 0a94 c740 3f93 c740
00000220: 2a94 c740 f992 c740 ad90 c740 c091 c740
00000230: 358f c740 5f8e c740 bb8c c740 238e c740
00000240: 528c c740 ee88 c740 388a c740 ba87 c740
00000250: e288 c740 9385 c740 fa82 c740 2080 c740
00000260: bd81 c740 897f c740 257d c740 297a c740
00000270: 5179 c740 3a75 c740 6471 c740 086f c740
00000280: 316d c740 2266 c740 ed6a c740 2960 c740
00000290: 4d5c c740 695d c740 4557 c740 d355 c740
000002a0: 7b4a c740 5946 c740 7a48 c740 bc3f c740
000002b0: 403f c740 0035 c740 4b29 c740 cf2c c740
000002c0: 7826 c740 641a c740 3212 c740 3405 c740
000002d0: 1cfa c640 1af7 c640 8ae7 c640 b3dc c640
000002e0: 7ecb c640 b5c9 c640 bfb3 c640 1ba8 c640
000002f0: eaaa c640 e48d c640 0f76 c640 6260 c640
00000300: 5256 c640 c75f c640 0841 c640 e931 c640
00000310: 431f c640 17e8 c540 21c3 c540 1faf c540
00000320: 199a c540 0975 c540 e38d c540 7d4d c540
00000330: c176 c540 7702 c540 cd07 c540 3acc c440
00000340: 442f c440 39a5 c440 da26 c440 5114 c440
00000350: b07c c440 f2c1 c340 d5bb c340 2966 c340
00000360: 28dc c240 6df7 c240 f1c2 c240 866e c240
00000370: f032 c240 0b63 c140 f818 c140 effd c040
00000380: f44c c140 dab4 c040 ece2 bf40 97c4 bf40
00000390: ce8a bf40 abce bf40 2d5e bf40 d0e2 be40
000003a0: ce61 be40 c8c5 be40 c9ff bd40 55e8 bd40
000003b0: 7f6c bf40 ee1e be40 d9cd bd40 d253 be40
000003c0: 73a2 bd40 fb3c bd40 00d0 bc40 7603 bd40
000003d0: b863 bd40 1bbe bc40 35df bc40 d501 bd40
000003e0: aefb bd40 e7b1 bc40 6f4b bd40 a2e7 bd40
000003f0: 896e bd40 bcfc bb40 9bd7 bc40 fc7e be40

cebra_veldir_train f8 [5200, 3]
-0.1107630506157875 0.695137083530426 -0.7102928757667542 -0.10376281291246414 0.7022830843925476 -0.7042951583862305 -0.09956079721450806 0.7106412649154663
-0.6964744329452515 -0.09622678905725479 0.7183712124824524 -0.6889725923538208 -0.09421199560165405 0.7275595664978027 -0.6795448660850525 -0.09523213654756546
0.7368385195732117 -0.6693279147148132 -0.10134322196245193 0.747491717338562 -0.6564949750900269 -0.11008807271718979 0.758328914642334 -0.6425090432167053
-0.12332642078399658 0.7696616649627686 -0.6264275312423706 -0.14272606372833252 0.7818487286567688 -0.606911838054657 -0.1665227711200714 0.7956312894821167
-0.5824439525604248 -0.19563627243041992 0.8092426657676697 -0.5539429187774658 -0.2340579479932785 0.8249290585517883 -0.5144986510276794 -0.27813756465911865
0.839413046836853 -0.4669317901134491 -0.3334770202636719 0.8511877059936523 -0.4053053557872772 -0.39747902750968933 0.8550293445587158 -0.33306944370269775
-0.46688902378082275 0.8519823551177979 -0.2369402050971985 -0.5432795882225037 0.8319708108901978 -0.11256930232048035 -0.6175685524940491 0.7858046889305115
0.033469002693891525 -0.678375244140625 0.7104836702346802 0.18713654577732086 -0.7141040563583374 0.6068064570426941 0.3490578830242157 -0.7200327515602112
0.48584237694740295 0.4954896569252014 -0.7028200030326843 0.3543524742126465 0.6168292760848999 -0.6655183434486389 0.23105968534946442 0.7097160816192627
-0.6139729619026184 0.1211969330906868 0.7799669504165649 -0.5649010539054871 0.030886933207511902 0.8245803713798523 -0.5126336216926575 -0.044194456189870834
0.8574693202972412 -0.4654867649078369 -0.11029445379972458 0.8781555891036987 -0.4185250997543335 -0.166192427277565 0.8928699493408203 -0.3748064637184143
-0.20656612515449524 0.9037979245185852 -0.3365946114063263 -0.23795536160469055 0.9110880494117737 -0.30157727003097534 -0.2625335454940796 0.9165844917297363
-0.2721104025840759 -0.2779102623462677 0.9212610721588135 -0.24404555559158325 -0.28874027729034424 0.9257811903953552 -0.21834653615951538 -0.291993111371994
0.9311631917953491 -0.19632276892662048 -0.2865809202194214 0.937725305557251 -0.1762002408504486 -0.2784397602081299 0.9441530108451843 -0.15873250365257263
-0.26196277141571045 0.9519345760345459 -0.14524807035923004 -0.23810160160064697 0.9603179693222046 -0.13432076573371887 -0.20636209845542908 0.9692124128341675
-0.12378791719675064 -0.1675446480512619 0.978062093257904 -0.11730340868234634 -0.11770505458116531 0.9860960841178894 -0.11393333971500397 -0.059169966727495193
0.9917247891426086 -0.112272709608078 0.002789752557873726 0.9936735033988953 -0.11297522485256195 0.07041200250387192 0.9910997748374939 -0.11916516721248627
0.13872790336608887 0.9831348657608032 -0.11954578012228012 0.21233998239040375 0.9698559045791626 -0.12646903097629547 0.2795599102973938 0.9517624974250793
-0.14067280292510986 0.34845981001853943 0.9267076253890991 -0.14655229449272156 0.4115236699581146 0.8995391726493835 -0.1586257666349411 0.46911463141441345
0.8687745928764343 -0.16840869188308716 0.5198803544044495 0.8374741077423096 -0.17681008577346802 0.5616394877433777 0.8082693219184875 -0.1794532686471939
0.6008191704750061 0.7789819240570068 -0.1883014589548111 0.6363120675086975 0.74809730052948 -0.1937352567911148 0.6670064330101013 0.7194227576255798
-0.1953287273645401 0.6957059502601624 0.6912595629692078 -0.19267229735851288 0.7235890626907349 0.6627942323684692 -0.1925036460161209 0.7498003840446472
0.6330416202545166 -0.18501126766204834 0.7764593362808228 0.6023967266082764 -0.17600592970848083 0.8008896112442017 0.5723614692687988 -0.157760888338089
0.8267693519592285 0.5399665832519531 -0.1372022032737732 0.8511745929718018 0.506633460521698 -0.10810545086860657 0.8798715472221375 0.4627518057823181
-0.07683787494897842 0.9048275351524353 0.4187876582145691 -0.037654612213373184 0.9268113970756531 0.3736344873905182 0.016115766018629074 0.9479143619537354
0.3181174397468567 0.06445341557264328 0.9618509411811829 0.26587313413619995 0.11823582649230957 0.9722237586975098 0.20199324190616608 0.1690005213022232
0.9783759117126465 0.11924537271261215 0.21939370036125183 0.9751481413841248 0.03086305782198906 0.2607666552066803 0.9635406136512756 -0.05991954728960991
0.29988911747932434 0.938854992389679 -0.1691678762435913 0.3246600031852722 0.9082353711128235 -0.2640160620212555 0.323382705450058 0.8685950040817261
-0.37545475363731384 0.3071223497390747 0.8253446817398071 -0.47379523515701294 0.27357274293899536 0.7846406698226929 -0.5563244819641113 0.2374064177274704
0.7402589321136475 -0.6290111541748047 0.19518239796161652 0.7045131325721741 -0.6823232769966125 0.1482638567686081 0.6784143447875977 -0.7195636630058289
0.10058937966823578 0.6530068516731262 -0.7506422400474548 0.06371230632066727 0.6424375772476196 -0.7636849880218506 0.030930114910006523 0.6351202130317688
-0.7717937231063843 -0.0011967407772317529 0.634903609752655 -0.7725905179977417 -0.032974161207675934 0.6379082798957825 -0.7694061994552612 -0.06226987764239311
00000000: 0000 00a0 f75a bcbf 0000 0020 903e e63f
00000010: 0000 0020 b8ba e6bf 0000 0020 3390 babf
00000020: 0000 0060 1a79 e63f 0000 0000 9689 e6bf
00000030: 0000 0000 d17c b9bf 0000 00c0 92bd e63f
00000040: 0000 00c0 8449 e6bf 0000 00a0 51a2 b8bf
00000050: 0000 00a0 e5fc e63f 0000 0040 100c e6bf
00000060: 0000 0000 471e b8bf 0000 0000 2b48 e73f
00000070: 0000 00e0 d4be e5bf 0000 0020 2261 b8bf
00000080: 0000 0060 2e94 e73f 0000 0060 226b e5bf
00000090: 0000 0020 a1f1 b9bf 0000 00c0 73eb e73f
000000a0: 0000 00c0 0102 e5bf 0000 0060 bb2e bcbf
000000b0: 0000 0000 3b44 e83f 0000 0020 6f8f e4bf
000000c0: 0000 0000 5292 bfbf 0000 0080 11a1 e83f
000000d0: 0000 00c0 b10b e4bf 0000 0000 d944 c2bf
000000e0: 0000 00a0 e704 e93f 0000 0060 d26b e3bf
000000f0: 0000 0040 9e50 c5bf 0000 00c0 cf75 e93f
00000100: 0000 0080 61a3 e2bf 0000 0000 9c0a c9bf
00000110: 0000 00e0 50e5 e93f 0000 0080 e6b9 e1bf
00000120: 0000 0060 9cf5 cdbf 0000 00a0 d165 ea3f
00000130: 0000 00e0 c576 e0bf 0000 0080 01cd d1bf
00000140: 0000 00c0 78dc ea3f 0000 00e0 35e2 ddbf
00000150: 0000 0000 b057 d5bf 0000 0000 ee3c eb3f
00000160: 0000 00e0 85f0 d9bf 0000 00e0 4b70 d9bf
00000170: 0000 0080 665c eb3f 0000 0080 0251 d5bf
00000180: 0000 0080 82e1 ddbf 0000 0080 7043 eb3f
00000190: 0000 0080 0e54 cebf 0000 00e0 8b62 e1bf
000001a0: 0000 0040 819f ea3f 0000 0080 57d1 bcbf
000001b0: 0000 0020 1fc3 e3bf 0000 00e0 4f25 e93f
000001c0: 0000 0060 d922 a13f 0000 0000 40b5 e5bf
000001d0: 0000 0040 48bc e63f 0000 0020 17f4 c73f
000001e0: 0000 00c0 f0d9 e6bf 0000 0060 f56a e33f
000001f0: 0000 00e0 f656 d63f 0000 0020 820a e7bf
00000200: 0000 00a0 0a18 df3f 0000 0040 1ab6 df3f
00000210: 0000 0060 807d e6bf 0000 0000 b6ad d63f
00000220: 0000 00c0 10bd e33f 0000 0020 ed4b e5bf
00000230: 0000 0020 5d93 cd3f 0000 0080 feb5 e63f
00000240: 0000 00a0 aaa5 e3bf 0000 0020 c306 bf3f
00000250: 0000 0040 7df5 e83f 0000 0060 ab13 e2bf
00000260: 0000 0000 d3a0 9f3f 0000 0060 f662 ea3f
00000270: 0000 00a0 7e67 e0bf 0000 00e0 a7a0 a6bf
00000280: 0000 0080 6370 eb3f 0000 0000 89ca ddbf
00000290: 0000 00e0 413c bcbf 0000 00c0 d919 ec3f
000002a0: 0000 0080 1dc9 dabf 0000 0020 cb45 c5bf
000002b0: 0000 0000 6492 ec3f 0000 0040 d4fc d7bf
000002c0: 0000 0040 c270 cabf 0000 00a0 e9eb ec3f
000002d0: 0000 0020 c48a d5bf 0000 0040 5275 cebf
000002e0: 0000 0020 a227 ed3f 0000 00c0 0a4d d3bf
000002f0: 0000 0080 59cd d0bf 0000 0000 a954 ed3f
00000300: 0000 00c0 416a d1bf 0000 0020 48c9 d1bf
00000310: 0000 0080 f87a ed3f 0000 0080 e23c cfbf
00000320: 0000 0080 b87a d2bf 0000 00e0 ff9f ed3f
00000330: 0000 0080 c7f2 cbbf 0000 00e0 03b0 d2bf
00000340: 0000 00c0 16cc ed3f 0000 00c0 1a21 c9bf
00000350: 0000 0080 5757 d2bf 0000 0080 d801 ee3f
00000360: 0000 00c0 ba8d c6bf 0000 0000 f5d1 d1bf
00000370: 0000 0060 8036 ee3f 0000 00c0 5851 c4bf
00000380: 0000 0080 ffc3 d0bf 0000 0080 3f76 ee3f
00000390: 0000 0020 7d97 c2bf 0000 0000 1d7a cebf
000003a0: 0000 00c0 ecba ee3f 0000 0040 6c31 c1bf
000003b0: 0000 00c0 126a cabf 0000 00c0 c903 ef3f
000003c0: 0000 00a0 90b0 bfbf 0000 0060 1a72 c5bf
000003d0: 0000 00e0 484c ef3f 0000 00a0 9807 bebf
000003e0: 0000 0020 eb21 bebf 0000 0060 198e ef3f
000003f0: 0000 0040 bc2a bdbf 0000 00a0 864b aebf
00000400: 0000 00a0 35bc ef3f 0000 0080 e7bd bcbf
00000410: 0000 0000 89da 663f 0000 0060 2ccc ef3f
00000420: 0000 00c0 f1eb bcbf 0000 0060 8506 b23f
00000430: 0000 00e0 16b7 ef3f 0000 00c0 9b81 bebf
00000440: 0000 0000 d6c1 c13f 0000 0040 d775 ef3f
00000450: 0000 0060 8d9a bebf 0000 00e0 f42d cb3f
00000460: 0000 0040 0f09 ef3f 0000 0020 2330 c0bf
00000470: 0000 0040 4fe4 d13f 0000 00a0 d674 ee3f
00000480: 0000 0000 9101 c2bf 0000 0060 2a4d d63f
00000490: 0000 00c0 96a7 ed3f 0000 00c0 39c2 c2bf
000004a0: 0000 0060 6756 da3f 0000 0060 06c9 ec3f
000004b0: 0000 0060 d94d c4bf 0000 0060 f905 de3f
000004c0: 0000 0060 00cd eb3f 0000 0080 6a8e c5bf
000004d0: 0000 0020 dca2 e03f 0000 0080 96cc ea3f
000004e0: 0000 0080 b6a1 c6bf 0000 0060 f3f8 e13f
000004f0: 0000 00a0 57dd e93f 0000 0020 53f8 c6bf
00000500: 0000 0020 e939 e33f 0000 0080 6bed e83f
00000510: 0000 0020 431a c8bf 0000 0020 ab5c e43f
00000520: 0000 00c0 69f0 e73f 0000 0020 51cc c8bf
00000530: 0000 00e0 1d58 e53f 0000 00e0 8205 e73f
00000540: 0000 0020 8800 c9bf 0000 0020 3943 e63f
00000550: 0000 0060 cc1e e63f 0000 0060 7ca9 c8bf
00000560: 0000 0040 a427 e73f 0000 0040 9c35 e53f
00000570: 0000 00a0 f5a3 c8bf 0000 0060 5dfe e73f
00000580: 0000 0080 e041 e43f 0000 0000 73ae c7bf
00000590: 0000 0040 c1d8 e83f 0000 0080 d546 e33f
000005a0: 0000 00c0 5c87 c6bf 0000 0040 e3a0 e93f
000005b0: 0000 0000 c950 e23f 0000 0040 8231 c4bf
000005c0: 0000 0000 e574 ea3f 0000 0000 6847 e13f
000005d0: 0000 0080 d78f c1bf 0000 0080 d23c eb3f
000005e0: 0000 0060 5736 e03f 0000 0080 ccac bbbf
000005f0: 0000 0060 e827 ec3f 0000 00c0 b99d dd3f
00000600: 0000 00a0 a5ab b3bf 0000 00e0 58f4 ec3f
00000610: 0000 00c0 6acd da3f 0000 0020 7747 a3bf
00000620: 0000 0060 70a8 ed3f 0000 00a0 a0e9 d73f
00000630: 0000 00c0 a680 903f 0000 0080 5055 ee3f
00000640: 0000 0040 095c d43f 0000 00e0 0480 b03f
00000650: 0000 00a0 7bc7 ee3f 0000 00c0 1004 d13f
00000660: 0000 0000 b444 be3f 0000 0000 751c ef3f
00000670: 0000 0020 eada c93f 0000 0020 cfa1 c53f
00000680: 0000 0000 db4e ef3f 0000 0060 dd86 be3f
00000690: 0000 00c0 1715 cc3f 0000 00e0 6934 ef3f
000006a0: 0000 00c0 909a 9f3f 0000 00a0 66b0 d03f
000006b0: 0000 0020 53d5 ee3f 0000 0060 c6ad aebf
000006c0: 0000 0020 6231 d33f 0000 00a0 190b ee3f
000006d0: 0000 0000 4ba7 c5bf 0000 00c0 3ac7 d43f
000006e0: 0000 00a0 4310 ed3f 0000 00a0 a3e5 d0bf
000006f0: 0000 0060 4db2 d43f 0000 00c0 87cb eb3f
00000700: 0000 0060 7307 d8bf 0000 0080 e4a7 d33f
00000710: 0000 0040 3969 ea3f 0000 0040 a952 debf
00000720: 0000 0040 3782 d13f 0000 00c0 c61b e93f
00000730: 0000 0000 69cd e1bf 0000 0060 5563 ce3f
00000740: 0000 0080 33b0 e73f 0000 0000 dc20 e4bf
00000750: 0000 00a0 bcfb c83f 0000 0020 5f8b e63f
00000760: 0000 00a0 97d5 e5bf 0000 0060 4ffa c23f
00000770: 0000 0000 92b5 e53f 0000 0060 aa06 e7bf
00000780: 0000 00c0 39c0 b93f 0000 00a0 6ee5 e43f
00000790: 0000 00e0 4205 e8bf 0000 0020 734f b03f
000007a0: 0000 0040 d98e e43f 0000 0080 1b70 e8bf
000007b0: 0000 00e0 24ac 9f3f 0000 00a0 e752 e43f
000007c0: 0000 00c0 88b2 e8bf 0000 00a0 7e9b 53bf
000007d0: 0000 0060 2151 e43f 0000 00c0 0fb9 e8bf
000007e0: 0000 0040 fde1 a0bf 0000 00a0 be69 e43f
000007f0: 0000 00c0 f99e e8bf 0000 0060 d6e1 afbf

cebra_veldir_test f8 [1400, 3]
-0.4954468011856079 0.3724311590194702 -0.7847467660903931 -0.4972376525402069 0.35416582226753235 -0.7920361161231995 -0.49851638078689575 0.33688226342201233
-0.7987438440322876 -0.5001676678657532 0.3201073706150055 -0.8045890927314758 -0.5040289163589478 0.30139923095703125 -0.8093907237052917 -0.5084366202354431
0.2836191952228546 -0.8130512237548828 -0.5138811469078064 0.2656066119670868 -0.8157079219818115 -0.5214727520942688 0.24579545855522156 -0.8170990347862244
-0.5305860638618469 0.22677814960479736 -0.8167312741279602 -0.5421290397644043 0.20670242607593536 -0.8144752979278564 -0.5564526915550232 0.18495839834213257
-0.8100313544273376 -0.5715004205703735 0.16236601769924164 -0.8043784499168396 -0.5899025201797485 0.1359785497188568 -0.7959427833557129 -0.6093665957450867
0.11059349775314331 -0.7851378917694092 -0.62985759973526 0.08305075764656067 -0.7722576856613159 -0.6535990238189697 0.05417654663324356 -0.7548995018005371
-0.6788795590400696 0.02156916819512844 -0.7339327335357666 -0.7059881091117859 -0.014129736460745335 -0.7080827355384827 -0.7331284284591675 -0.05060628056526184
-0.6782048344612122 -0.7616297006607056 -0.09304435551166534 -0.6412977576255798 -0.7886142730712891 -0.13639570772647858 -0.59956955909729 -0.8143767714500427
-0.17993111908435822 -0.5517383813858032 -0.8389082551002502 -0.2261531949043274 -0.49506324529647827 -0.8583967089653015 -0.27120357751846313 -0.43543511629104614
-0.8741552829742432 -0.3169686198234558 -0.3679448068141937 -0.8866267204284668 -0.3606407642364502 -0.28953611850738525 -0.8933107256889343 -0.395427405834198
-0.2136191874742508 -0.8952017426490784 -0.4241582453250885 -0.13676121830940247 -0.8934553265571594 -0.4450530409812927 -0.06054287403821945 -0.8887869715690613
-0.4580565094947815 0.015554198995232582 -0.8855178356170654 -0.4571038484573364 0.08315172791481018 -0.8822128176689148 -0.44790372252464294 0.1451990306377411
-0.8811426162719727 -0.42851993441581726 0.19989556074142456 -0.8812876343727112 -0.401396244764328 0.2494254857301712 -0.8885028958320618 -0.36153745651245117
0.2825833261013031 -0.8992756605148315 -0.3126916289329529 0.30582207441329956 -0.9125552773475647 -0.2589668929576874 0.3165106177330017 -0.9261037707328796
-0.20009401440620422 0.3198345899581909 -0.9395179748535156 -0.13712288439273834 0.3138524889945984 -0.9511430859565735 -0.07572177052497864 0.29932093620300293
-0.9614057540893555 -0.008722789585590363 0.27499592304229736 -0.965103268623352 0.05582985281944275 0.2558490037918091 -0.9672383069992065 0.11673375219106674
0.22544007003307343 -0.9650830626487732 0.17842507362365723 0.19177912175655365 -0.9588553309440613 0.23485080897808075 0.1595039814710617 -0.9495293498039246
0.28515899181365967 0.1306842863559723 -0.9368781447410583 0.33202630281448364 0.1096264198422432 -0.9227330088615417 0.37530723214149475 0.087796650826931
-0.9054447412490845 0.4180968105792999 0.07324555516242981 -0.8832987546920776 0.46452903747558594 0.06321452558040619 -0.8590992093086243 0.5085084438323975
0.058031924068927765 -0.830726146697998 0.5532657504081726 0.06157153099775314 -0.7963996529579163 0.600460946559906 0.0720708891749382 -0.7542992234230042
0.6506802439689636 0.08745256066322327 -0.7057719826698303 0.7002925872802734 0.10712683945894241 -0.6440496444702148 0.7558709979057312 0.1177247017621994
-0.5714113116264343 0.8090689778327942 0.13746468722820282 -0.48982253670692444 0.8573952317237854 0.15794721245765686 -0.39643579721450806 0.9022724032402039
0.1695384383201599 -0.2950286269187927 0.939383327960968 0.17469151318073273 -0.1844223290681839 0.9681856036186218 0.16913050413131714 -0.07571674138307571
0.9856175780296326 0.1510791778564453 0.03254340589046478 0.9924989342689514 0.11784224957227707 0.1317441314458847 0.9885351657867432 0.07376780360937119
0.22415494918823242 0.9744037389755249 0.017084700986742973 0.3041910231113434 0.9511796236038208 -0.05220228061079979 0.37507548928260803 0.9189030528068542
-0.12221109122037888 0.43121233582496643 0.8797531127929688 -0.20022563636302948 0.4731578528881073 0.8345823884010315 -0.28212404251098633 0.5036566853523254
0.7840255498886108 -0.3628137707710266 0.5218795537948608 0.7321653366088867 -0.437693327665329 0.5317573547363281 0.6796810030937195 -0.5052404999732971
0.5345510840415955 0.6289408802986145 -0.5645249485969543 0.531547486782074 0.5817922353744507 -0.6156095862388611 0.5240152478218079 0.538353443145752
-0.6599875688552856 0.5170767307281494 0.49848058819770813 -0.6958080530166626 0.508095920085907 0.46481457352638245 -0.7251110076904297 0.4983297288417816
0.435221791267395 -0.7498329281806946 0.49003979563713074 0.41009411215782166 -0.7692099213600159 0.48093166947364807 0.38970425724983215 -0.785388708114624
0.4709485173225403 0.3735557794570923 -0.7991642355918884 0.46469950675964355 0.3598654568195343 -0.8090433478355408 0.45568063855171204 0.3505057394504547
-0.818230390548706 0.4472326636314392 0.3449169993400574 -0.825236439704895 0.43821457028388977 0.34147220849990845 -0.8314834237098694 0.42921051383018494
00000000: 0000 0080 66b5 dfbf 0000 0080 e9d5 d73f
00000010: 0000 0040 a51c e9bf 0000 00e0 bdd2 dfbf
00000020: 0000 0020 a7aa d63f 0000 0020 5c58 e9bf
00000030: 0000 0040 b1e7 dfbf 0000 00a0 7a8f d53f
00000040: 0000 0040 4f8f e9bf 0000 00a0 5f01 e0bf
00000050: 0000 00a0 a37c d43f 0000 00a0 31bf e9bf
00000060: 0000 0040 0121 e0bf 0000 0000 204a d33f
00000070: 0000 0060 87e6 e9bf 0000 00e0 1c45 e0bf
00000080: 0000 0020 d126 d23f 0000 0000 8404 eabf
00000090: 0000 00e0 b671 e0bf 0000 00e0 b2ff d03f
000000a0: 0000 0080 471a eabf 0000 00a0 e7af e0bf
000000b0: 0000 00c0 3976 cf3f 0000 00e0 ac25 eabf
000000c0: 0000 00a0 8ffa e0bf 0000 0000 1107 cd3f
000000d0: 0000 00a0 a922 eabf 0000 0000 1f59 e1bf
000000e0: 0000 00a0 3975 ca3f 0000 0080 2e10 eabf
000000f0: 0000 00e0 75ce e1bf 0000 0080 b7ac c73f
00000100: 0000 00e0 c6eb e9bf 0000 0040 bb49 e2bf
00000110: 0000 00e0 68c8 c43f 0000 00e0 77bd e9bf
00000120: 0000 0040 7be0 e2bf 0000 00c0 be67 c13f
00000130: 0000 0000 5d78 e9bf 0000 0060 ee7f e3bf
00000140: 0000 0000 db4f bc3f 0000 0080 d91f e9bf
00000150: 0000 0020 cb27 e4bf 0000 0080 d042 b53f
00000160: 0000 00c0 55b6 e8bf 0000 0080 48ea e4bf
00000170: 0000 0040 07bd ab3f 0000 0000 2328 e8bf
00000180: 0000 00a0 61b9 e5bf 0000 0060 3a16 963f
00000190: 0000 0080 607c e7bf 0000 0060 7497 e6bf
000001a0: 0000 0020 0df0 8cbf 0000 0020 9da8 e6bf
000001b0: 0000 00c0 c975 e7bf 0000 0000 11e9 a9bf
000001c0: 0000 00a0 dab3 e5bf 0000 0040 455f e8bf
000001d0: 0000 0040 c1d1 b7bf 0000 00e0 8285 e4bf
000001e0: 0000 0000 543c e9bf 0000 0020 6a75 c1bf
000001f0: 0000 0080 ac2f e3bf 0000 00e0 5f0f eabf
00000200: 0000 00a0 fb07 c7bf 0000 0040 d7a7 e1bf
00000210: 0000 0020 56d8 eabf 0000 0080 96f2 ccbf
00000220: 0000 00c0 1daf dfbf 0000 0060 fc77 ebbf
00000230: 0000 0040 665b d1bf 0000 0040 2bde dbbf
00000240: 0000 0080 14f9 ebbf 0000 00c0 3649 d4bf
00000250: 0000 0060 688c d7bf 0000 0000 3f5f ecbf
00000260: 0000 0000 bd14 d7bf 0000 0080 c287 d2bf
00000270: 0000 0060 0096 ecbf 0000 00c0 ae4e d9bf
00000280: 0000 00a0 df57 cbbf 0000 0020 7ea5 ecbf
00000290: 0000 00a0 6825 dbbf 0000 0040 6481 c1bf
000002a0: 0000 00a0 2f97 ecbf 0000 00c0 bf7b dcbf
000002b0: 0000 00c0 79ff aebf 0000 0060 f170 ecbf
000002c0: 0000 0040 cc50 ddbf 0000 0040 e1da 8f3f
000002d0: 0000 0080 2956 ecbf 0000 0080 3041 ddbf
000002e0: 0000 0080 6e49 b53f 0000 0060 163b ecbf
000002f0: 0000 0060 74aa dcbf 0000 00c0 e195 c23f
00000300: 0000 0000 5232 ecbf 0000 00e0 de6c dbbf
00000310: 0000 0080 2d96 c93f 0000 0020 8233 ecbf
00000320: 0000 00e0 79b0 d9bf 0000 00a0 2ced cf3f
00000330: 0000 00a0 9d6e ecbf 0000 0000 6e23 d7bf
00000340: 0000 0060 d815 d23f 0000 00c0 ddc6 ecbf
00000350: 0000 00c0 2303 d4bf 0000 00c0 9692 d33f
00000360: 0000 0020 a733 edbf 0000 00e0 e992 d0bf
00000370: 0000 00c0 b541 d43f 0000 0060 a4a2 edbf
00000380: 0000 0040 ae9c c9bf 0000 0080 2b78 d43f
00000390: 0000 0000 8810 eebf 0000 0020 3e8d c1bf
000003a0: 0000 00c0 2816 d43f 0000 00a0 c36f eebf
000003b0: 0000 0080 8062 b3bf 0000 0000 1328 d33f
000003c0: 0000 0000 d6c3 eebf 0000 0000 41dd 81bf
000003d0: 0000 0080 8899 d13f 0000 0040 20e2 eebf
000003e0: 0000 0000 bb95 ac3f 0000 0080 d45f d03f
000003f0: 0000 00c0 9df3 eebf 0000 0060 43e2 bd3f
00000400: 0000 0060 38db cc3f 0000 00e0 f5e1 eebf
00000410: 0000 0000 a2d6 c63f 0000 00e0 378c c83f
00000420: 0000 0060 f1ae eebf 0000 0060 970f ce3f
00000430: 0000 0060 a06a c43f 0000 0060 8b62 eebf
00000440: 0000 0080 0b40 d23f 0000 0040 43ba c03f
00000450: 0000 00e0 e7fa edbf 0000 0040 eb3f d53f
00000460: 0000 0020 7a10 bc3f 0000 0060 0787 edbf
00000470: 0000 00a0 0805 d83f 0000 0060 d779 b63f
00000480: 0000 0040 67f9 ecbf 0000 0020 19c2 da3f
00000490: 0000 0080 38c0 b23f 0000 00c0 fb43 ecbf
000004a0: 0000 0000 d8ba dd3f 0000 00c0 d32e b03f
000004b0: 0000 00a0 bd7d ebbf 0000 0080 b345 e03f
000004c0: 0000 0040 5cb6 ad3f 0000 0000 4f95 eabf
000004d0: 0000 0060 5ab4 e13f 0000 00c0 4d86 af3f
000004e0: 0000 0020 1b7c e9bf 0000 00e0 f936 e33f
000004f0: 0000 00e0 3c73 b23f 0000 0020 3823 e8bf
00000500: 0000 0060 5fd2 e43f 0000 0080 4a63 b63f
00000510: 0000 0020 af95 e6bf 0000 0000 cc68 e63f
00000520: 0000 0020 aa6c bb3f 0000 0000 0e9c e4bf
00000530: 0000 0060 1830 e83f 0000 00c0 3423 be3f
00000540: 0000 0060 0049 e2bf 0000 00a0 e4e3 e93f
00000550: 0000 0060 7198 c13f 0000 00a0 4059 dfbf
00000560: 0000 0020 c86f eb3f 0000 0040 9d37 c43f
00000570: 0000 0040 345f d9bf 0000 0060 6adf ec3f
00000580: 0000 0080 6fb3 c53f 0000 00c0 bfe1 d2bf
00000590: 0000 00a0 6d0f ee3f 0000 00a0 4a5c c63f
000005a0: 0000 00a0 269b c7bf 0000 0060 60fb ee3f
000005b0: 0000 0080 11a6 c53f 0000 0020 2c62 b3bf
000005c0: 0000 00e0 2d8a ef3f 0000 0000 9056 c33f
000005d0: 0000 0080 87a9 a03f 0000 0020 8dc2 ef3f
000005e0: 0000 00e0 e82a be3f 0000 00e0 fddc c03f
000005f0: 0000 0080 14a2 ef3f 0000 0060 72e2 b23f
00000600: 0000 0000 1cb1 cc3f 0000 00c0 502e ef3f
00000610: 0000 00e0 a67e 913f 0000 00a0 dd77 d33f
00000620: 0000 0040 1070 ee3f 0000 00e0 41ba aabf
00000630: 0000 00a0 3c01 d83f 0000 0060 a767 ed3f
00000640: 0000 00e0 3949 bfbf 0000 00a0 fb98 db3f
00000650: 0000 0000 f026 ec3f 0000 0060 fea0 c9bf
00000660: 0000 00e0 3748 de3f 0000 0020 e6b4 ea3f
00000670: 0000 0000 520e d2bf 0000 00a0 f41d e03f
00000680: 0000 00c0 bc16 e93f 0000 0040 5738 d7bf
00000690: 0000 00c0 3cb3 e03f 0000 0000 e66d e73f
000006a0: 0000 00e0 2a03 dcbf 0000 0000 2804 e13f
000006b0: 0000 0060 f2bf e53f 0000 0020 ee2a e0bf
000006c0: 0000 00e0 0a1b e13f 0000 00a0 4820 e43f
000006d0: 0000 00a0 9610 e2bf 0000 00e0 6f02 e13f
000006e0: 0000 00c0 0a9e e23f 0000 00e0 12b3 e3bf
000006f0: 0000 00a0 bbc4 e03f 0000 0000 313a e13f
00000700: 0000 0040 9e1e e5bf 0000 0080 e48b e03f
00000710: 0000 0020 1be7 df3f 0000 0040 0f44 e6bf
00000720: 0000 0060 5242 e03f 0000 00a0 85bf dd3f
00000730: 0000 0000 1c34 e7bf 0000 0060 a2e4 df3f
00000740: 0000 0080 acda db3f 0000 00a0 a1fe e7bf
00000750: 0000 00e0 cf5c df3f 0000 0060 fb3e da3f
00000760: 0000 0020 5e9d e8bf 0000 00a0 95c7 de3f
00000770: 0000 0020 eaf0 d83f 0000 0080 e721 e9bf
00000780: 0000 0040 0524 de3f 0000 0080 56e8 d73f
00000790: 0000 00e0 c092 e9bf 0000 0000 a3bd dd3f
000007a0: 0000 0020 0908 d73f 0000 00e0 aee3 e9bf
000007b0: 0000 0020 df29 dd3f 0000 00a0 af6e d63f
000007c0: 0000 0080 f12e eabf 0000 00c0 759f dc3f
000007d0: 0000 00c0 1e13 d63f 0000 0040 5668 eabf
000007e0: 0000 0020 b50b dc3f 0000 0040 aeda d53f
000007f0: 0000 0020 839b eabf 0000 0060 2f78 db3f

continuous_index_train f8 [5200, 3]
-0.20203296992150296 2.979542359741227 0.0 1.484930917851921 5.42772396917347 0.0 1.964911117429242 6.693220787127331
0.0 0.6551045888561652 7.047998822326238 0.0 -1.95651988220369 6.8260951595294355 0.0 -4.926034319044242
7.623974468820471 0.0 -7.754772451566355 11.391977245410036 0.0 -8.557138358869159 16.499578797109134 0.0
-8.596857654492112 23.357063889582566 0.0 -10.19934901226366 31.05886757240677 0.0 -13.709085480197063 37.901026987249494
0.0 -17.71598561973952 43.69419988623045 0.0 -24.94497675205799 49.63576523432835 0.0 -34.391509205330465
57.74283874757868 0.0 -42.92959472919927 70.79488816261657 0.0 -50.64637115440863 89.52485375961851 0.0
-60.706588534156246 112.458646604202 0.0 -70.0121612748903 137.4318897856445 0.0 -85.6018777224113 162.5380782060908
0.0 -109.43743528043457 184.52814513724337 0.0 -142.1143133446633 202.20412383691536 0.0 -184.66449399139364
215.2894862560546 0.0 -235.20069206963964 223.68367337744633 0.0 -292.18731776894947 226.52941935893548 0.0
-354.3693247015408 222.45424897047374 0.0 -419.89353238691155 211.35077086125818 0.0 -485.7784431455356 194.25435126703528
0.0 -544.1100226729933 171.78098830291458 0.0 -592.5703287015377 147.88552384043248 0.0 -625.8924890350692
126.9429080708309 0.0 -640.0231389082114 109.75206870460778 0.0 -638.2712526306208 99.3662615462879 0.0
-625.9995015115134 95.87748518223825 0.0 -610.1716071142894 97.54035565300212 0.0 -596.5530543541166 103.68426635644813
0.0 -591.577904266026 113.16050831787322 0.0 -594.7089067901687 124.65226060534617 0.0 -601.0196769335092
135.69166148708297 0.0 -610.318104738605 144.1427271903257 0.0 -619.2233767060847 147.8776553826338 0.0
-620.3661332266369 145.0121533732545 0.0 -616.3530726074105 136.16800241833337 0.0 -607.7941461484648 121.6596904003868
0.0 -595.1250511253444 104.77153235603427 0.0 -583.253826162617 91.45059711561989 0.0 -572.1197482843884
85.02735510406532 0.0 -559.496939541267 86.91964302551291 0.0 -541.2838553110248 96.9145071380642 0.0
-516.2869493730561 112.47265083617218 0.0 -483.80813260572967 128.7423700745175 0.0 -445.36607406188745 141.64152619118806
0.0 -409.4994990028632 149.27690627627447 0.0 -380.2346958084902 150.97926803397087 0.0 -358.5825352336626
146.57736803347112 0.0 -348.5353199936148 139.0213424446986 0.0 -346.5626724317494 128.11317936963474 0.0
-347.958358553178 113.5828167096454 0.0 -348.2909751628859 95.9757660941352 0.0 -344.8952691888238 74.91940272712657
0.0 -334.92526998807756 52.77901578122528 0.0 -318.8788423180904 31.754476822308444 0.0 -301.11909776616363
14.260854492461766 0.0 -280.1380254425871 1.2863027650061516 0.0 -256.29744495196155 -9.039381842404364 0.0
-235.6989251106227 -18.371552694660018 0.0 -216.7948488990411 -27.62651612438449 0.0 -199.67810686105224 -36.69380715144182
0.0 -184.34613136922044 -44.10540682732752 0.0 -169.2049996489627 -48.7732548491054 0.0 -154.60660506159485
-50.6029334882467 0.0 -138.65342771732722 -49.77152820581267 0.0 -120.81135625560671 -48.54498131103614 0.0
-98.65109719743357 -48.478226173372455 0.0 -69.48415281406699 -50.01869573730871 0.0 -36.242068487184724 -52.18076759513616
0.0 -1.7806995372978667 -54.21072543798016 0.0 27.034857425192882 -54.896106073834936 0.0 43.065242915101024
-52.448809044420855 0.0 42.818535796252476 -45.76050856555158 0.0 29.36667137369633 -35.873258467997296 0.0
8.58366122518512 -22.473997664315217 0.0 -11.463654527406526 -7.5143834630268245 0.0 -23.769927372353077 7.5434874071455935
0.0 -26.5624607520333 20.859796014089085 0.0 -24.517659018907306 31.240941849434456 0.0 -20.86173513525424
00000000: db67 4363 37dc c9bf f714 014e 1ad6 0740
00000010: 0000 0000 0000 0000 68e4 0fec 46c2 f73f
00000020: ef42 ad45 fdb5 1540 0000 0000 0000 0000
00000030: 8f7c cea3 4670 ff3f 207a 86ab dbc5 1a40
00000040: 0000 0000 0000 0000 9f18 13e6 9df6 e43f
00000050: 038d 709a 2631 1c40 0000 0000 0000 0000
00000060: 319e c0ca e74d ffbf 5640 b6e3 eb4d 1b40
00000070: 0000 0000 0000 0000 1913 2d57 42b4 13c0
00000080: d87d c429 f37e 1e40 0000 0000 0000 0000
00000090: d298 cd11 e304 1fc0 e29f d33d b1c8 2640
000000a0: 0000 0000 0000 0000 5b61 2d3d 411d 21c0
000000b0: d75b 6365 e47f 3040 0000 0000 0000 0000
000000c0: 60d2 9453 9731 21c0 f556 008a 685b 3740
000000d0: 0000 0000 0000 0000 1c53 e012 1166 24c0
000000e0: 3048 faf1 110f 3f40 0000 0000 0000 0000
000000f0: 9907 8740 0d6b 2bc0 6686 31da 54f3 4240
00000100: 0000 0000 0000 0000 0230 65d5 4ab7 31c0
00000110: 941f b88a dbd8 4540 0000 0000 0000 0000
00000120: c291 15ff e9f1 38c0 e1af 54c1 60d1 4840
00000130: 0000 0000 0000 0000 187d 40f9 1c32 41c0
00000140: a986 0f57 15df 4c40 0000 0000 0000 0000
00000150: f138 c8f5 fc76 45c0 9b9a 9972 dfb2 5140
00000160: 0000 0000 0000 0000 a4a1 3c4a bc52 49c0
00000170: a02f 3934 9761 5640 0000 0000 0000 0000
00000180: fff6 3a7e 715a 4ec0 055e 4977 5a1d 5c40
00000190: 0000 0000 0000 0000 9e7b 1540 c780 51c0
000001a0: 3a1a 870a d22d 6140 0000 0000 0000 0000
000001b0: a47c 232a 8566 55c0 363b c9ef 3751 6440
000001c0: 0000 0000 0000 0000 51e5 8bf0 fe5b 5bc0
000001d0: 0e80 a190 e610 6740 0000 0000 0000 0000
000001e0: 689a 7574 a8c3 61c0 567c b62e 8846 6940
000001f0: 0000 0000 0000 0000 932d e788 4315 67c0
00000200: ac4c ae78 43e9 6a40 0000 0000 0000 0000
00000210: 6775 c611 6c66 6dc0 e4a8 fda6 e0f5 6b40
00000220: 0000 0000 0000 0000 90b9 ea40 ff42 72c0
00000230: e90f de00 f150 6c40 0000 0000 0000 0000
00000240: 90ab 04c1 e825 76c0 a50d 2335 89ce 6b40
00000250: 0000 0000 0000 0000 3bbb 9de8 4b3e 7ac0
00000260: cc2f d083 396b 6a40 0000 0000 0000 0000
00000270: efbd cc80 745c 7ec0 9bb3 44a5 2348 6840
00000280: 0000 0000 0000 0000 9932 9153 e100 81c0
00000290: 7472 2edb fd78 6540 0000 0000 0000 0000
000002a0: 9988 7e08 9084 82c0 8ccf 1736 567c 6240
000002b0: 0000 0000 0000 0000 498d 4ad1 238f 83c0
000002c0: 9ad6 179b 58bc 5f40 0000 0000 0000 0000
000002d0: 44b0 7363 2f00 84c0 aca8 c6e4 2170 5b40
000002e0: 0000 0000 0000 0000 c3cb 7f86 2bf2 83c0
000002f0: b1c5 44d4 70d7 5840 0000 0000 0000 0000
00000300: 0502 a6fa fe8f 83c0 061c 9cb7 28f8 5740
00000310: 0000 0000 0000 0000 12fd 8c73 5f11 83c0
00000320: 9576 e02f 9562 5840 0000 0000 0000 0000
00000330: bbde c2a7 6ca4 82c0 a9ac 1d05 cbeb 5940
00000340: 0000 0000 0000 0000 6896 458c 9f7c 82c0
00000350: 1800 aec4 454a 5c40 0000 0000 0000 0000
00000360: 7fbd 52d7 ab95 82c0 951b 44a3 be29 5f40
00000370: 0000 0000 0000 0000 434f 614c 28c8 82c0
00000380: 925d 4517 22f6 6040 0000 0000 0000 0000
00000390: 1748 7f7a 8b12 83c0 5dd6 9c38 9104 6240
000003a0: 0000 0000 0000 0000 93fa b979 c959 83c0
000003b0: 42b2 bdc0 157c 6240 0000 0000 0000 0000
000003c0: 13d3 41d7 ed62 83c0 4195 788f 6320 6240
000003d0: 0000 0000 0000 0000 882f bb17 d342 83c0
000003e0: 818c 9b46 6005 6140 0000 0000 0000 0000
000003f0: 35bf 4b69 5afe 82c0 5fc9 155e 386a 5e40
00000400: 0000 0000 0000 0000 75ed cd1a 0099 82c0
00000410: 463e 3fc9 6031 5a40 0000 0000 0000 0000
00000420: 79da 02d6 073a 82c0 99d0 4895 d6dc 5640
00000430: 0000 0000 0000 0000 9aa9 963e f5e0 81c0
00000440: b655 9f2f c041 5540 0000 0000 0000 0000
00000450: a62e 70bb f97b 81c0 a3a4 6b6e dbba 5540
00000460: 0000 0000 0000 0000 2eed ee55 45ea 80c0
00000470: 6f7c f248 873a 5840 0000 0000 0000 0000
00000480: 12e7 1cac 4b22 80c0 57f2 4ae9 3f1e 5c40
00000490: 0000 0000 0000 0000 0b87 741c ee3c 7ec0
000004a0: 9ef2 e27e c117 6040 0000 0000 0000 0000
000004b0: 87bb 7970 dbd5 7bc0 c455 ef61 87b4 6140
000004c0: 0000 0000 0000 0000 ea9a aaf2 fd97 79c0
000004d0: fe14 8d6a dca8 6240 0000 0000 0000 0000
000004e0: 945f 6450 c1c3 77c0 8a7d ea29 56df 6240
000004f0: 0000 0000 0000 0000 9415 7710 5269 76c0
00000500: 75b0 86cc 7952 6240 0000 0000 0000 0000
00000510: 8797 b2ab 90c8 75c0 e9bf 59d6 ae60 6140
00000520: 0000 0000 0000 0000 97cb ceb4 00a9 75c0
00000530: 3865 572a 9f03 6040 0000 0000 0000 0000
00000540: dd3b c76f 55bf 75c0 51df 74de 4c65 5c40
00000550: 0000 0000 0000 0000 b188 92d5 a7c4 75c0
00000560: ceb6 a1f3 72fe 5740 0000 0000 0000 0000
00000570: d6f1 c805 538e 75c0 2837 897e d7ba 5240
00000580: 0000 0000 0000 0000 372c e7e7 cdee 74c0
00000590: 1ab7 03ca b663 4a40 0000 0000 0000 0000
000005a0: a068 f6bc 0fee 73c0 9f67 9d64 25c1 3f40
000005b0: 0000 0000 0000 0000 312b 0fd3 e7d1 72c0
000005c0: a346 54b8 8e85 2c40 0000 0000 0000 0000
000005d0: d79e 2a5a 3582 71c0 ef4a 4735 b294 f43f
000005e0: 0000 0000 0000 0000 9050 a355 c204 70c0
000005f0: ae5d 5adb 2914 22c0 0000 0000 0000 0000
00000600: 498f 3198 5d76 6dc0 324e d013 1e5f 32c0
00000610: 0000 0000 0000 0000 9554 f566 6f19 6bc0
00000620: e7a5 585c 63a0 3bc0 0000 0000 0000 0000
00000630: 34ed 280d b3f5 68c0 3696 38ac ce58 42c0
00000640: 0000 0000 0000 0000 7ddd 1782 130b 67c0
00000650: cb12 8ef8 7d0d 46c0 0000 0000 0000 0000
00000660: 907f 6c5b 8f26 65c0 c830 d003 fa62 48c0
00000670: 0000 0000 0000 0000 6aa4 044f 6953 63c0
00000680: 65d7 aeec 2c4d 49c0 0000 0000 0000 0000
00000690: 0d87 3ee1 e854 61c0 18f4 ad6f c1e2 48c0
000006a0: 0000 0000 0000 0000 18cf c942 ed33 5ec0
000006b0: 6cea 95f2 c145 48c0 0000 0000 0000 0000
000006c0: a55f 9493 aba9 58c0 eb5c e783 363d 48c0
000006d0: 0000 0000 0000 0000 c8ab 155c fc5e 51c0
000006e0: 6328 369f 6402 49c0 0000 0000 0000 0000
000006f0: e0ec a519 fc1e 42c0 a8a4 7e64 2317 4ac0
00000700: 0000 0000 0000 0000 8f25 4bcc be7d fcbf
00000710: b047 180d f91a 4bc0 0000 0000 0000 0000
00000720: e839 8d6a ec08 3b40 1b6f 949a b372 4bc0
00000730: 0000 0000 0000 0000 ca53 3de1 5988 4540
00000740: e2f7 2393 7239 4ac0 0000 0000 0000 0000
00000750: 3ec1 edc7 c568 4540 9baf 3c58 58e1 46c0
00000760: 0000 0000 0000 0000 b767 d62c de5d 3d40
00000770: 7180 f8ee c6ef 41c0 0000 0000 0000 0000
00000780: 0d3a e4a4 d52a 2140 3f9d 32e9 5779 36c0
00000790: 0000 0000 0000 0000 ecb4 4f20 64ed 26c0
000007a0: b836 dd89 ba0e 1ec0 0000 0000 0000 0000
000007b0: 3b8d d4f5 19c5 37c0 a3e9 7df6 872c 1e40
000007c0: 0000 0000 0000 0000 3f44 876d fd8f 3ac0
000007d0: 68be 7197 1bdc 3440 0000 0000 0000 0000
000007e0: b3af 2c4d 8584 38c0 0a8f 735d ae3d 3f40
000007f0: 0000 0000 0000 0000 29bb 7fac 9adc 34c0

continuous_index_test f8 [1400, 3]
6.899733520648189 6.09173117787287 0.0 6.100981895010876 6.757157585363231 0.0 5.004060013785816 8.92338019119116
0.0 4.202796934668567 11.18748215588339 0.0 4.382161913754327 14.338700189366627 0.0 5.256346051369056
17.923176048344555 0.0 5.935653127918291 20.92033417393227 0.0 6.320188241246699 23.158139013456914 0.0
6.991391797000168 27.82529207949739 0.0 9.65823836719244 35.843252701476615 0.0 16.232911555804403 49.605306606812185
0.0 27.50604487474804 71.24425711004402 0.0 41.32952832926658 98.21933940906325 0.0 56.32870415848614
127.10720747964082 0.0 68.98693610151803 155.4208795672158 0.0 76.78304022100866 182.10018486136386 0.0
80.43623050816055 206.19684282918973 0.0 80.56591721649296 227.4354097380423 0.0 77.96203191195944 249.0208218230336
0.0 74.48952098419839 268.2714324493476 0.0 71.35982995795896 285.08063183247043 0.0 66.70142483054555
302.5521286333888 0.0 58.87213243504861 318.10921106806535 0.0 47.49487070139864 332.62212034914 0.0
31.84069852818375 348.2634738194328 0.0 12.499169748653392 367.74992230291997 0.0 -9.043586980791067 391.6983281232774
0.0 -30.008891682875646 421.9461452517841 0.0 -51.76516975173211 459.856319780253 0.0 -73.10752086080943
499.55839025991116 0.0 -95.12075429786195 537.1705941893387 0.0 -120.13969206790325 571.257660930263 0.0
-145.63885427325377 594.0452146927602 0.0 -169.48209381946367 607.1944248754015 0.0 -190.3894468601896 613.98613948934
0.0 -210.66483723637586 617.8095027161687 0.0 -230.96696909103179 624.4424273754059 0.0 -253.56921468573117
637.7895069925872 0.0 -282.60347812659995 656.1534715430255 0.0 -313.4631924901313 673.3596863139647 0.0
-343.1643136343546 684.543254611989 0.0 -372.02742429145627 687.1284549251505 0.0 -393.66814029882244 675.9205317806516
0.0 -409.115514106365 655.1372487200423 0.0 -420.9379794905874 630.9061058370522 0.0 -435.96862513858804
604.3865926558688 0.0 -454.03615076612687 580.5433797111383 0.0 -483.9592866045737 562.2564128515917 0.0
-522.5397340806167 545.2810259280276 0.0 -562.8574605432509 526.3536309925985 0.0 -597.9611924916435 502.47435934793566
0.0 -621.7853898483598 470.9719280480499 0.0 -634.0089854919376 430.62801522208724 0.0 -638.9513012530558
385.5798960158784 0.0 -647.4953413225094 340.9900964773854 0.0 -660.9826371057707 294.7189455260391 0.0
-678.825771632699 252.53778085886537 0.0 -692.9788997089742 215.7243540344995 0.0 -696.2270627814021 179.10170699196217
0.0 -682.2292521600348 143.36364118104504 0.0 -656.987196214839 107.69652554708237 0.0 -630.2624506512694
68.45200986793853 0.0 -606.8881649770857 28.075192903989684 0.0 -590.7588045781476 -11.110302032430807 0.0
-582.7530802575963 -47.96366657734908 0.0 -574.3489178062881 -87.36291706286403 0.0 -566.0390103979014 -126.52172531818401
0.0 -557.6027521346275 -167.3665941635409 0.0 -550.2440826222767 -212.41959454962037 0.0 -538.8790534418818
-257.28672980544326 0.0 -523.1586429711313 -299.35063118749997 0.0 -499.33568253018353 -339.0726630228882 0.0
-462.54920550701195 -370.6529023365065 0.0 -421.9322646174409 -394.08222571343265 0.0 -380.7661325252443 -411.21208343412997
0.0 -345.1468418639365 -425.9251415672969 0.0 -318.492594456327 -439.9395764185806 0.0 -301.1570973730824
-456.9101092773963 0.0 -287.87333192697525 -477.1080196407466 0.0 -276.5791806214892 -496.00811676467606 0.0
-264.3654615230609 -509.565573620287 0.0 -249.4735247657176 -516.3726426561593 0.0 -230.8332212359441 -511.2423763784511
0.0 -210.35619769348105 -495.1799976857039 0.0 -189.51357800560763 -474.007899142815 0.0 -165.56105055425584
00000000: 1632 79be 5399 1b40 3df3 23c7 ee5d 1840
00000010: 0000 0000 0000 0000 413d 42cc 6767 1840
00000020: b036 6c51 5407 1b40 0000 0000 0000 0000
00000030: beb9 e94e 2804 1440 6ae1 d549 c5d8 2140
00000040: 0000 0000 0000 0000 ad85 e8ff a9cf 1040
00000050: 9a34 40a9 fd5f 2640 0000 0000 0000 0000
00000060: 0c68 e573 5587 1140 14f5 781c 6aad 2c40
00000070: 0000 0000 0000 0000 f75a 4c94 7f06 1540
00000080: 2317 f843 55ec 3140 0000 0000 0000 0000
00000090: 963c 83da 1bbe 1740 276e 3a05 9beb 3440
000000a0: 0000 0000 0000 0000 92df 226d df47 1940
000000b0: e704 63cc 7b28 3740 0000 0000 0000 0000
000000c0: b78d 4669 2ff7 1b40 d116 7b57 46d3 3b40
000000d0: 0000 0000 0000 0000 c120 889e 0451 2340
000000e0: 888d 5bb4 efeb 4140 0000 0000 0000 0000
000000f0: 570a 7b17 a03b 3040 d127 d8af 7acd 4840
00000100: 0000 0000 0000 0000 eb59 2b28 8c81 3b40
00000110: 17dd 92e8 a1cf 5140 0000 0000 0000 0000
00000120: 1aa7 fafb 2daa 4440 a429 29a8 098e 5840
00000130: 0000 0000 0000 0000 eb60 55fa 122a 4c40
00000140: 69bc c27c dcc6 5f40 0000 0000 0000 0000
00000150: bfd0 09f6 293f 5140 e317 6dd8 776d 6340
00000160: 0000 0000 0000 0000 d42b bb54 1d32 5340
00000170: 96e3 e1b6 34c3 6640 0000 0000 0000 0000
00000180: 4a84 5d33 eb1b 5440 4e3a 5589 4cc6 6940
00000190: 0000 0000 0000 0000 2945 d8fc 3724 5440
000001a0: 0d28 67e0 ee6d 6c40 0000 0000 0000 0000
000001b0: bfe4 4bee 917d 5340 1e1f 8792 aa20 6f40
000001c0: 0000 0000 0000 0000 9f75 d24f 549f 5240
000001d0: 5750 8dc9 57c4 7040 0000 0000 0000 0000
000001e0: 8263 3b74 07d7 5140 a2b7 9a44 4ad1 7140
000001f0: 0000 0000 0000 0000 e9f2 f824 e4ac 5040
00000200: 7179 d584 d5e8 7240 0000 0000 0000 0000
00000210: 4628 1f09 a26f 4d40 3bdb 1a54 bfe1 7340
00000220: 0000 0000 0000 0000 bc20 53ec 57bf 4740
00000230: b89b 7734 f4c9 7440 0000 0000 0000 0000
00000240: 3458 cc04 38d7 3f40 0fdd 5230 37c4 7540
00000250: 0000 0000 0000 0000 db3c 632d 93ff 2840
00000260: 5159 87ae fffb 7640 0000 0000 0000 0000
00000270: db0e 6208 5116 22c0 a835 1c5a 2c7b 7840
00000280: 0000 0000 0000 0000 4528 afb9 4602 3ec0
00000290: db1a 3469 235f 7a40 0000 0000 0000 0000
000002a0: f7c9 1915 f1e1 49c0 acb1 5e7c b3bd 7c40
000002b0: 0000 0000 0000 0000 1d34 2d9f e146 52c0
000002c0: 930b a02a ef38 7f40 0000 0000 0000 0000
000002d0: c90a 3c70 bac7 57c0 c780 7c60 5dc9 8040
000002e0: 0000 0000 0000 0000 edc9 ffb6 f008 5ec0
000002f0: 7ea7 88b0 0fda 8140 0000 0000 0000 0000
00000300: 1d51 847e 7134 62c0 a155 8599 5c90 8240
00000310: 0000 0000 0000 0000 6886 0450 6d2f 65c0
00000320: 070b a12e 8ef9 8240 0000 0000 0000 0000
00000330: 6a01 4359 76cc 67c0 13c0 199d e32f 8340
00000340: 0000 0000 0000 0000 b76c bd58 4655 6ac0
00000350: be5f 8fdc 794e 8340 0000 0000 0000 0000
00000360: 2ec7 2969 f1de 6cc0 ca21 5d17 8a83 8340
00000370: 0000 0000 0000 0000 c973 b701 37b2 6fc0
00000380: 01c9 0ae9 50ee 8340 0000 0000 0000 0000
00000390: 9219 aed8 a7a9 71c0 4ad1 494f 3a81 8440
000003a0: 0000 0000 0000 0000 de4d 873c 6997 73c0
000003b0: 61da 37a3 e00a 8540 0000 0000 0000 0000
000003c0: 705d 5507 a172 75c0 27bf df95 5864 8540
000003d0: 0000 0000 0000 0000 bb2e 7454 7040 77c0
000003e0: 4134 6013 0779 8540 0000 0000 0000 0000
000003f0: 50c9 e1b3 b09a 78c0 9e26 c43f 5d1f 8540
00000400: 0000 0000 0000 0000 08d1 5125 d991 79c0
00000410: ff5f db15 1979 8440 0000 0000 0000 0000
00000420: 4446 c8f6 014f 7ac0 d5c6 6ab4 3fb7 8340
00000430: 0000 0000 0000 0000 1bc5 127d 7f3f 7bc0
00000440: a4ee e3bd 17e3 8240 0000 0000 0000 0000
00000450: d863 d312 9460 7cc0 3145 76d7 5824 8240
00000460: 0000 0000 0000 0000 2922 e93c 593f 7ec0
00000470: e25e 2e22 0d92 8140 0000 0000 0000 0000
00000480: 4806 1a60 5154 80c0 a791 858a 3f0a 8140
00000490: 0000 0000 0000 0000 fcf6 4514 dc96 81c0
000004a0: 8060 7c3c d472 8040 0000 0000 0000 0000
000004b0: 2866 b085 b0af 82c0 f8de d3f9 9667 7f40
000004c0: 0000 0000 0000 0000 870a 797a 486e 83c0
000004d0: 08c7 6c04 8d6f 7d40 0000 0000 0000 0000
000004e0: 1550 fc66 12d0 83c0 1484 b059 0cea 7a40
000004f0: 0000 0000 0000 0000 26d4 d443 9cf7 83c0
00000500: 7474 0b41 4719 7840 0000 0000 0000 0000
00000510: 48e4 8275 f63b 84c0 1564 676f d74f 7540
00000520: 0000 0000 0000 0000 f8c8 d770 dca7 84c0
00000530: 181f 06cd 806b 7240 0000 0000 0000 0000
00000540: 4163 282e 9b36 85c0 bb27 3480 3591 6f40
00000550: 0000 0000 0000 0000 dde0 5ec9 d4a7 85c0
00000560: d51c 83e8 2df7 6a40 0000 0000 0000 0000
00000570: 16a2 4a06 d1c1 85c0 1188 052f 4163 6640
00000580: 0000 0000 0000 0000 180f 2882 d551 85c0
00000590: 2782 d4f2 a2eb 6140 0000 0000 0000 0000
000005a0: bf0b 21c7 e587 84c0 0763 e3df 93ec 5a40
000005b0: 0000 0000 0000 0000 2120 ba7f 19b2 83c0
000005c0: fa10 ccba ed1c 5140 0000 0000 0000 0000
000005d0: 4950 3df6 1af7 82c0 e786 97d7 3f13 3c40
000005e0: 0000 0000 0000 0000 9879 2208 1276 82c0
000005f0: fff1 0b82 7938 26c0 0000 0000 0000 0000
00000600: 1d2d f14e 0636 82c0 35fb 286d 59fb 47c0
00000610: 0000 0000 0000 0000 ff37 6b95 caf2 81c0
00000620: 540a 7d08 3ad7 55c0 0000 0000 0000 0000
00000630: 86f9 aee4 4fb0 81c0 1dc6 96f2 63a1 5fc0
00000640: 0000 0000 0000 0000 8e0e b66f d26c 81c0
00000650: 01ea ae23 bbeb 64c0 0000 0000 0000 0000
00000660: 9a01 97e1 f331 81c0 6186 8c51 6d8d 6ac0
00000670: 0000 0000 0000 0000 8cc2 2b4d 08d7 80c0
00000680: ad12 fe71 9614 70c0 0000 0000 0000 0000
00000690: fe25 9be6 4459 80c0 52b4 722f 9cb5 72c0
000006a0: 0000 0000 0000 0000 a10f a5f4 5e35 7fc0
000006b0: efae b3a0 2931 75c0 0000 0000 0000 0000
000006c0: 64b6 b68b c9e8 7cc0 706c b849 722a 77c0
000006d0: 0000 0000 0000 0000 07b2 4d8e ea5e 7ac0
000006e0: 56e1 e8cb 50a1 78c0 0000 0000 0000 0000
000006f0: 38c5 2d14 42cc 77c0 c959 99b1 64b3 79c0
00000700: 0000 0000 0000 0000 a8b4 da76 5992 75c0
00000710: 5e7b 3e61 cd9e 7ac0 0000 0000 0000 0000
00000720: d981 b9aa e1e7 73c0 585e 4881 087f 7bc0
00000730: 0000 0000 0000 0000 d3fa 8878 83d2 72c0
00000740: 41e3 bece 8f8e 7cc0 0000 0000 0000 0000
00000750: 950e e62a f9fd 71c0 5185 cd72 bad1 7dc0
00000760: 0000 0000 0000 0000 5e3c e652 4449 71c0
00000770: 546d 0b3f 2100 7fc0 0000 0000 0000 0000
00000780: e397 2eee d885 70c0 cfa9 ec96 0cd9 7fc0
00000790: 0000 0000 0000 0000 4dd3 681d 272f 6fc0
000007a0: 64aa 122c fb22 80c0 0000 0000 0000 0000
000007b0: ced6 94bf a9da 6cc0 54ac 0dc6 e0f3 7fc0
000007c0: 0000 0000 0000 0000 2d8d b4f8 654b 6ac0
000007d0: 43d7 4045 e1f2 7ec0 0000 0000 0000 0000
000007e0: f340 243b 6fb0 67c0 e900 da5a 20a0 7dc0
000007f0: 0000 0000 0000 0000 cfbd 4a20 f4b1 64c0
