NeuroAI/Neural Embeddings Rank Aligning 3D latent dynamics with movements/NER/data_NER/Fig8/Supp_Cebra/Type_ curve-straight=[18]_parameters_5000itr_lr0.0001.npz (npz, 393644 bytes, 7 tensors)

train_loss_stable f4 [5000]
0	0x40c7a058	6.238323
1	0x40c7a058	6.238323
2	0x40c7a058	6.238323
3	0x40c7a057	6.2383227
4	0x40c7a058	6.238323
5	0x40c7a058	6.238323
6	0x40c7a057	6.2383227
7	0x40c7a058	6.238323
8	0x40c7a057	6.2383227
9	0x40c7a057	6.2383227
10	0x40c7a057	6.2383227
11	0x40c7a057	6.2383227
12	0x40c7a055	6.238322
13	0x40c7a056	6.2383223
14	0x40c7a056	6.2383223
15	0x40c7a056	6.2383223
16	0x40c7a055	6.238322
17	0x40c7a055	6.238322
18	0x40c7a055	6.238322
19	0x40c7a055	6.238322
20	0x40c7a053	6.238321
21	0x40c7a055	6.238322
22	0x40c7a054	6.2383213
23	0x40c7a053	6.238321
24	0x40c7a052	6.2383204
25	0x40c7a052	6.2383204
26	0x40c7a053	6.238321
27	0x40c7a052	6.2383204
28	0x40c7a050	6.2383194
29	0x40c7a04f	6.238319
30	0x40c7a04e	6.2383184
31	0x40c7a04f	6.238319
32	0x40c7a04d	6.238318
33	0x40c7a04e	6.2383184
34	0x40c7a04c	6.2383175
35	0x40c7a049	6.238316
36	0x40c7a04a	6.2383165
37	0x40c7a049	6.238316
38	0x40c7a04b	6.238317
39	0x40c7a049	6.238316
40	0x40c7a046	6.2383146
41	0x40c7a048	6.2383156
42	0x40c7a040	6.238312
43	0x40c7a042	6.2383127
44	0x40c7a040	6.238312
45	0x40c7a03d	6.2383103
46	0x40c7a03d	6.2383103
47	0x40c7a03e	6.238311
48	0x40c7a03d	6.2383103
49	0x40c7a037	6.2383075
50	0x40c7a038	6.238308
51	0x40c7a032	6.238305
52	0x40c7a031	6.2383046
53	0x40c7a02e	6.238303
54	0x40c7a02a	6.2383013
55	0x40c7a02b	6.2383018
56	0x40c7a029	6.238301
57	0x40c7a01d	6.238295
58	0x40c7a022	6.2382975
59	0x40c7a01a	6.2382936
60	0x40c7a011	6.2382894
61	0x40c7a010	6.238289
62	0x40c7a006	6.238284
63	0x40c7a005	6.2382836
64	0x40c7a00a	6.238286
65	0x40c79ffe	6.2382803
66	0x40c7a001	6.2382817
67	0x40c79ffd	6.23828
68	0x40c79fe9	6.2382703
69	0x40c79fe7	6.2382693
70	0x40c79fe2	6.238267
71	0x40c79fd0	6.2382584
72	0x40c79fde	6.238265
73	0x40c79fc0	6.2382507
74	0x40c79fce	6.2382574
75	0x40c79fb9	6.2382474
76	0x40c79fa5	6.238238
77	0x40c79f9d	6.238234
78	0x40c79f90	6.238228
79	0x40c79f91	6.2382283
80	0x40c79f7f	6.2382197
81	0x40c79f49	6.238194
82	0x40c79f83	6.2382216
83	0x40c79f60	6.238205
84	0x40c79f41	6.23819
85	0x40c79f3b	6.2381873
86	0x40c79f1a	6.2381716
87	0x40c79f10	6.238167
88	0x40c79efb	6.238157
89	0x40c79eee	6.2381506
90	0x40c79ef6	6.2381544
91	0x40c79ea6	6.2381163
92	0x40c79e96	6.2381086
93	0x40c79e8a	6.238103
94	0x40c79e4e	6.2380743
95	0x40c79e91	6.2381063
96	0x40c79e13	6.238046
97	0x40c79dec	6.2380276
98	0x40c79dea	6.2380266
99	0x40c79dd8	6.238018
100	0x40c79d55	6.2379556
101	0x40c79d13	6.237924
102	0x40c79d2a	6.237935
103	0x40c79ce7	6.237903
104	0x40c79c45	6.237826
105	0x40c79c11	6.237801
106	0x40c79ca9	6.2378736
107	0x40c79c59	6.2378354
108	0x40c79b30	6.237694
109	0x40c79ac7	6.2376437
110	0x40c79af1	6.2376637
111	0x40c79ac3	6.237642
112	0x40c79b47	6.2377048
113	0x40c799f9	6.2375455
114	0x40c799c2	6.2375193
115	0x40c79950	6.237465
116	0x40c79733	6.237207
117	0x40c79783	6.237245
118	0x40c797ff	6.237304
119	0x40c79736	6.2372084
120	0x40c7968b	6.237127
121	0x40c7954b	6.2369742
122	0x40c7946b	6.2368674
123	0x40c792a0	6.2366486
124	0x40c7917d	6.23651
125	0x40c79278	6.2366295
126	0x40c7923a	6.2366
127	0x40c78e91	6.236153
128	0x40c78f21	6.236222
129	0x40c78e70	6.2361374
130	0x40c78aef	6.2357097
131	0x40c78d19	6.235974
132	0x40c78842	6.235383
133	0x40c78cbe	6.2359304
134	0x40c78899	6.2354245
135	0x40c784ac	6.2349453
136	0x40c780b6	6.234462
137	0x40c782c4	6.2347126
138	0x40c77e1e	6.234145
139	0x40c779f3	6.2336364
140	0x40c779f9	6.2336392
141	0x40c77750	6.2333145
142	0x40c77313	6.232797
143	0x40c76f61	6.232346
144	0x40c76e98	6.23225
145	0x40c75d01	6.230103
146	0x40c76aec	6.231802
147	0x40c76165	6.230639
148	0x40c74e26	6.2282896
149	0x40c750df	6.228622
150	0x40c7551e	6.2291403
151	0x40c73720	6.225479
152	0x40c73006	6.224612
153	0x40c73aa8	6.22591
154	0x40c71baf	6.2221293
155	0x40c7174c	6.221594
156	0x40c70eed	6.220572
157	0x40c6f2bb	6.21713
158	0x40c6e1e3	6.215074
159	0x40c6e311	6.215218
160	0x40c6d366	6.2133055
161	0x40c6c7cd	6.2118897
162	0x40c6bab6	6.210292
163	0x40c6ad22	6.2086344
164	0x40c69dc9	6.206761
165	0x40c6297c	6.192564
166	0x40c64f42	6.197175
167	0x40c60535	6.1881356
168	0x40c62b06	6.192752
169	0x40c5ceac	6.1814785
170	0x40c5a814	6.1767673
171	0x40c5887d	6.172911
172	0x40c57432	6.170434
173	0x40c4ef1c	6.154188
174	0x40c4b5cd	6.1471925
175	0x40c48eee	6.1424475
176	0x40c4184f	6.1279674
177	0x40c3f1d8	6.123272
178	0x40c3371f	6.1004786
179	0x40c3155e	6.0963583
180	0x40c303e3	6.0942245
181	0x40c2b7e7	6.084949
182	0x40c339a6	6.100787
183	0x40c25073	6.0723205
184	0x40c0a4ca	6.020116
185	0x40c15c77	6.042537
186	0x40c09faf	6.0194926
187	0x40c15d1a	6.042615
188	0x40c27c5e	6.0776815
189	0x40c11c7e	6.034728
190	0x40bfaed9	5.9900937
191	0x40c29379	6.080502
192	0x40c08d80	6.017273
193	0x40c21ec1	6.066254
194	0x40c17c0f	6.046394
195	0x40c055dd	6.0104814
196	0x40c24483	6.0708632
197	0x40c09aa7	6.0188785
198	0x40c04984	6.008974
199	0x40bff4e6	5.998645
200	0x40c0cd97	6.0250964
201	0x40c16d52	6.044595
202	0x40c0ce07	6.02515
203	0x40be52f3	5.9476256
204	0x40bf5721	5.979386
205	0x40c0232a	6.0042925
206	0x40bf0a29	5.9699903
207	0x40beb6f6	5.959834
208	0x40bfe335	5.996485
209	0x40bfe76f	5.997001
210	0x40c0060b	6.0007377
211	0x40bed649	5.963658
212	0x40bf8c2d	5.9858613
213	0x40be6901	5.950318
214	0x40bf68ce	5.9815435
215	0x40bf738e	5.982856
216	0x40bf6b82	5.9818735
217	0x40be2238	5.941677
218	0x40bfbb28	5.991596
219	0x40be90f6	5.9551954
220	0x40bf3ca8	5.9761543
221	0x40bf2f58	5.9745293
222	0x40bf7555	5.9830728
223	0x40be224d	5.941687
224	0x40be75bb	5.9518714
225	0x40be2a96	5.9426985
226	0x40beb846	5.9599943
227	0x40bf361c	5.975355
228	0x40c01ab7	6.003261
229	0x40bff37d	5.9984727
230	0x40bdb953	5.9288726
231	0x40bf399c	5.9757824
232	0x40bf6e06	5.9821806
233	0x40be35f9	5.9440885
234	0x40bead29	5.9586377
235	0x40bd52dc	5.9163647
236	0x40bef150	5.966957
237	0x40bf7148	5.9825783
238	0x40bf68b8	5.981533
239	0x40be489e	5.9463644
240	0x40bd8832	5.9228754
241	0x40be3c2c	5.944845
242	0x40bd4e4b	5.9158072
243	0x40bd8a1d	5.9231095
244	0x40bd3b73	5.913507
245	0x40bcbf14	5.898325
246	0x40becdba	5.962613
247	0x40bd73f0	5.9204025
248	0x40bdb167	5.9279056
249	0x40bd6939	5.9190946
250	0x40bbb517	5.8658557
251	0x40bc842a	5.8911333
252	0x40bd3af3	5.913446
253	0x40bde3fe	5.934081
254	0x40bc67ec	5.887686
255	0x40bc6020	5.886734

cebra_veldir_train f8 [4600, 3]
0	0xbfedef2a40000000	-0.9354449510574341
1	0xbfc7df7040000000	-0.18650630116462708
2	0x3fd3378420000000	0.3002634346485138
3	0xbfede6b060000000	-0.9344102740287781
4	0xbfc68fb6a0000000	-0.1762607842683792
5	0x3fd3cf5c00000000	0.30953121185302734
6	0xbfeddfb180000000	-0.933556318283081
7	0xbfc4ffc6c0000000	-0.16405567526817322
8	0x3fd46549e0000000	0.31868216395378113
9	0xbfedd96ae0000000	-0.932790219783783
10	0xbfc30c5140000000	-0.148813396692276
11	0x3fd50245e0000000	0.3282637298107147
12	0xbfedd26cc0000000	-0.9319366216659546
13	0xbfc11d0840000000	-0.1336984932422638
14	0x3fd5929ea0000000	0.33707395195961
15	0xbfedce1a40000000	-0.9314090013504028
16	0xbfbd393940000000	-0.11415441334247589
17	0x3fd61e7780000000	0.34560954570770264
18	0xbfedc74920000000	-0.9305768609046936
19	0xbfb777cc80000000	-0.09167173504829407
20	0x3fd6af0900000000	0.3544332981109619
21	0xbfedbdbb60000000	-0.9294106364250183
22	0xbfaf8cc920000000	-0.061620984226465225
23	0x3fd7499680000000	0.3638664484024048
24	0xbfedaecfa0000000	-0.9275892376899719
25	0xbf9de6f760000000	-0.029201379045844078
26	0x3fd7d65ce0000000	0.37245866656303406
27	0xbfed93e2c0000000	-0.9243024587631226
28	0x3f90c101c0000000	0.016361262649297714
29	0x3fd8676160000000	0.38130983710289
30	0xbfed5b95c0000000	-0.9174298048019409
31	0x3fb3015e60000000	0.07423963397741318
32	0x3fd904ad40000000	0.39091044664382935
33	0xbfecf49b60000000	-0.9048592448234558
34	0x3fc2b691c0000000	0.14619657397270203
35	0x3fd996a7c0000000	0.3998202681541443
36	0xbfec433240000000	-0.8832026720046997
37	0x3fcdc57880000000	0.23258882761001587
38	0x3fda107260000000	0.40725383162498474
39	0xbfeaeadac0000000	-0.8411687612533569
40	0x3fd668d640000000	0.3501487374305725
41	0x3fda5ff000000000	0.4121055603027344
42	0xbfe8e75760000000	-0.778239905834198
43	0x3fde860d20000000	0.4769318401813507
44	0x3fda24fde0000000	0.4085077941417694
45	0xbfe5955160000000	-0.6744772791862488
46	0x3fe401a8a0000000	0.625202476978302
47	0x3fd921c460000000	0.39268597960472107
48	0xbfe0917f00000000	-0.5177607536315918
49	0x3fe8e3c240000000	0.777802586555481
50	0x3fd6cd8e40000000	0.3562961220741272
51	0xbfd5100f40000000	-0.3291051983833313
52	0x3fec9ceaa0000000	0.8941548466682434
53	0x3fd36e4a60000000	0.3036065995693207
54	0xbfbf293680000000	-0.12172260880470276
55	0x3feedc8840000000	0.9644204378128052
56	0x3fce0a2540000000	0.23468461632728577
57	0x3fb412e4e0000000	0.07841330021619797
58	0x3fef7b21e0000000	0.9837808012962341
59	0x3fc4a66400000000	0.16132783889770508
60	0x3fd0a884c0000000	0.26028555631637573
61	0x3feec3fa00000000	0.9614229202270508
62	0x3fb6c762a0000000	0.08897987753152847
63	0x3fd9d265a0000000	0.4034666121006012
64	0x3fed446d40000000	0.9146028757095337
65	0x3f9b671d60000000	0.026760539039969444
66	0x3fe06cd1c0000000	0.5132836103439331
67	0x3feb743700000000	0.8579363822937012
68	0xbf968e1b00000000	-0.022026464343070984
69	0x3fe3261460000000	0.5983983874320984
70	0x3fe99059a0000000	0.798870861530304
71	0xbfaf3f5ec0000000	-0.061030350625514984
72	0x3fe5514d00000000	0.6661744117736816
73	0x3fe7b0b200000000	0.7403192520141602
74	0xbfb7187ba0000000	-0.09021732956171036
75	0x3fe7277e60000000	0.7235710024833679
76	0x3fe5c79ec0000000	0.6806176900863647
77	0xbfbd6ad9c0000000	-0.11491166055202484
78	0x3fe8d49ba0000000	0.7759531140327454
79	0x3fe3b5a460000000	0.6159231066703796
80	0xbfc16d30e0000000	-0.1361447423696518
81	0x3fea0e7c20000000	0.814268171787262
82	0x3fe1f02f00000000	0.5605692863464355
83	0xbfc34c2c20000000	-0.15076209604740143
84	0x3feb205740000000	0.8476978540420532
85	0x3fe0280080000000	0.5048830509185791
86	0xbfc4d66080000000	-0.16279226541519165
87	0x3fec0ff960000000	0.8769499659538269
88	0x3fdcc2d340000000	0.4493911862373352
89	0xbfc5ccc980000000	-0.17031210660934448
90	0x3fecd44360000000	0.9009110331535339
91	0x3fd974d320000000	0.3977554142475128
92	0xbfc639c0e0000000	-0.1736374944448471
93	0x3fed832960000000	0.9222609400749207
94	0x3fd61c7ca0000000	0.34548869729042053
95	0xbfc6326ae0000000	-0.17341361939907074
96	0x3fee1dc980000000	0.9411361217498779
97	0x3fd2a87780000000	0.29153239727020264
98	0xbfc5e643a0000000	-0.17108960449695587
99	0x3fee98dde0000000	0.9561604857444763
100	0x3fcef26100000000	0.24177181720733643
101	0xbfc5268280000000	-0.16523772478103638
102	0x3feeffa100000000	0.9687047004699707
103	0x3fc8a13bc0000000	0.19242045283317566
104	0xbfc411f640000000	-0.15679815411567688
105	0x3fef509940000000	0.9785887002944946
106	0x3fc2715d60000000	0.1440846174955368
107	0xbfc2d05140000000	-0.146982342004776
108	0x3fef8bbca0000000	0.9858077168464661
109	0x3fb97b06c0000000	0.09953348338603973
110	0xbfc14de640000000	-0.13518980145454407
111	0x3fefb58a60000000	0.9909107089042664
112	0x3fae9347e0000000	0.059717413038015366
113	0xbfbedbac40000000	-0.12053944170475006
114	0x3fefd1a040000000	0.994339108467102
115	0x3f9270cce0000000	0.01800842396914959
116	0xbfbaceb5c0000000	-0.10471664369106293
117	0x3fefdd7440000000	0.9957829713821411
118	0xbf9656db20000000	-0.021815704181790352
119	0xbfb6cfde60000000	-0.08910932391881943
120	0x3fefdaf520000000	0.9954782128334045
121	0xbfae74c780000000	-0.059484705328941345
122	0xbfb2f58ea0000000	-0.07405940443277359
123	0x3fefd05ae0000000	0.9941839575767517
124	0xbfb7a54b80000000	-0.09236595034599304
125	0xbfac5a8a00000000	-0.055378258228302
126	0x3fefc104e0000000	0.9923118948936462
127	0xbfbe35c7e0000000	-0.11800812929868698
128	0xbfa318b7e0000000	-0.03729796037077904
129	0x3fefaaa9e0000000	0.9895829558372498
130	0xbfc242f820000000	-0.1426687389612198
131	0xbf93ba4340000000	-0.019265223294496536
132	0x3fef8d03c0000000	0.9859637022018433
133	0xbfc55e68e0000000	-0.16694365441799164
134	0xbf62ef7100000000	-0.00231144018471241
135	0x3fef67c0c0000000	0.9814151525497437
136	0xbfc8788520000000	-0.19117797911167145
137	0x3f90fdc400000000	0.01659303903579712
138	0x3fef43aec0000000	0.977012038230896
139	0xbfcaeb3060000000	-0.21030239760875702
140	0x3fa1e2e300000000	0.03493413329124451
141	0x3fef147da0000000	0.9712513089179993
142	0xbfcdab35a0000000	-0.23178739845752716
143	0x3fabc98140000000	0.05427173525094986
144	0x3feed8f720000000	0.963985025882721
145	0xbfd0549720000000	-0.2551629841327667
146	0x3fb3330840000000	0.0749974399805069
147	0x3fee9824e0000000	0.9560722708702087
148	0xbfd1b5ac80000000	-0.276713490486145
149	0x3fb8c2ec80000000	0.09672430157661438
150	0x3fee521320000000	0.9475188851356506
151	0xbfd2ec6620000000	-0.29567864537239075
152	0x3fbf1ff9c0000000	0.12158165872097015
153	0x3fedf17140000000	0.9357229471206665
154	0xbfd47d6da0000000	-0.320155531167984
155	0x3fc2f3c280000000	0.14806395769119263
156	0x3fed669d00000000	0.9187760353088379
157	0xbfd6777040000000	-0.35103994607925415
158	0x3fc71e5e00000000	0.18061423301696777
159	0x3feca96be0000000	0.8956813216209412
160	0xbfd8cb15e0000000	-0.38739535212516785
161	0x3fcbf32160000000	0.21835725009441376
162	0x3febb066e0000000	0.8652834296226501
163	0xbfdb8b6f40000000	-0.43038541078567505
164	0x3fd072d140000000	0.257007896900177
165	0x3fea4c3360000000	0.8218018412590027
166	0xbfded63860000000	-0.48182496428489685
167	0x3fd376a260000000	0.3041158616542816
168	0x3fe858d6c0000000	0.7608445882797241
169	0xbfe14e69c0000000	-0.54082190990448
170	0x3fd6f40fe0000000	0.35864636301994324
171	0x3fe52074e0000000	0.660211980342865
172	0xbfe3e66340000000	-0.6218734979629517
173	0x3fdaf4a1a0000000	0.4211811125278473
174	0x3fe0a91660000000	0.5206405520439148
175	0xbfe681b820000000	-0.7033348679542542
176	0x3fdef9d0a0000000	0.48399749398231506
177	0x3fd4f4c1e0000000	0.3274388015270233
178	0xbfe8ee7c60000000	-0.7791120409965515
179	0x3fe11b3880000000	0.5345728397369385
180	0x3fb79decc0000000	0.09225349128246307
181	0xbfea86fee0000000	-0.828978955745697
182	0x3fe1a6dc20000000	0.5516186356544495
183	0xbfc2b96940000000	-0.14628329873085022
184	0xbfead1ab40000000	-0.8380943536758423
185	0x3fe0d146a0000000	0.5255463719367981
186	0xbfd6362fe0000000	-0.3470573127269745
187	0xbfe9fbe6e0000000	-0.8119997382164001
188	0x3fde086740000000	0.46926289796829224
189	0xbfe0172560000000	-0.5028254389762878
190	0xbfe8899d20000000	-0.7667985558509827
191	0x3fd988eba0000000	0.3989819586277008
192	0xbfe37d5420000000	-0.6090489029884338
193	0xbfe6ffe940000000	-0.7187391519546509
194	0x3fd576b5e0000000	0.3353705108165741
195	0xbfe5e4f4e0000000	-0.684198796749115
196	0xbfe590b1c0000000	-0.6739128828048706
197	0x3fd1d76460000000	0.2787714898586273
198	0xbfe7858e00000000	-0.7350530624389648
199	0xbfe46d70c0000000	-0.6383594274520874
200	0x3fcd3e3020000000	0.22846032679080963
201	0xbfe8a22ea0000000	-0.7697976231575012
202	0xbfe38cc460000000	-0.6109334826469421
203	0x3fc7a960e0000000	0.18485651910305023
204	0xbfe976c100000000	-0.7957463264465332
205	0xbfe2c98520000000	-0.5870996117591858
206	0x3fc30781e0000000	0.1486666053533554
207	0xbfea0bb1e0000000	-0.8139275908470154
208	0xbfe234da20000000	-0.5689516663551331
209	0x3fbe172960000000	0.11754091829061508
210	0xbfea73b780000000	-0.8266255855560303
211	0xbfe1c743c0000000	-0.5555742979049683
212	0x3fb6efbd80000000	0.08959564566612244
213	0xbfeac7d4c0000000	-0.8368934392929077
214	0xbfe161ef20000000	-0.5432048439979553
215	0x3fb13ed4c0000000	0.06736497581005096
216	0xbfeb0d8e40000000	-0.8454047441482544
217	0xbfe1056540000000	-0.5319086313247681
218	0x3fa8e4dc20000000	0.04862106218934059
219	0xbfeb435020000000	-0.851966917514801
220	0xbfe0b8fcc0000000	-0.5225814580917358
221	0x3fa0ad7d00000000	0.03257361054420471
222	0xbfeb708120000000	-0.857483446598053
223	0xbfe073c1e0000000	-0.5141305327415466
224	0x3f94464dc0000000	0.01979943737387657
225	0xbfeb912640000000	-0.8614684343338013
226	0xbfe03f6180000000	-0.5077369213104248
227	0x3f81c500e0000000	0.008676535449922085
228	0xbfebb3f680000000	-0.8657181262969971
229	0xbfe0045b40000000	-0.500531792640686
230	0x3f221131a0000000	0.00013784151815343648
231	0xbfebd11400000000	-0.8692722320556641
232	0xbfdfa24840000000	-0.4942799210548401
233	0xbf7dd9b9a0000000	-0.007287716958671808
234	0xbfebf6b320000000	-0.8738647103309631
235	0xbfdf1b0e80000000	-0.486026406288147
236	0xbf88209200000000	-0.011780872941017151
237	0xbfec15bb00000000	-0.877652645111084
238	0xbfdea89840000000	-0.4790402054786682
239	0xbf90123840000000	-0.015694502741098404
240	0xbfec3a3940000000	-0.8821073770523071
241	0xbfde2019c0000000	-0.47070926427841187
242	0xbf924cb600000000	-0.01787075400352478
243	0xbfec586360000000	-0.8857895731925964
244	0xbfddac89c0000000	-0.46365588903427124
245	0xbf947b7580000000	-0.020002208650112152
246	0xbfec738c60000000	-0.8891050219535828
247	0xbfdd42d200000000	-0.45720338821411133
248	0xbf95e60000000000	-0.02138519287109375
249	0xbfec8fbf60000000	-0.8925473093986511
250	0xbfdcd3a860000000	-0.4504185616970062
251	0xbf967d60e0000000	-0.02196265570819378
252	0xbfecac5c80000000	-0.8960402011871338
253	0xbfdc610800000000	-0.4434223175048828
254	0xbf96a2ed80000000	-0.02210589498281479
255	0xbfecca54a0000000	-0.8996985554695129

cebra_veldir_test f8 [1200, 3]
0	0xbfea51aa80000000	-0.8224689960479736
1	0xbfe209d360000000	-0.5636994242668152
2	0xbfb379bd20000000	-0.07607633620500565
3	0xbfea0d4ca0000000	-0.8141234517097473
4	0xbfe25af300000000	-0.5736021995544434
5	0xbfb7288c80000000	-0.09046247601509094
6	0xbfe9d3bc40000000	-0.8070966005325317
7	0xbfe2979be0000000	-0.5810069441795349
8	0xbfbae19f20000000	-0.10500521212816238
9	0xbfe99601e0000000	-0.7995614409446716
10	0xbfe2d14720000000	-0.5880466103553772
11	0xbfbf4071a0000000	-0.1220770850777626
12	0xbfe961dd80000000	-0.793196439743042
13	0xbfe2f6eca0000000	-0.5926421284675598
14	0xbfc1ed3900000000	-0.1400519609451294
15	0xbfe9293740000000	-0.7862812280654907
16	0xbfe31a6380000000	-0.5969712734222412
17	0xbfc4650840000000	-0.1593332588672638
18	0xbfe9013ae0000000	-0.7814001441001892
19	0xbfe321e900000000	-0.5978894233703613
20	0xbfc6e06780000000	-0.1787232756614685
21	0xbfe8dd45e0000000	-0.7770108580589294
22	0xbfe31e0200000000	-0.5974130630493164
23	0xbfc9644680000000	-0.19837266206741333
24	0xbfe8c07800000000	-0.7734947204589844
25	0xbfe30d5180000000	-0.5953757762908936
26	0xbfcbd19240000000	-0.2173331081867218
27	0xbfe8b27be0000000	-0.7717875838279724
28	0xbfe2e5b820000000	-0.5905418992042542
29	0xbfce2edde0000000	-0.23580525815486908
30	0xbfe8a82ae0000000	-0.770528256893158
31	0xbfe2b75f20000000	-0.5848842263221741
32	0xbfd0373960000000	-0.25337061285972595
33	0xbfe8a68da0000000	-0.7703312039375305
34	0xbfe275c260000000	-0.5768749117851257
35	0xbfd1630f60000000	-0.2716711461544037
36	0xbfe8ab5c20000000	-0.7709179520606995
37	0xbfe22de1a0000000	-0.5681007504463196
38	0xbfd26eade0000000	-0.2880053222179413
39	0xbfe8b581a0000000	-0.7721565365791321
40	0xbfe1dd4cc0000000	-0.5582641363143921
41	0xbfd36ca0e0000000	-0.30350515246391296
42	0xbfe8c7b040000000	-0.7743760347366333
43	0xbfe180c5c0000000	-0.5469692945480347
44	0xbfd45b33e0000000	-0.3180665671825409
45	0xbfe8d4c500000000	-0.775972843170166
46	0xbfe12875e0000000	-0.5361890196800232
47	0xbfd5430780000000	-0.33221614360809326
48	0xbfe8d83800000000	-0.7763938903808594
49	0xbfe0df3680000000	-0.5272476673126221
50	0xbfd6192b00000000	-0.34528613090515137
51	0xbfe8e29860000000	-0.7776605486869812
52	0xbfe08f61a0000000	-0.5175026059150696
53	0xbfd6d8c560000000	-0.35698065161705017
54	0xbfe8db9e00000000	-0.7768087387084961
55	0xbfe053dc60000000	-0.510236918926239
56	0xbfd79f2620000000	-0.36908867955207825
57	0xbfe8d3dac0000000	-0.7758611440658569
58	0xbfe01e8780000000	-0.5037267208099365
59	0xbfd84fbc60000000	-0.37986668944358826
60	0xbfe8ce3d20000000	-0.7751756310462952
61	0xbfdfce0260000000	-0.49694880843162537
62	0xbfd8f6b2a0000000	-0.390057235956192
63	0xbfe8b44f40000000	-0.7720104455947876
64	0xbfdf9aee40000000	-0.49383121728897095
65	0xbfd99c4660000000	-0.4001632630825043
66	0xbfe8850600000000	-0.7662382125854492
67	0xbfdf95c3e0000000	-0.4935159385204315
68	0xbfda55cb00000000	-0.4114863872528076
69	0xbfe85311a0000000	-0.7601402401924133
70	0xbfdf993d40000000	-0.49372798204421997
71	0xbfdb088e40000000	-0.4223971962928772
72	0xbfe80529a0000000	-0.7506301999092102
73	0xbfdfdc1f40000000	-0.4978101849555969
74	0xbfdbcde320000000	-0.43444135785102844
75	0xbfe7940020000000	-0.7368164658546448
76	0xbfe0236f20000000	-0.5043254494667053
77	0xbfdcd17ba0000000	-0.45028582215309143
78	0xbfe702c420000000	-0.7190876603126526
79	0xbfe08357a0000000	-0.5160329937934875
80	0xbfddc99160000000	-0.4654277265071869
81	0xbfe65f1620000000	-0.6991072297096252
82	0xbfe0f0ec00000000	-0.5294094085693359
83	0xbfdec21fa0000000	-0.4805983603000641
84	0xbfe5814fa0000000	-0.6720350384712219
85	0xbfe1826760000000	-0.5471684336662292
86	0xbfdfef32c0000000	-0.4989745020866394
87	0xbfe458c100000000	-0.6358342170715332
88	0xbfe244e5a0000000	-0.5709102749824524
89	0xbfe09eeca0000000	-0.5193999409675598
90	0xbfe30c0620000000	-0.595217764377594
91	0xbfe2fe2420000000	-0.5935230851173401
92	0xbfe155a940000000	-0.5417066812515259
93	0xbfe151e4e0000000	-0.5412468314170837
94	0xbfe3e22b20000000	-0.6213584542274475
95	0xbfe2211480000000	-0.5665380954742432
96	0xbfde33c160000000	-0.47190889716148376
97	0xbfe4d71380000000	-0.651254415512085
98	0xbfe3045920000000	-0.5942807793617249
99	0xbfd8e0f1c0000000	-0.3887295126914978
100	0xbfe5c3fb20000000	-0.6801734566688538
101	0xbfe3e34520000000	-0.6214929223060608
102	0xbfd225ec60000000	-0.28356465697288513
103	0xbfe695eae0000000	-0.705800473690033
104	0xbfe4c618a0000000	-0.6491816639900208
105	0xbfc47d7220000000	-0.16007830202579498
106	0xbfe71c4880000000	-0.7222025394439697
107	0xbfe5886be0000000	-0.6729030013084412
108	0xbf937ee6a0000000	-0.01903877593576908
109	0xbfe7486b60000000	-0.7275902628898621
110	0xbfe5f1a560000000	-0.6857478022575378
111	0x3fc0f94fa0000000	0.13260836899280548
112	0xbfe6c79120000000	-0.7118611931800842
113	0xbfe611eb60000000	-0.6896874308586121
114	0x3fd2578c40000000	0.286593496799469
115	0xbfe5a463a0000000	-0.676317036151886
116	0xbfe5b6dbe0000000	-0.6785716414451599
117	0x3fdb59e820000000	0.42736247181892395
118	0xbfe3ebfb60000000	-0.6225563883781433
119	0xbfe4fa82a0000000	-0.6555798649787903
120	0x3fe1ae5840000000	0.5525323152542114
121	0xbfe1c0da80000000	-0.5547916889190674
122	0xbfe3e79fa0000000	-0.6220243573188782
123	0x3fe4f2ec00000000	0.6546535491943359
124	0xbfdec3c1c0000000	-0.4806980490684509
125	0xbfe2ab3b40000000	-0.5834022760391235
126	0x3fe7764dc0000000	0.7331913709640503
127	0xbfda17c760000000	-0.4077013432979584
128	0xbfe16a8280000000	-0.5442516803741455
129	0x3fe98152e0000000	0.7970365881919861
130	0xbfd5396100000000	-0.33162713050842285
131	0xbfe026c7c0000000	-0.5047339200973511
132	0x3feb01f580000000	0.8439891338348389
133	0xbfd0c7f0a0000000	-0.2622033655643463
134	0xbfddf21900000000	-0.46790146827697754
135	0x3fec235040000000	0.8793107271194458
136	0xbfc9004da0000000	-0.19532175362110138
137	0xbfdbcc6ea0000000	-0.4343525469303131
138	0x3fecf8d3a0000000	0.9053743481636047
139	0xbfc0fcd0a0000000	-0.13271529972553253
140	0xbfd9d05660000000	-0.4033409059047699
141	0x3fed8b9340000000	0.9232879877090454
142	0xbfb3997820000000	-0.07656050473451614
143	0xbfd816f4a0000000	-0.3764010965824127
144	0x3fedf05cc0000000	0.9355911016464233
145	0xbf97b0e300000000	-0.023135706782341003
146	0xbfd68c84c0000000	-0.35232657194137573
147	0x3fee303080000000	0.9433825016021729
148	0x3f9ac15060000000	0.02612805925309658
149	0xbfd529cd00000000	-0.3306763172149658
150	0x3fee537ee0000000	0.947692334651947
151	0x3fb2892b20000000	0.07240552455186844
152	0xbfd3e53340000000	-0.31086426973342896
153	0x3fee5fa1e0000000	0.9491738677024841
154	0x3fbe2565c0000000	0.1177581399679184
155	0xbfd2ae63e0000000	-0.29189392924308777
156	0x3fee58dfc0000000	0.948348879814148
157	0x3fc43df780000000	0.15814107656478882
158	0xbfd1999f40000000	-0.2750013470649719
159	0x3fee43da40000000	0.9457827806472778
160	0x3fc8bf9520000000	0.19334663450717926
161	0xbfd0b3f0c0000000	-0.2609826922416687
162	0x3fee26fb20000000	0.9422584176063538
163	0x3fcccbd560000000	0.2249705046415329
164	0xbfcfc0aa00000000	-0.24806714057922363
165	0x3fee043a80000000	0.9380161762237549
166	0x3fd02a2760000000	0.2525728642940521
167	0xbfce614fc0000000	-0.23734471201896667
168	0x3fedd80e20000000	0.9326239228248596
169	0x3fd1f46d20000000	0.28054359555244446
170	0xbfcd0ccf20000000	-0.2269534021615982
171	0x3feda9e240000000	0.9269877672195435
172	0x3fd3884ca0000000	0.30519405007362366
173	0xbfcbe96540000000	-0.21806016564369202
174	0x3fed80b5c0000000	0.9219616651535034
175	0x3fd4d7d680000000	0.3256736993789673
176	0xbfcad37b60000000	-0.20957891643047333
177	0x3fed55de60000000	0.9167320132255554
178	0x3fd610d5c0000000	0.34477752447128296
179	0xbfc9d53660000000	-0.20181922614574432
180	0x3fed2e5040000000	0.9119035005569458
181	0x3fd713a1c0000000	0.3605732321739197
182	0xbfc916c3c0000000	-0.19600722193717957
183	0x3fed075fa0000000	0.9071500897407532
184	0x3fd8044720000000	0.3752610981464386
185	0xbfc85f8220000000	-0.1904146820306778
186	0x3fecdd4560000000	0.9020106196403503
187	0x3fd8fc7ee0000000	0.3904111087322235
188	0xbfc79635c0000000	-0.18427154421806335
189	0x3fecb20300000000	0.8967299461364746
190	0x3fd9f10ea0000000	0.40533795952796936
191	0xbfc6becfc0000000	-0.17769810557365417
192	0x3fec89d800000000	0.8918266296386719
193	0x3fdac99a20000000	0.41855481266975403
194	0xbfc5f7ff80000000	-0.17163079977035522
195	0x3fec603900000000	0.8867459297180176
196	0x3fdba0b160000000	0.43168291449546814
197	0xbfc5294980000000	-0.16532248258590698
198	0x3fec36a360000000	0.8816697001457214
199	0x3fdc6e1620000000	0.4442191421985626
200	0xbfc45eef60000000	-0.15914718806743622
201	0x3febfeff80000000	0.8748776912689209
202	0x3fdd794840000000	0.4605274796485901
203	0xbfc33392a0000000	-0.15001137554645538
204	0x3febca9260000000	0.868478000164032
205	0x3fde691940000000	0.4751647114753723
206	0xbfc215f7e0000000	-0.1412954181432724
207	0x3feb93ad00000000	0.8617768287658691
208	0x3fdf5937c0000000	0.4898204207420349
209	0xbfc0e47260000000	-0.13197164237499237
210	0x3feb528a00000000	0.853825569152832
211	0x3fe03401a0000000	0.5063484311103821
212	0xbfbeece3a0000000	-0.120802141726017
213	0x3feb0c4f20000000	0.8452525734901428
214	0x3fe0bdef60000000	0.5231854319572449
215	0xbfbbd69180000000	-0.10874280333518982
216	0x3feabf2de0000000	0.8358373045921326
217	0x3fe14b38a0000000	0.5404322743415833
218	0xbfb8b31700000000	-0.09648269414901733
219	0x3fea72bb20000000	0.8265052437782288
220	0x3fe1cfad20000000	0.5566011071205139
221	0xbfb58c16c0000000	-0.08416883647441864
222	0x3fea200b00000000	0.8164114952087402
223	0x3fe2566480000000	0.5730459690093994
224	0xbfb243ebe0000000	-0.0713488981127739
225	0x3fe9ca1e40000000	0.8059226274490356
226	0x3fe2da51e0000000	0.5891503691673279
227	0xbfadd00920000000	-0.05822781100869179
228	0x3fe97491a0000000	0.7954795956611633
229	0x3fe35663c0000000	0.6042956113815308
230	0xbfa71e73a0000000	-0.04515420272946358
231	0x3fe92ca940000000	0.7867017984390259
232	0x3fe3b9ebe0000000	0.6164454817771912
233	0xbfa0f1c380000000	-0.033094510436058044
234	0x3fe8f50f40000000	0.7799144983291626
235	0x3fe4041400000000	0.6254978179931641
236	0xbf96918ac0000000	-0.02203957363963127
237	0x3fe8c2d600000000	0.7737836837768555
238	0x3fe4447ba0000000	0.6333597302436829
239	0xbf85e64740000000	-0.010693127289414406
240	0x3fe8a1cbe0000000	0.7697505354881287
241	0x3fe46d4f60000000	0.6383435130119324
242	0xbf5523df80000000	-0.0012902910821139812
243	0x3fe89171c0000000	0.7677544355392456
244	0x3fe4809820000000	0.6406975388526917
245	0x3f7fb29ce0000000	0.007738697808235884
246	0x3fe88edf40000000	0.7674404382705688
247	0x3fe4824740000000	0.640903115272522
248	0x3f91161f60000000	0.016685953363776207
249	0x3fe89c7960000000	0.7691008448600769
250	0x3fe46ffa60000000	0.6386691927909851
251	0x3f98c74b00000000	0.024197742342948914
252	0x3fe8b75220000000	0.7723780274391174
253	0x3fe44d0e40000000	0.6344062089920044
254	0x3f9fbdd620000000	0.030997605994343758
255	0x3fe8dde640000000	0.7770873308181763

continuous_index_train f8 [4600, 3]
0	0x40121471940e6429	4.519964517000553
1	0xc006f4e421e50a61	-2.869575753023398
2	0x0000000000000000	0.0
3	0xbfe2a0c3a29f07e4	-0.5821245361514653
4	0xc011df672eb6a251	-4.468167047402475
5	0x0000000000000000	0.0
6	0xc012d804311975ee	-4.710953490427967
7	0xc00afc0c687ddba6	-3.3730705417069258
8	0x0000000000000000	0.0
9	0xc014c451d0a4531c	-5.191718349484997
10	0x3fc9402904be4fbb	0.19727051478969124
11	0x0000000000000000	0.0
12	0xbffce0ace6f8bff2	-1.8048523924189763
13	0x401264bfd3d51f38	4.598388013728076
14	0x0000000000000000	0.0
15	0x400cf1f2fa372385	3.6181392238690386
16	0x402152b4c66c3cf9	8.66153545447604
17	0x0000000000000000	0.0
18	0x40292ccc7511729d	12.587497385387275
19	0x4029f0b95151dee6	12.970163861507398
20	0x0000000000000000	0.0
21	0x4034a022494603d4	20.62552316626882
22	0x4031d64576330b80	17.836997401678218
23	0x0000000000000000	0.0
24	0x403a9241cbdff48b	26.571316473175596
25	0x40381d4bc397ee96	24.11443731745984
26	0x0000000000000000	0.0
27	0x40409db02919f223	33.23193849341285
28	0x403f843ac0016d4a	31.51652145418965
29	0x0000000000000000	0.0
30	0x4044a5df667482cd	41.295880133524044
31	0x4042d53aab558e5d	37.66585294415993
32	0x0000000000000000	0.0
33	0x404a2e5b1868a799	52.36215500936596
34	0x4045bc5a3062c959	43.471502350078204
35	0x0000000000000000	0.0
36	0x405137b9f7f0e901	68.87072561766037
37	0x4047c84e26b5b88a	47.56488498566712
38	0x0000000000000000	0.0
39	0x405730a9eb405cb8	92.76037102971429
40	0x4048e42137b1ec09	49.782263719440444
41	0x0000000000000000	0.0
42	0x405f109c2c7ba502	124.25953208994545
43	0x404b0c4819ebbeef	54.09595035563495
44	0x0000000000000000	0.0
45	0x40645a5cf4dc821f	162.8238472277453
46	0x404f6a84ba378a2a	62.832175519103046
47	0x0000000000000000	0.0
48	0x406a181aaebdbf39	208.7532571512218
49	0x405284e97d0ad060	74.07675100379993
50	0x0000000000000000	0.0
51	0x4070128367d3bc83	257.15708143910905
52	0x40556b2ecc0cd417	85.67473126652509
53	0x0000000000000000	0.0
54	0x4072fad5b4179cd9	303.67717370246606
55	0x40578ac23298c5f6	94.16810288352266
56	0x0000000000000000	0.0
57	0x4075bc76276d32a1	347.77884619384173
58	0x40578c7c1d560f5d	94.19507535366343
59	0x0000000000000000	0.0
60	0x4077ef690eedcc2e	382.96314900293044
61	0x40546a7e44bd4607	81.6639568184256
62	0x0000000000000000	0.0
63	0x407983f0ae7bd748	408.2462601506745
64	0x404d34602036d662	58.409183527732935
65	0x0000000000000000	0.0
66	0x407a96109703d4a0	425.37905026909175
67	0x4037015d8b4e8492	23.0053336207098
68	0x0000000000000000	0.0
69	0x407b721e7a678334	439.13244095263076
70	0xc033f4d050728573	-19.956303623160647
71	0x0000000000000000	0.0
72	0x407c606817d7a98f	454.0254133629141
73	0xc0506d895a3b6655	-65.71150832939868
74	0x0000000000000000	0.0
75	0x407da38c442dcdac	474.2217447079845
76	0xc05b25dfae7ac56a	-108.59177743901606
77	0x0000000000000000	0.0
78	0x407f922b92ee36b1	505.13563817074015
79	0xc062722ae41720eb	-147.56773571507742
80	0x0000000000000000	0.0
81	0x4080e9176f212000	541.1364424312487
82	0xc06691efb31f23d2	-180.56051021654145
83	0x0000000000000000	0.0
84	0x40820f1d2c75d89c	577.8892449576119
85	0xc06a59ab43d885fc	-210.80215637483332
86	0x0000000000000000	0.0
87	0x40833600ee7ad515	614.750454864147
88	0xc06e79630eeb8839	-243.79334207537048
89	0x0000000000000000	0.0
90	0x40840976962efde6	641.182903639911
91	0xc0716c37f6da2004	-278.763663150836
92	0x0000000000000000	0.0
93	0x40847da6da97350f	655.7064716160838
94	0xc073b87b286e107e	-315.5300678538696
95	0x0000000000000000	0.0
96	0x4084b5cfa82549fe	662.7263949311453
97	0xc075d33e5f3777bc	-349.2027275244434
98	0x0000000000000000	0.0
99	0x4084d0cc7632a2eb	666.0998348194092
100	0xc0779d543a4cd382	-377.83306341181026
101	0x0000000000000000	0.0
102	0x408514a2fef224ec	674.5795878331678
103	0xc079036666dd155b	-400.2125004421302
104	0x0000000000000000	0.0
105	0x4085bb3c60198b3a	695.4044801707853
106	0xc07a4bc1a458012a	-420.7347758710554
107	0x0000000000000000	0.0
108	0x4086bb01623d4cea	727.3756756581399
109	0xc07bd531cc242499	-445.32465757482856
110	0x0000000000000000	0.0
111	0x4087dde9e4c7d179	763.7392058955003
112	0xc07d97a4d973895b	-473.47774644023383
113	0x0000000000000000	0.0
114	0x4088e9421018a970	797.1572572638233
115	0xc07f7851d467fda4	-503.51997795697594
116	0x0000000000000000	0.0
117	0x4089adbdb8654290	821.7176368628443
118	0xc080a9de2b1dab9c	-533.2334806745525
119	0x0000000000000000	0.0
120	0x4089e94b145f3e77	829.1616599503458
121	0xc081417cdecaac7d	-552.1859718164338
122	0x0000000000000000	0.0
123	0x4089a9f7fdb0a05f	821.2460893439237
124	0xc0817ae221f2ffef	-559.360416315494
125	0x0000000000000000	0.0
126	0x408918aadcde4e10	803.0834290855
127	0xc081579367c2cb81	-554.9469752519946
128	0x0000000000000000	0.0
129	0x408834ef0038d6ff	774.6166996422397
130	0xc08104039590e8bd	-544.5017501183535
131	0x0000000000000000	0.0
132	0x40872a8c194b9db5	741.3184076220992
133	0xc080a77c4d9c2b90	-532.9356949044031
134	0x0000000000000000	0.0
135	0x40861ca5a33b8a8c	707.5808777476936
136	0xc0808035bacad652	-528.0262351843505
137	0x0000000000000000	0.0
138	0x40850161f9c02d62	672.1728396428919
139	0xc080848de4d20956	-528.5692840966319
140	0x0000000000000000	0.0
141	0x4083ddce1b4c15d3	635.7256380027924
142	0xc08094048b857561	-530.5022192408034
143	0x0000000000000000	0.0
144	0x4082b9b101120212	599.2114278227693
145	0xc08091fad4bda548	-530.2474760833802
146	0x0000000000000000	0.0
147	0x40819af0a2f2cf04	563.367498299544
148	0xc0805860b5ca1a53	-523.047221735886
149	0x0000000000000000	0.0
150	0x408070b63adf9dd4	526.0889794797936
151	0xc07f825579b6ddc6	-504.14586802894735
152	0x0000000000000000	0.0
153	0x407e8e107154fc8f	488.87901433179735
154	0xc07d80d8890e663f	-472.0528650820233
155	0x0000000000000000	0.0
156	0x407c6f6ffdf49661	454.9648418001362
157	0xc07b0850e8def7b1	-432.51975333306024
158	0x0000000000000000	0.0
159	0x407a21784ef7b09d	418.09187218431344
160	0xc0782fbb7c06f93c	-386.9832725784688
161	0x0000000000000000	0.0
162	0x4077d5036321779f	381.3133269603076
163	0xc07551b72fc71336	-341.1072232986802
164	0x0000000000000000	0.0
165	0x4075832b092defa6	344.19800680106925
166	0xc072a443a86bf0ad	-298.2665180412685
167	0x0000000000000000	0.0
168	0x4072f5919263b17e	303.3480399984618
169	0xc07038accb04604d	-259.54218579968875
170	0x0000000000000000	0.0
171	0x40703397ab0ae352	259.22452835324395
172	0xc06c0f09ff3f4dfb	-224.46997034420187
173	0x0000000000000000	0.0
174	0x406a9b37aef950b4	212.85054730123886
175	0xc068279a3258eb68	-193.2375728356085
176	0x0000000000000000	0.0
177	0x40646b6b4bc33663	163.35684764983588
178	0xc064c365b0d6910a	-166.1061634245637
179	0x0000000000000000	0.0
180	0x405cbd4ec7fbdd24	114.95793342205121
181	0xc0620aae5f2a3e3f	-144.33378561258903
182	0x0000000000000000	0.0
183	0x4051822783440729	70.0336616672836
184	0xc0604a2b9dd7f6a0	-130.31782428913448
185	0x0000000000000000	0.0
186	0x403f63da4786d7a9	31.390049429340852
187	0xc05fbb1415e6d3f2	-126.9231009248904
188	0x0000000000000000	0.0
189	0xc012335216085fc6	-4.550117820988765
190	0xc05ffb5d16f4eccc	-127.92755674284416
191	0x0000000000000000	0.0
192	0xc041f1307fa7fbda	-35.88429256155332
193	0xc060c873b19baab0	-134.26412277606642
194	0x0000000000000000	0.0
195	0xc0501765b35f1ea7	-64.36558231629407
196	0xc061b6c90903ec62	-141.71204043165477
197	0x0000000000000000	0.0
198	0xc056e5270df5fc20	-91.58050869962653
199	0xc062446b9b81b7ee	-146.1381356748165
200	0x0000000000000000	0.0
201	0xc05cdf744091984d	-115.4914704725099
202	0xc06263ffb5663cce	-147.12496442764535
203	0x0000000000000000	0.0
204	0xc0609b181ce66fbc	-132.8466934681618
205	0xc0621871c28e8047	-144.76388671715014
206	0x0000000000000000	0.0
207	0xc061cb57d6488f04	-142.35447229549038
208	0xc06120e8e94b4a35	-137.02843155579617
209	0x0000000000000000	0.0
210	0xc06194a606085d3c	-140.64526654847748
211	0xc05f1ffb8dff6f7c	-124.49972867913124
212	0x0000000000000000	0.0
213	0xc05fe3b3cd991272	-127.55784931133692
214	0xc05b43b16f6afe01	-109.05770478676278
215	0x0000000000000000	0.0
216	0xc05b01ae36ec38d4	-108.02625821178964
217	0xc056dbedbd0cab83	-91.43638540494253
218	0x0000000000000000	0.0
219	0xc05657b96bc63cd9	-89.37069219931745
220	0xc052133244ea11c8	-72.29994318827005
221	0x0000000000000000	0.0
222	0xc0526077d65fdf22	-73.50731429445707
223	0xc04c22220231375b	-56.26666285899292
224	0x0000000000000000	0.0
225	0xc04f82b0e1bfe6c1	-63.021023005201194
226	0xc046ef0a335bc114	-45.8674987981814
227	0x0000000000000000	0.0
228	0xc04ce4f79077a1e1	-57.78880506364272
229	0xc044f096e0aa75a5	-41.87960441897602
230	0x0000000000000000	0.0
231	0xc04ae99783f3e258	-53.824936384281216
232	0xc0456aa7412c93d3	-42.83322920490868
233	0x0000000000000000	0.0
234	0xc04802722c80c44b	-48.01910930907669
235	0xc046e301c3bbb016	-45.77349135078855
236	0x0000000000000000	0.0
237	0xc0445623bb0b2395	-40.67296541255852
238	0xc047d5209bfb15a8	-47.665057656860256
239	0x0000000000000000	0.0
240	0xc03f6d536677472e	-31.42705383693754
241	0xc047336c1ebba300	-46.40173706209134
242	0x0000000000000000	0.0
243	0xc035238dc47757b5	-21.138881949554804
244	0xc044cd7da08eafdb	-41.605396337195735
245	0x0000000000000000	0.0
246	0xc0288b72b88194ea	-12.272359624689177
247	0xc04113894f9f87d5	-34.15262790002422
248	0x0000000000000000	0.0
249	0xc0140d3fedda4097	-5.012939182706893
250	0xc039662c0a6f1a16	-25.399109508633124
251	0x0000000000000000	0.0
252	0xbfe648579e835d9f	-0.6963308425865086
253	0xc0313eb3bf8b8bef	-17.244930240220068
254	0x0000000000000000	0.0
255	0x3feadf98a908103a	0.8397944737812459

continuous_index_test f8 [1200, 3]
0	0xbff61ad89e153e17	-1.3815542388073305
1	0x3fd9b7bf13578f3d	0.401839989556027
2	0x0000000000000000	0.0
3	0xbfef3b3f5ad03283	-0.975982358331365
4	0xbfd6b2b201150fa8	-0.3546566973275227
5	0x0000000000000000	0.0
6	0x3fe6400dd54dbf96	0.6953190961921674
7	0xbfec4eb10d5efdc9	-0.8846059094575419
8	0x0000000000000000	0.0
9	0x400d5444cdd9f665	3.6661468584195966
10	0xbfd7d1d51afbd07b	-0.37218215594408094
11	0x0000000000000000	0.0
12	0x401ab53daa454f30	6.67699304626494
13	0x3fd5848acb0d0f18	0.3362147314949069
14	0x0000000000000000	0.0
15	0x4021094278ce2add	8.518085265318797
16	0x3ff2412ca128439b	1.1409117026525795
17	0x0000000000000000	0.0
18	0x40211e7b74951999	8.559535639954264
19	0x3ffaa622b7cf1e0e	1.6655604534188373
20	0x0000000000000000	0.0
21	0x401af66310ab66fd	6.740612278424803
22	0xbff0e6676dbcab2d	-1.0562509810067227
23	0x0000000000000000	0.0
24	0x4013136e43dd13b9	4.768975315445396
25	0xc01ea1989ef1ba1d	-7.657808764938207
26	0x0000000000000000	0.0
27	0x400ec1a5faba1847	3.8445548618356358
28	0xc032ee79a658267e	-18.9315437283717
29	0x0000000000000000	0.0
30	0x4012ae9a26da9c89	4.670509917347894
31	0xc0417c2dd769389c	-34.970148970010285
32	0x0000000000000000	0.0
33	0x401b34aa2d98f23c	6.801430427990052
34	0xc04ba1db20dbac7f	-55.26449976660023
35	0x0000000000000000	0.0
36	0x4020750fe44f13bc	8.228636870053258
37	0xc053904cf91f423f	-78.2546980672132
38	0x0000000000000000	0.0
39	0x401e51903770d301	7.57965170503735
40	0xc0594d048616675a	-101.20340110957969
41	0x0000000000000000	0.0
42	0x400d7a75f5868dfd	3.684795301598341
43	0xc05ef624245ea58b	-123.84595593684041
44	0x0000000000000000	0.0
45	0xc0067829c1eb109d	-2.8086733960972894
46	0xc062086d590b0185	-144.26334812306973
47	0x0000000000000000	0.0
48	0xc023651932ba7036	-9.697457871683678
49	0xc063f120dad6da8f	-159.53526060069677
50	0x0000000000000000	0.0
51	0xc02d82f02620371e	-14.755738440926105
52	0xc0657d477ca2d6f1	-171.91497642330754
53	0x0000000000000000	0.0
54	0xc02f4235c9242f74	-15.629316602389487
55	0xc06689ae3a8bb94d	-180.3025181511861
56	0x0000000000000000	0.0
57	0xc028aec0d9f67303	-12.341315089544429
58	0xc0671fd6e198eb4e	-184.99498062006973
59	0x0000000000000000	0.0
60	0xc016a9fa0ffe0d6a	-5.66599297512162
61	0xc06788937f20af1f	-188.2680049551354
62	0x0000000000000000	0.0
63	0x3ffc99672a52ebc1	1.7874519017484405
64	0xc06851919af97434	-194.549024092879
65	0x0000000000000000	0.0
66	0x401d2e66d7e0a319	7.295314190946351
67	0xc069c189f0a6e01d	-206.0480883845602
68	0x0000000000000000	0.0
69	0x40201631210ee813	8.04334357554402
70	0xc06c002b1c9a1211	-224.00526266185673
71	0x0000000000000000	0.0
72	0x4010bb290bec76e0	4.182773767764701
73	0xc06f6433801d89cd	-251.1312866761131
74	0x0000000000000000	0.0
75	0xc0089cb4e6f239d6	-3.0765169184371457
76	0xc071bb4501278778	-283.70434680405697
77	0x0000000000000000	0.0
78	0xc0281a9a1a3362b2	-12.051956957600257
79	0xc073be681703899a	-315.9004125726875
80	0x0000000000000000	0.0
81	0xc032ed0d76229b8f	-18.925986655663618
82	0xc075d2e90fde6b38	-349.18189989931443
83	0x0000000000000000	0.0
84	0xc035ad6ed704a7d0	-21.67747253287945
85	0xc0779bf6abd50ffe	-377.74772246577766
86	0x0000000000000000	0.0
87	0xc034e8877a7cbd7b	-20.90831723733343
88	0xc0790a2c1f05c449	-400.6357717728866
89	0x0000000000000000	0.0
90	0xc031f3a502d98ce8	-17.951736620057005
91	0xc07a400b0151a956	-420.002686804762
92	0x0000000000000000	0.0
93	0xc02a477e0616c4c2	-13.139633360175484
94	0xc07b53e18e914e0c	-437.24256760368075
95	0x0000000000000000	0.0
96	0xc01dfc07ee592d40	-7.496124004547994
97	0xc07c894d4902ec13	-456.581368457236
98	0x0000000000000000	0.0
99	0xbff6b216357f5215	-1.4184782113781058
100	0xc07e1f8145fa77f0	-481.9690608772207
101	0x0000000000000000	0.0
102	0x40220ccef56fa8cd	9.025016469841285
103	0xc08012c5811076a1	-514.3464375768855
104	0x0000000000000000	0.0
105	0x4037e6b9a85e0d79	23.90127041145522
106	0xc0813211a0aa061b	-550.2586072238076
107	0x0000000000000000	0.0
108	0x40457f7585c8c4fe	42.99577400496672
109	0xc082467af6f4e54c	-584.8100413448788
110	0x0000000000000000	0.0
111	0x4050b41d1dce0669	66.81427712554581
112	0xc08336c6e05f2f76	-614.8471076427802
113	0x0000000000000000	0.0
114	0x4056e5814f9f4077	91.58601751853881
115	0xc083c3559e4d26c6	-632.4168058421571
116	0x0000000000000000	0.0
117	0x405cc2623fad8961	115.03724662730157
118	0xc083dceecb508c8d	-635.6165987294095
119	0x0000000000000000	0.0
120	0x4060f14a06244a57	135.54028613174407
121	0xc083a5029157f0bf	-628.6262537832589
122	0x0000000000000000	0.0
123	0x40635fea519e8b09	154.99735337224436
124	0xc08332e33ba81d9c	-614.3609536298786
125	0x0000000000000000	0.0
126	0x4065f546a7bc3d0b	175.66487490430185
127	0xc082afa9348e91e7	-597.9576197756077
128	0x0000000000000000	0.0
129	0x4068eabf5e5c81e2	199.33586042468875
130	0xc08244f67509a289	-584.6203404190757
131	0x0000000000000000	0.0
132	0x406c7d40b44a0465	227.9141484685562
133	0xc081f33c7140741b	-574.4045128856118
134	0x0000000000000000	0.0
135	0x407024071b998d1b	258.2517353056043
136	0xc0819c88fb24cdab	-563.5668852687135
137	0x0000000000000000	0.0
138	0x4071d52bad787065	285.32316348120213
139	0xc08125a35c869f5b	-548.7047663228399
140	0x0000000000000000	0.0
141	0x4073539b0a2c8be0	309.2253514995664
142	0xc08087bbc225e0de	-528.9666789016007
143	0x0000000000000000	0.0
144	0x40746b4fb0d510cc	326.70695574978595
145	0xc07f6be35182603e	-502.7429976551829
146	0x0000000000000000	0.0
147	0x40751cfc8c3c6bd3	337.81165717699076
148	0xc07d790f526e4c24	-471.56624072155887
149	0x0000000000000000	0.0
150	0x40759bd1173043bd	345.73854750493393
151	0xc07ba90874f6b0ca	-442.56456467021474
152	0x0000000000000000	0.0
153	0x407624331c14ecd1	354.2624779527078
154	0xc079e865d336ed11	-414.5248596330212
155	0x0000000000000000	0.0
156	0x4076d1cbe96d84f1	365.1122831609819
157	0xc07852185b64d4a5	-389.1309465349862
158	0x0000000000000000	0.0
159	0x4077bf1c3794bd35	379.9443889436837
160	0xc076fefaf690dd02	-367.9362702997897
161	0x0000000000000000	0.0
162	0x407910fc84163447	401.0616494052269
163	0xc075adbe35430fe8	-346.8589375133147
164	0x0000000000000000	0.0
165	0x407a97a4fd7d00d2	425.4777808077753
166	0xc07445e6414ec263	-324.3687146259819
167	0x0000000000000000	0.0
168	0x407c0b07d9289810	448.6894160829261
169	0xc072bbdf5b6619b3	-299.7420305240914
170	0x0000000000000000	0.0
171	0x407d7dc36dcf6311	471.8602121449522
172	0xc07104510fc3567c	-272.26979042342987
173	0x0000000000000000	0.0
174	0x407e8770aa47332a	488.46500613987394
175	0xc06e5132f4af75d3	-242.5374701907118
176	0x0000000000000000	0.0
177	0x407f0f0689ce0de7	496.93909626474345
178	0xc06a8ac753107555	-212.33683160032766
179	0x0000000000000000	0.0
180	0x407f49a6f6d5dd70	500.603262744341
181	0xc06711d6ae00fc69	-184.55745601837705
182	0x0000000000000000	0.0
183	0x407f5eaff2454f46	501.9179556567582
184	0xc0636437859948c2	-155.13177757204363
185	0x0000000000000000	0.0
186	0x407fa1264628de6e	506.07184425320054
187	0xc05fa73931fa0262	-126.61286591925594
188	0x0000000000000000	0.0
189	0x408025690ce0194a	516.6762940890997
190	0xc0591f3fa1e19b77	-100.48825881034814
191	0x0000000000000000	0.0
192	0x4080b92cb99a210a	535.146838382848
193	0xc053251ba613a82e	-76.57981254500984
194	0x0000000000000000	0.0
195	0x408162e481912826	556.3615752544763
196	0xc04c50bdd2128c03	-56.630792864853014
197	0x0000000000000000	0.0
198	0x4081ed99220d16b5	573.6997719786219
199	0xc04518e19622e2c3	-42.19438435271652
200	0x0000000000000000	0.0
201	0x40824ab628e4b4ff	585.3389451854454
202	0xc03e529894f139eb	-30.322640713589788
203	0x0000000000000000	0.0
204	0x40824d96143fdb48	585.6982808102412
205	0xc032d565ff524d21	-18.83358760604199
206	0x0000000000000000	0.0
207	0x4081f7b1d559628f	574.9618327124789
208	0xc01c83e1eddb983b	-7.1287915387420595
209	0x0000000000000000	0.0
210	0x40817fee1352ba82	559.9912477934997
211	0x40138ad64bf43598	4.885583102016788
212	0x0000000000000000	0.0
213	0x4081009cae0ad185	544.0765038342657
214	0x4032595b6fd1ac83	18.34905146473876
215	0x0000000000000000	0.0
216	0x4080a8db23cec99a	533.1070018916391
217	0x403d7a935a14ba6e	29.478810911236387
218	0x0000000000000000	0.0
219	0x40809d28fbe0ccac	531.6450116693936
220	0x404224c03a282a95	36.2871163078427
221	0x0000000000000000	0.0
222	0x4080db799936fccd	539.4343742652796
223	0x4044c67665c46e1c	41.550488205826895
224	0x0000000000000000	0.0
225	0x40813e96dd99e899	551.8236648582562
226	0x40476192df2f7721	46.762294672180595
227	0x0000000000000000	0.0
228	0x408196aa49d70aad	562.8331486511357
229	0x404adcc398fc6a0f	53.72471916508595
230	0x0000000000000000	0.0
231	0x4081ce5afd4a091b	569.7944284233121
232	0x40505e7abca24cd6	65.47624126290916
233	0x0000000000000000	0.0
234	0x4081b39146863a3a	566.4459352957267
235	0x40541c97c7b05ff0	80.44676391815278
236	0x0000000000000000	0.0
237	0x40814c2cd1afa598	553.5218843195353
238	0x405795c38ecdc572	94.34006090254641
239	0x0000000000000000	0.0
240	0x4080c929f696548e	537.1454898590616
241	0x405a580aefb584d6	105.37566750265555
242	0x0000000000000000	0.0
243	0x40802c1a74384c4f	517.5129169843948
244	0x405c4f43744c00b6	113.23849208280703
245	0x0000000000000000	0.0
246	0x407f5208852b8b76	501.127080125901
247	0x405dc412063c88eb	119.06360011970143
248	0x0000000000000000	0.0
249	0x407ec8f81274e27f	492.5605644765673
250	0x405f362ba4abd398	124.84641377239166
251	0x0000000000000000	0.0
252	0x407ea1c2be492ce5	490.1100447519696
253	0x40609fde25a08d1d	132.9958675513998
254	0x0000000000000000	0.0
255	0x407ea61f08eb9217	490.38257686633864
