NeuroAI/Neural Embeddings Rank Aligning 3D latent dynamics with movements/NER/data_NER/Fig8/Type_ curve-straight=[38]_parameters_5000itr_lr0.0001.npz (npz, 444844 bytes, 7 tensors)

train_loss_stable f4 [5000]
0	0x40be0923	5.9386153
1	0x40be0a59	5.938763
2	0x40be0a8d	5.938788
3	0x40be0868	5.938526
4	0x40be08c6	5.938571
5	0x40be0c39	5.938992
6	0x40be09c3	5.9386916
7	0x40be0b1a	5.938855
8	0x40be0f10	5.9393387
9	0x40be0a70	5.938774
10	0x40be0907	5.938602
11	0x40be0941	5.9386296
12	0x40be0800	5.9384766
13	0x40be0760	5.9384003
14	0x40be086f	5.9385295
15	0x40be0a9c	5.938795
16	0x40be086d	5.9385285
17	0x40be05c8	5.9382057
18	0x40be06f5	5.9383492
19	0x40be05d5	5.938212
20	0x40be076a	5.938405
21	0x40be07ad	5.938437
22	0x40be0720	5.9383698
23	0x40be091a	5.938611
24	0x40be0719	5.9383664
25	0x40be0d0b	5.939092
26	0x40be0546	5.9381437
27	0x40be08c0	5.938568
28	0x40be044b	5.938024
29	0x40be0485	5.9380517
30	0x40be01c3	5.937715
31	0x40be03a5	5.937945
32	0x40be08e5	5.9385858
33	0x40be081a	5.938489
34	0x40be052a	5.9381304
35	0x40be0349	5.937901
36	0x40be045f	5.9380336
37	0x40be0258	5.937786
38	0x40be0258	5.937786
39	0x40be007a	5.937558
40	0x40be0042	5.9375315
41	0x40be02ef	5.937858
42	0x40be029b	5.937818
43	0x40be01ef	5.937736
44	0x40bdff1f	5.9373927
45	0x40be0701	5.938355
46	0x40bdff43	5.93741
47	0x40bdfde1	5.937241
48	0x40bdfe0c	5.9372616
49	0x40be030a	5.937871
50	0x40bdfe2d	5.9372773
51	0x40bdfb0b	5.936895
52	0x40bdfc24	5.937029
53	0x40bdfcd3	5.9371123
54	0x40bdff73	5.937433
55	0x40bdfa93	5.9368377
56	0x40bdfb10	5.9368973
57	0x40bdfbae	5.9369726
58	0x40bdf6ef	5.9363933
59	0x40bdf9ba	5.936734
60	0x40bdf551	5.936196
61	0x40bdf760	5.936447
62	0x40bdf5f0	5.9362717
63	0x40bdf8c7	5.9366183
64	0x40bdf7cb	5.936498
65	0x40bdf819	5.9365354
66	0x40bdf53d	5.9361863
67	0x40bdf753	5.936441
68	0x40bdf6eb	5.9363914
69	0x40bdf14c	5.935705
70	0x40bdf515	5.9361672
71	0x40bdee65	5.935351
72	0x40bdf13f	5.935699
73	0x40bdf49c	5.9361095
74	0x40bdecd9	5.935162
75	0x40bdeabf	5.9349055
76	0x40bdef20	5.93544
77	0x40bdf385	5.9359765
78	0x40bdebcb	5.9350333
79	0x40bdefbc	5.9355145
80	0x40bde89d	5.934645
81	0x40bde9dd	5.934798
82	0x40bde8e3	5.9346786
83	0x40bde72a	5.9344683
84	0x40bde9f7	5.93481
85	0x40bde604	5.934328
86	0x40bde407	5.9340854
87	0x40bde232	5.9338617
88	0x40bde218	5.9338493
89	0x40bde16a	5.9337664
90	0x40bddfc7	5.9335666
91	0x40bdda6e	5.932914
92	0x40bdd9df	5.9328456
93	0x40bde370	5.9340134
94	0x40bde35f	5.9340053
95	0x40bdd857	5.9326587
96	0x40bdd41d	5.9321427
97	0x40bdd647	5.932407
98	0x40bddf3b	5.9335
99	0x40bdd6cf	5.9324718
100	0x40bdca3e	5.930938
101	0x40bdcfb2	5.9316034
102	0x40bdcd73	5.9313293
103	0x40bdcccd	5.93125
104	0x40bdc831	5.9306874
105	0x40bdc993	5.930856
106	0x40bdc610	5.9304276
107	0x40bdc76c	5.9305935
108	0x40bdbfba	5.929654
109	0x40bdc354	5.930094
110	0x40bdc589	5.930363
111	0x40bdbccf	5.929298
112	0x40bdbcea	5.929311
113	0x40bdbcb4	5.929285
114	0x40bdb12b	5.927877
115	0x40bdb474	5.928278
116	0x40bda80d	5.926764
117	0x40bda9d0	5.926979
118	0x40bda86d	5.92681
119	0x40bda386	5.9262114
120	0x40bda18d	5.9259706
121	0x40bda054	5.9258213
122	0x40bda1e3	5.9260116
123	0x40bd9e62	5.925584
124	0x40bd8f5c	5.92375
125	0x40bd901d	5.923842
126	0x40bd8b49	5.9232526
127	0x40bd8a0b	5.923101
128	0x40bd8858	5.9228935
129	0x40bd81b4	5.922083
130	0x40bd7c33	5.921411
131	0x40bd75e6	5.920642
132	0x40bd777f	5.920837
133	0x40bd7405	5.9204125
134	0x40bd639a	5.9184084
135	0x40bd6b01	5.919312
136	0x40bd54c5	5.916598
137	0x40bd49d2	5.9152613
138	0x40bd56a6	5.916827
139	0x40bd4edc	5.9158764
140	0x40bd381e	5.9131002
141	0x40bd3064	5.912157
142	0x40bd3bba	5.913541
143	0x40bd21cf	5.910377
144	0x40bd374b	5.9129996
145	0x40bd1ba4	5.909624
146	0x40bcf8b0	5.9053574
147	0x40bd3493	5.9126678
148	0x40bd03f8	5.9067345
149	0x40bcedf2	5.904046
150	0x40bce2e8	5.9026985
151	0x40bce68d	5.9031434
152	0x40bcaa8e	5.8958197
153	0x40bce0d7	5.9024463
154	0x40bcdac1	5.9017034
155	0x40bcac9c	5.8960705
156	0x40bc75a6	5.8893614
157	0x40bc59d7	5.885967
158	0x40bc8401	5.8911138
159	0x40bc4e5b	5.884565
160	0x40bc41f8	5.883053
161	0x40bc6113	5.88685
162	0x40bc405c	5.8828564
163	0x40bc25dd	5.879622
164	0x40bc19cc	5.878149
165	0x40bc2dda	5.880597
166	0x40bbb005	5.8652368
167	0x40bbab1e	5.8646383
168	0x40bbd306	5.8695097
169	0x40bbb93f	5.866363
170	0x40bb8779	5.860287
171	0x40badd2a	5.8394976
172	0x40bb002e	5.843772
173	0x40bb348c	5.8501644
174	0x40bac019	5.8359494
175	0x40bb0bdb	5.845197
176	0x40bab767	5.834888
177	0x40bae7f5	5.840815
178	0x40ba8ffb	5.8300757
179	0x40bbb61b	5.8659797
180	0x40ba47cb	5.821264
181	0x40baa3fc	5.8325176
182	0x40bafc0f	5.843269
183	0x40baaee1	5.8338475
184	0x40ba5d2f	5.823875
185	0x40bafa35	5.843043
186	0x40ba2e75	5.818171
187	0x40ba9188	5.830265
188	0x40ba31d6	5.8185835
189	0x40bacb98	5.8373528
190	0x40ba8089	5.8281903
191	0x40ba4747	5.821201
192	0x40ba793e	5.8273
193	0x40ba544c	5.82279
194	0x40ba02f4	5.8128605
195	0x40b9dc83	5.808168
196	0x40ba8010	5.8281326
197	0x40ba5379	5.8226895
198	0x40b9f4f4	5.8111515
199	0x40ba415c	5.8204784
200	0x40ba8241	5.8284
201	0x40ba635c	5.824629
202	0x40ba60d3	5.8243194
203	0x40ba2d82	5.818055
204	0x40ba2cd8	5.817974
205	0x40ba085c	5.8135204
206	0x40ba5600	5.822998
207	0x40ba3c57	5.8198657
208	0x40ba3f2f	5.820213
209	0x40ba2151	5.816567
210	0x40b93d46	5.7887297
211	0x40ba5b7f	5.823669
212	0x40b9e50a	5.809209
213	0x40b9cb90	5.806099
214	0x40b94aeb	5.7903953
215	0x40b9d17c	5.806822
216	0x40ba1a7b	5.8157325
217	0x40b99848	5.799839
218	0x40b9e44d	5.8091187
219	0x40b9db4b	5.808019
220	0x40b99a6e	5.8001013
221	0x40b9b890	5.8037796
222	0x40b9e341	5.808991
223	0x40b9ab6e	5.8021765
224	0x40b9cf8b	5.806585
225	0x40b9b765	5.803637
226	0x40b9f18d	5.810736
227	0x40b99237	5.7990985
228	0x40b9c99d	5.805861
229	0x40b975db	5.7956367
230	0x40b937a8	5.788044
231	0x40b9667b	5.79376
232	0x40b8e79d	5.778273
233	0x40b911af	5.7834086
234	0x40b9d527	5.8072696
235	0x40b99dd8	5.800518
236	0x40b9df5f	5.808517
237	0x40b9bddc	5.804426
238	0x40b93f6a	5.788991
239	0x40b977e8	5.795887
240	0x40b940d1	5.789162
241	0x40b9870d	5.7977357
242	0x40b9fffc	5.812498
243	0x40b93ad9	5.7884336
244	0x40b93e8d	5.7888856
245	0x40b8ce37	5.7751727
246	0x40b924e7	5.7857547
247	0x40b903b9	5.7817044
248	0x40b918f8	5.784298
249	0x40b92a6c	5.7864285
250	0x40b8df79	5.7772794
251	0x40b9217b	5.785337
252	0x40b95af9	5.792355
253	0x40b8d7d9	5.7763486
254	0x40b8faa4	5.780596
255	0x40b8a8d3	5.7706084

cebra_veldir_train f8 [5200, 3]
0	0x3fed8efb40000000	0.9237037897109985
1	0x3fa3dcf360000000	0.038795094937086105
2	0x3fd8649080000000	0.3811379671096802
3	0x3fed971e20000000	0.9246969819068909
4	0x3fa4f54dc0000000	0.04093401879072189
5	0x3fd8394ae0000000	0.37849685549736023
6	0x3fed9ea220000000	0.9256144165992737
7	0x3fa5a26640000000	0.04225463420152664
8	0x3fd8120d00000000	0.3761017322540283
9	0x3feda6f020000000	0.9266281723976135
10	0x3fa5dd1de0000000	0.04270261153578758
11	0x3fd7e82da0000000	0.3735460340976715
12	0x3fedaf2200000000	0.9276285171508789
13	0x3fa5affa00000000	0.042358219623565674
14	0x3fd7c002c0000000	0.37109440565109253
15	0x3fedb62760000000	0.9284855723381042
16	0x3fa5391d80000000	0.04145137965679169
17	0x3fd79e7a40000000	0.36904770135879517
18	0x3fedba76a0000000	0.9290116429328918
19	0x3fa4786900000000	0.03998115658760071
20	0x3fd78b6aa0000000	0.3678843080997467
21	0x3fedbcfde0000000	0.9293202757835388
22	0x3fa39ac420000000	0.03829014673829079
23	0x3fd7819540000000	0.3672841191291809
24	0x3fedbd52e0000000	0.9293608069419861
25	0x3fa29457a0000000	0.03628801181912422
26	0x3fd7833b60000000	0.36738476157188416
27	0x3fedb86300000000	0.9287581443786621
28	0x3fa1abe440000000	0.03451455384492874
29	0x3fd79ef060000000	0.36907586455345154
30	0x3fedb3dba0000000	0.9282053112983704
31	0x3f9f950fa0000000	0.03084206022322178
32	0x3fd7bafd60000000	0.37078794836997986
33	0x3feda9e9c0000000	0.92699134349823
34	0x3f9c048b60000000	0.027361085638403893
35	0x3fd7f0fb40000000	0.37408334016799927
36	0x3fed997300000000	0.9249815940856934
37	0x3f975ef240000000	0.02282312884926796
38	0x3fd846e040000000	0.3793259263038635
39	0x3fed8510a0000000	0.9224932789802551
40	0x3f91645f60000000	0.016984453424811363
41	0x3fd8ae5060000000	0.3856392800807953
42	0x3fed68e020000000	0.9190521836280823
43	0x3f8282e060000000	0.00903868954628706
44	0x3fd937d2e0000000	0.39403221011161804
45	0x3fed3ce4e0000000	0.9136833548545837
46	0x3f625a9320000000	0.002240455010905862
47	0x3fda02cb40000000	0.4064205288887024
48	0x3fed06bd00000000	0.9070725440979004
49	0xbf87ad5b60000000	-0.011561120860278606
50	0x3fdaeea400000000	0.42081546783447266
51	0x3fecb6e340000000	0.8973251581192017
52	0xbf9f5d4560000000	-0.030629238113760948
53	0x3fdc2df940000000	0.44030600786209106
54	0x3fec39cc00000000	0.8820552825927734
55	0xbfae4b6c80000000	-0.059169188141822815
56	0x3fddea23a0000000	0.4674157202243805
57	0x3feb669700000000	0.8562731742858887
58	0xbfb9c4bf00000000	-0.1006583571434021
59	0x3fe0363ba0000000	0.5066202282905579
60	0x3fe9e49b80000000	0.8091561794281006
61	0xbfc658d780000000	-0.1745862364768982
62	0x3fe1f42fc0000000	0.5610579252243042
63	0x3fe68002e0000000	0.7031263709068298
64	0xbfd3582f00000000	-0.3022572994232178
65	0x3fe49894a0000000	0.6436255574226379
66	0x3fda978840000000	0.4154987931251526
67	0xbfe135c420000000	-0.5378132462501526
68	0x3fe7795d40000000	0.7335649728775024
69	0xbfc87896e0000000	-0.19118009507656097
70	0xbfe857e940000000	-0.7607313394546509
71	0x3fe3d945c0000000	0.6202725172042847
72	0xbfe4d384a0000000	-0.6508200764656067
73	0xbfe68b5480000000	-0.7045080661773682
74	0x3fd21d0900000000	0.2830221652984619
75	0xbfe9be5c40000000	-0.8044873476028442
76	0xbfe2dde2c0000000	-0.5895856618881226
77	0x3fb270d1c0000000	0.07203398644924164
78	0xbfeb39bf00000000	-0.8507990837097168
79	0xbfe0bb7700000000	-0.5228838920593262
80	0xbfaac48e00000000	-0.05228084325790405
81	0xbfebc63be0000000	-0.8679484724998474
82	0xbfdecbc900000000	-0.4811880588531494
83	0xbfbf7b7e40000000	-0.1229781061410904
84	0xbfebef68e0000000	-0.8729748129844666
85	0xbfdd3b2020000000	-0.45673373341560364
86	0xbfc5e9dce0000000	-0.17119942605495453
87	0xbfebd3a320000000	-0.8695846199989319
88	0xbfdc9f83e0000000	-0.447236031293869
89	0xbfcaca08e0000000	-0.20929060876369476
90	0xbfeb88c360000000	-0.8604447245597839
91	0xbfdcd0ef60000000	-0.45025238394737244
92	0xbfce88e8c0000000	-0.23855313658714294
93	0xbfeb339380000000	-0.850045919418335
94	0xbfdd366280000000	-0.4564443826675415
95	0xbfd0d23a60000000	-0.26283130049705505
96	0xbfead63620000000	-0.8386488556861877
97	0xbfddc99720000000	-0.4654290974140167
98	0xbfd21b5e00000000	-0.28292036056518555
99	0xbfea675280000000	-0.8251125812530518
100	0xbfde995fe0000000	-0.47811123728752136
101	0xbfd34386e0000000	-0.3009965121746063
102	0xbfe9dd8460000000	-0.8082906603813171
103	0xbfdfb629c0000000	-0.4954933524131775
104	0xbfd45ad900000000	-0.31804490089416504
105	0xbfe9513120000000	-0.7911611199378967
106	0xbfe06e9c60000000	-0.513502299785614
107	0xbfd5435340000000	-0.3322342038154602
108	0xbfe8b469e0000000	-0.7720231413841248
109	0xbfe11589e0000000	-0.5338792204856873
110	0xbfd612c6e0000000	-0.3448960483074188
111	0xbfe81e5020000000	-0.753700315952301
112	0xbfe1b18a80000000	-0.5529224872589111
113	0xbfd6bca5c0000000	-0.3552641272544861
114	0xbfe7861f80000000	-0.7351224422454834
115	0xbfe250d240000000	-0.5723658800125122
116	0xbfd7406d60000000	-0.36330732703208923
117	0xbfe6e440c0000000	-0.7153629064559937
118	0xbfe2f83b60000000	-0.5928017497062683
119	0xbfd7accae0000000	-0.36992141604423523
120	0xbfe64ef5c0000000	-0.6971386671066284
121	0xbfe38e1ac0000000	-0.6110967397689819
122	0xbfd7fe8b20000000	-0.3749110996723175
123	0xbfe5b4b9a0000000	-0.6783111691474915
124	0xbfe42d3d80000000	-0.6305224895477295
125	0xbfd8253fa0000000	-0.37727347016334534
126	0xbfe513b600000000	-0.658656120300293
127	0xbfe4d4bcc0000000	-0.6509689092636108
128	0xbfd826e7e0000000	-0.3773746192455292
129	0xbfe4816780000000	-0.640796422958374
130	0xbfe56afce0000000	-0.6693100333213806
131	0xbfd810fee0000000	-0.3760373294353485
132	0xbfe3ffcc20000000	-0.6249752640724182
133	0xbfe5f49120000000	-0.6861043572425842
134	0xbfd7d51260000000	-0.372379869222641
135	0xbfe3960740000000	-0.612064003944397
136	0xbfe6703c00000000	-0.7012004852294922
137	0xbfd766b600000000	-0.3656439781188965
138	0xbfe30a48e0000000	-0.595005452632904
139	0xbfe6fd8f80000000	-0.7184522151947021
140	0xbfd70eabe0000000	-0.3602704703807831
141	0xbfe2ab4080000000	-0.5834047794342041
142	0xbfe7725600000000	-0.7327070236206055
143	0xbfd66cf000000000	-0.3503990173339844
144	0xbfe21bd360000000	-0.5658966898918152
145	0xbfe817dbc0000000	-0.7529124021530151
146	0xbfd580bac0000000	-0.3359820246696472
147	0xbfe18ae280000000	-0.548203706741333
148	0xbfe8b6e220000000	-0.7723246216773987
149	0xbfd489e4e0000000	-0.32091638445854187
150	0xbfe0fbb880000000	-0.5307276248931885
151	0xbfe95889c0000000	-0.7920578718185425
152	0xbfd34dafc0000000	-0.3016166090965271
153	0xbfe02a4f40000000	-0.5051647424697876
154	0xbfea230100000000	-0.8167729377746582
155	0xbfd1d6b700000000	-0.2787301540374756
156	0xbfde6fc520000000	-0.4755719006061554
157	0xbfeaf66d60000000	-0.8425814509391785
158	0xbfd02d3a00000000	-0.2527604103088379
159	0xbfdb3d2a40000000	-0.42560821771621704
160	0xbfec13a720000000	-0.8773990273475647
161	0xbfcc579ea0000000	-0.22142393887043
162	0xbfd7431960000000	-0.3634704053401947
163	0xbfed3f2cc0000000	-0.9139617681503296
164	0xbfc71912a0000000	-0.18045265972614288
165	0xbfd1582320000000	-0.27100446820259094
166	0xbfee86f9a0000000	-0.9539764523506165
167	0xbfc06f4540000000	-0.1283957064151764
168	0xbfc16c4420000000	-0.13611651957035065
169	0xbfefa317a0000000	-0.9886587262153625
170	0xbfb03e6a40000000	-0.06345237791538239
171	0x3fa6010120000000	0.042976412922143936
172	0xbfeff7c9c0000000	-0.9989975690841675
173	0x3f89a6e480000000	0.012525353580713272
174	0x3fd07e01e0000000	0.2576908767223358
175	0xbfeebf2420000000	-0.9608326554298401
176	0x3fba1a1580000000	0.10196051001548767
177	0x3fde5fa4a0000000	0.4745875895023346
178	0xbfeb946dc0000000	-0.8618687391281128
179	0x3fc6e10b20000000	0.17874278128147125
180	0x3fe4c4b200000000	0.6490106582641602
181	0xbfe72ddfc0000000	-0.724349856376648
182	0x3fcdc5cea0000000	0.23259909451007843
183	0x3fe88c9640000000	0.76716148853302
184	0xbfe2c2a520000000	-0.5862603783607483
185	0x3fd0a8f0e0000000	0.2603113353252411
186	0x3feae27a20000000	0.8401461243629456
187	0xbfde0fa040000000	-0.469703733921051
188	0x3fd15ad740000000	0.2711694836616516
189	0x3fec5979c0000000	0.8859223127365112
190	0xbfd806b880000000	-0.37541019916534424
191	0x3fd16f3720000000	0.272413045167923
192	0x3fed3f2440000000	0.9139577150344849
193	0xbfd37f5ea0000000	-0.3046490252017975
194	0x3fd1285380000000	0.268086314201355
195	0x3fedd39740000000	0.9320789575576782
196	0xbfd0031ce0000000	-0.25018998980522156
197	0x3fd0c44a20000000	0.2619805634021759
198	0x3fee395780000000	0.9444997310638428
199	0xbfcaa39ea0000000	-0.20811827480793
200	0x3fd04478c0000000	0.2541791796684265
201	0x3fee7c3180000000	0.952660322189331
202	0xbfc69ff2e0000000	-0.17675624787807465
203	0x3fcfaa0e40000000	0.2473771870136261
204	0x3feeacdf60000000	0.9586026072502136
205	0xbfc371dda0000000	-0.1519124060869217
206	0x3fced3d5e0000000	0.24083970487117767
207	0x3feed0b5a0000000	0.9629772305488586
208	0xbfc0e2c280000000	-0.13192015886306763
209	0x3fce17c180000000	0.23509997129440308
210	0x3feeea81a0000000	0.9661262631416321
211	0xbfbd57ddc0000000	-0.11462198197841644
212	0x3fcd988ec0000000	0.23121818900108337
213	0x3feefdffe0000000	0.9685057997703552
214	0xbfba06e8a0000000	-0.10166791826486588
215	0x3fcd17cb20000000	0.227288618683815
216	0x3fef0c7480000000	0.9702703952789307
217	0xbfb6f2b4e0000000	-0.08964090794324875
218	0x3fccc698c0000000	0.22481068968772888
219	0x3fef1734e0000000	0.97158282995224
220	0xbfb4a1e040000000	-0.08059503138065338
221	0x3fcc7cb7e0000000	0.22255609929561615
222	0x3fef1d7360000000	0.9723450541496277
223	0xbfb232fe40000000	-0.07109059393405914
224	0x3fcc79c400000000	0.22246599197387695
225	0x3fef217880000000	0.9728357791900635
226	0xbfb02dc0a0000000	-0.06319812685251236
227	0x3fcc8187a0000000	0.22270293533802032
228	0x3fef232e20000000	0.9730444550514221
229	0xbfac85ad00000000	-0.05570736527442932
230	0x3fcca51800000000	0.22378826141357422
231	0x3fef22f0c0000000	0.9730151891708374
232	0xbfa90b5440000000	-0.04891455918550491
233	0x3fccdd1900000000	0.22549736499786377
234	0x3fef211fc0000000	0.972793459892273
235	0xbfa5f55bc0000000	-0.04288756102323532
236	0x3fcd244880000000	0.22766977548599243
237	0x3fef1ca180000000	0.9722449779510498
238	0xbfa2a647a0000000	-0.03642486408352852
239	0x3fcd951a40000000	0.2311127483844757
240	0x3fef161260000000	0.971444308757782
241	0xbf9ee7a060000000	-0.03018045984208584
242	0x3fce1fa480000000	0.2353406548500061
243	0x3fef10fd60000000	0.9708239436149597
244	0xbf9aa075c0000000	-0.026002731174230576
245	0x3fce833840000000	0.23837950825691223
246	0x3fef0895e0000000	0.9697980284690857
247	0xbf956094a0000000	-0.020876238122582436
248	0x3fcf1b1a40000000	0.2430146038532257
249	0x3feeff50a0000000	0.9686663746833801
250	0xbf90e729e0000000	-0.016506819054484367
251	0x3fcfb87200000000	0.2478163242340088
252	0x3feef430c0000000	0.9673084020614624
253	0xbf88c0cf00000000	-0.012086503207683563
254	0x3fd0364f80000000	0.2533148527145386
255	0x3feee862a0000000	0.9658673405647278

cebra_veldir_test f8 [1400, 3]
0	0x3fe7751f80000000	0.7330472469329834
1	0x3fd0dcdb00000000	0.26347994804382324
2	0x3fe410fa60000000	0.6270725131034851
3	0x3fe772cc60000000	0.7327634692192078
4	0x3fd10d8fa0000000	0.26645269989967346
5	0x3fe4096680000000	0.6261475086212158
6	0x3fe771e3e0000000	0.7326526045799255
7	0x3fd137d860000000	0.2690335214138031
8	0x3fe4016aa0000000	0.6251729130744934
9	0x3fe771e9e0000000	0.7326554656028748
10	0x3fd1584060000000	0.27101144194602966
11	0x3fe3fa6300000000	0.6243147850036621
12	0x3fe75e8960000000	0.7302901148796082
13	0x3fd193c680000000	0.27464449405670166
14	0x3fe40412a0000000	0.6254971623420715
15	0x3fe7505000000000	0.7285537719726562
16	0x3fd1c084a0000000	0.27737537026405334
17	0x3fe40ac8a0000000	0.6263163685798645
18	0x3fe73c1e60000000	0.7260887026786804
19	0x3fd1f21e40000000	0.2804027199745178
20	0x3fe4172d60000000	0.6278292536735535
21	0x3fe718ee80000000	0.7217934131622314
22	0x3fd238fe60000000	0.28472861647605896
23	0x3fe42fbe20000000	0.6308279633522034
24	0x3fe6f61dc0000000	0.7175434827804565
25	0x3fd26de480000000	0.2879573106765747
26	0x3fe44b6180000000	0.6342017650604248
27	0x3fe6bc05a0000000	0.7104519009590149
28	0x3fd2c43140000000	0.29322463274002075
29	0x3fe478d060000000	0.6397477984428406
30	0x3fe66a3c40000000	0.7004681825637817
31	0x3fd32f4d60000000	0.299762099981308
32	0x3fe4b9c760000000	0.6476780772209167
33	0x3fe618f0a0000000	0.6905444264411926
34	0x3fd392ac20000000	0.30582717061042786
35	0x3fe4f977c0000000	0.6554526090621948
36	0x3fe5984520000000	0.6748376488685608
37	0x3fd4429980000000	0.3165649175643921
38	0x3fe554f140000000	0.6666189432144165
39	0x3fe5164b60000000	0.6589714884757996
40	0x3fd4d68bc0000000	0.32559484243392944
41	0x3fe5b28ac0000000	0.6780446767807007
42	0x3fe4863a40000000	0.6413851976394653
43	0x3fd56f8000000000	0.334930419921875
44	0x3fe61689a0000000	0.6902511715888977
45	0x3fe3c5c400000000	0.6178913116455078
46	0x3fd625e480000000	0.3460627794265747
47	0x3fe697a340000000	0.7060104608535767
48	0x3fe2cdd400000000	0.5876255035400391
49	0x3fd7119900000000	0.36044907569885254
50	0x3fe72e6200000000	0.7244119644165039
51	0x3fe19bd8c0000000	0.5502742528915405
52	0x3fd8169140000000	0.3763774037361145
53	0x3fe7d9dca0000000	0.7453444600105286
54	0x3fe032b180000000	0.506188154220581
55	0x3fd92451c0000000	0.39284175634384155
56	0x3fe8917480000000	0.7677557468414307
57	0x3fdd00b000000000	0.4531669616699219
58	0x3fda3de700000000	0.41002821922302246
59	0x3fe9543280000000	0.7915279865264893
60	0x3fd87fa0a0000000	0.3827897608280182
61	0x3fdb774300000000	0.4291541576385498
62	0x3fea2dee40000000	0.8181067705154419
63	0x3fd2d65c00000000	0.29433345794677734
64	0x3fdca4f5c0000000	0.4475683569908142
65	0x3feb0583a0000000	0.8444231152534485
66	0x3fc664d860000000	0.17495255172252655
67	0x3fddb57980000000	0.46420133113861084
68	0x3febc8f180000000	0.868279218673706
69	0x3f9ed2ce80000000	0.03010103851556778
70	0x3fde67d900000000	0.47508835792541504
71	0x3fec243be0000000	0.8794230818748474
72	0xbfc34e2980000000	-0.15082281827926636
73	0x3fde297cc0000000	0.4712821841239929
74	0x3febcec680000000	0.8689911365509033
75	0xbfd826cfe0000000	-0.37736889719963074
76	0x3fdc50cf00000000	0.442432165145874
77	0x3fea088400000000	0.8135395050048828
78	0xbfe24b1a00000000	-0.5716676712036133
79	0x3fd8cdea60000000	0.38756808638572693
80	0x3fe7244720000000	0.7231784462928772
81	0xbfe77ded40000000	-0.7341219186782837
82	0x3fd413eaa0000000	0.3137156069278717
83	0x3fe3453da0000000	0.6022022366523743
84	0xbfeb43ff80000000	-0.8520505428314209
85	0x3fcdaf9cc0000000	0.23192176222801208
86	0x3fde08a820000000	0.46927836537361145
87	0xbfed8b3f40000000	-0.9232479333877563
88	0x3fc40ce660000000	0.15664367377758026
89	0x3fd673dde0000000	0.35082194209098816
90	0xbfeece92c0000000	-0.9627164602279663
91	0x3fb77a10e0000000	0.09170632809400558
92	0x3fd0499ee0000000	0.25449344515800476
93	0xbfef732a80000000	-0.9828083515167236
94	0x3fa46876c0000000	0.03985949605703354
95	0x3fc7133c60000000	0.18027453124523163
96	0xbfefbe4700000000	-0.9919772148132324
97	0x3f59e2e7e0000000	0.001579977455548942
98	0x3fc02e1a20000000	0.12640692293643951
99	0xbfefdfa5c0000000	-0.9960507154464722
100	0xbf9bc99520000000	-0.027136163786053658
101	0x3fb5a44480000000	0.08453777432441711
102	0xbfefe4d140000000	-0.996681809425354
103	0xbfa76b2560000000	-0.04573933407664299
104	0x3fb13c8f00000000	0.06733030080795288
105	0xbfefe4cb40000000	-0.9966789484024048
106	0xbfaba29fc0000000	-0.053975097835063934
107	0x3faf37dca0000000	0.060973066836595535
108	0xbfefe1f5c0000000	-0.9963330030441284
109	0xbfabd3a340000000	-0.05434904247522354
110	0x3fb0eab220000000	0.06608117371797562
111	0xbfefda89c0000000	-0.9954270124435425
112	0xbfa9416580000000	-0.0493270605802536
113	0x3fb4f12800000000	0.08180475234985352
114	0xbfefcc9040000000	-0.9937211275100708
115	0xbfa31ab240000000	-0.03731305152177811
116	0x3fbb00c3a0000000	0.10548041015863419
117	0xbfefafb540000000	-0.9901987314224243
118	0xbf90d12500000000	-0.016422823071479797
119	0x3fc1c0d120000000	0.1386968046426773
120	0xbfef8059e0000000	-0.9844178557395935
121	0x3f744b8000000000	0.004954814910888672
122	0x3fc67fcc20000000	0.17577506601810455
123	0xbfef4c1bc0000000	-0.9780405759811401
124	0x3f9b8750a0000000	0.02688337303698063
125	0x3fca7446c0000000	0.20667347311973572
126	0xbfeef14420000000	-0.9669514298439026
127	0x3fac1e6520000000	0.054919395595788956
128	0x3fcfde6da0000000	0.248975470662117
129	0xbfee7ea560000000	-0.9529597163200378
130	0x3fb4f174a0000000	0.08180931955575943
131	0x3fd2ada220000000	0.29184773564338684
132	0xbfedfb6e00000000	-0.9369421005249023
133	0x3fbbb91000000000	0.1082925796508789
134	0x3fd54420e0000000	0.33228322863578796
135	0xbfed6a04e0000000	-0.9191917777061462
136	0x3fc1290b80000000	0.13406509160995483
137	0x3fd7b2cb60000000	0.3702877461910248
138	0xbfed04e100000000	-0.9068455696105957
139	0x3fc34d5000000000	0.15079689025878906
140	0x3fd93020c0000000	0.3935624957084656
141	0xbfeca0ddc0000000	-0.8946369886398315
142	0x3fc5375cc0000000	0.16575202345848083
143	0x3fda8de500000000	0.41491055488586426
144	0xbfec5c1d00000000	-0.8862442970275879
145	0x3fc603b4a0000000	0.1719880849123001
146	0x3fdb86db80000000	0.4301060438156128
147	0xbfec474220000000	-0.8836985230445862
148	0x3fc5a2b620000000	0.16902805864810944
149	0x3fdbef2140000000	0.4364703297615051
150	0xbfec5dfb60000000	-0.8864724040031433
151	0x3fc4352ec0000000	0.1578730046749115
152	0x3fdbd760a0000000	0.4350205957889557
153	0xbfecc9f280000000	-0.8996517658233643
154	0x3fc0a272e0000000	0.12995754182338715
155	0x3fdaad2800000000	0.41681861877441406
156	0xbfed72dcc0000000	-0.9202712774276733
157	0x3fb5109a20000000	0.08228457719087601
158	0x3fd87b63e0000000	0.38253113627433777
159	0xbfee4aae00000000	-0.9466161727905273
160	0x3f77a37240000000	0.005771108902990818
161	0x3fd4a0bec0000000	0.3223111033439636
162	0xbfef0680c0000000	-0.9695438146591187
163	0xbfbce4bd20000000	-0.11286527663469315
164	0x3fcbd28300000000	0.21736180782318115
165	0xbfee7c9e40000000	-0.9527121782302856
166	0xbfd2d66c80000000	-0.2943373918533325
167	0x3fb3560f60000000	0.07553192228078842
168	0xbfea6d39e0000000	-0.825833261013031
169	0xbfe157c2a0000000	-0.5419629216194153
170	0xbfc3f174e0000000	-0.15580616891384125
171	0xbfe1d618a0000000	-0.5573847889900208
172	0xbfe744d6a0000000	-0.7271531224250793
173	0xbfd9a54640000000	-0.4007125496864319
174	0xbfccb000c0000000	-0.22412118315696716
175	0xbfe9a57260000000	-0.8014461398124695
176	0xbfe1be57a0000000	-0.5544851422309875
177	0x3fa670ae00000000	0.04382842779159546
178	0xbfe937dec0000000	-0.7880700826644897
179	0xbfe3a61400000000	-0.6140232086181641
180	0x3fcdf055c0000000	0.23389694094657898
181	0xbfe7e247e0000000	-0.7463721632957458
182	0xbfe3f03880000000	-0.6230738162994385
183	0x3fd80701e0000000	0.3754276931285858
184	0xbfe6697f40000000	-0.7003780603408813
185	0xbfe36d0de0000000	-0.6070622801780701
186	0x3fdf46b080000000	0.4886895418167114
187	0xbfe4eba9e0000000	-0.6537675261497498
188	0xbfe27cc100000000	-0.5777287483215332
189	0x3fe276b840000000	0.5769921541213989
190	0xbfe38124e0000000	-0.6095146536827087
191	0xbfe165b4a0000000	-0.5436652302742004
192	0x3fe4f8de60000000	0.6553794741630554
193	0xbfe2115020000000	-0.564613401889801
194	0xbfe00dd100000000	-0.5016865730285645
195	0x3fe713aee0000000	0.7211527228355408
196	0xbfe0a83d40000000	-0.5205370187759399
197	0xbfdd41d600000000	-0.45714330673217773
198	0x3fe8cc1820000000	0.7749138474464417
199	0xbfdea509c0000000	-0.47882312536239624
200	0xbfda6800c0000000	-0.4125978350639343
201	0x3fea674960000000	0.8251082301139832
202	0xbfdbc84f00000000	-0.434100866317749
203	0xbfd7246a00000000	-0.36159753799438477
204	0x3febcf2ee0000000	0.8690409064292908
205	0xbfd8d25c20000000	-0.38783934712409973
206	0xbfd3a88b20000000	-0.3071620762348175
207	0x3fed00b3c0000000	0.906335711479187
208	0xbfd5d2c840000000	-0.3409901261329651
209	0xbfcff1a860000000	-0.2495623081922531
210	0x3fedf5fb80000000	0.9362771511077881
211	0xbfd2d821e0000000	-0.29444167017936707
212	0xbfc88484e0000000	-0.19154416024684906
213	0x3feea882e0000000	0.9580702185630798
214	0xbfd014eac0000000	-0.2512766718864441
215	0xbfc1a02e40000000	-0.13770082592964172
216	0x3fef2a4620000000	0.973910391330719
217	0xbfcaec3c60000000	-0.21033434569835663
218	0xbfb5cf3a40000000	-0.08519329130649567
219	0x3fef7ff440000000	0.9843693971633911
220	0xbfc60e7480000000	-0.17231613397598267
221	0xbfa2a14d00000000	-0.0363868772983551
222	0x3fefb28520000000	0.9905419945716858
223	0xbfc1856320000000	-0.13688315451145172
224	0x3f83604e60000000	0.009461033158004284
225	0x3fefc79c20000000	0.9931164383888245
226	0xbfbb15bba0000000	-0.10580036789178848
227	0x3fa9bba740000000	0.05025980621576309
228	0x3fefc7b4a0000000	0.9931281208992004
229	0xbfb43dd700000000	-0.07906860113143921
230	0x3fb6169e20000000	0.08628261834383011
231	0x3fefb9cb60000000	0.9914299845695496
232	0xbfac836c20000000	-0.05569017305970192
233	0x3fbe40ab80000000	0.11817428469657898
234	0x3fefa34320000000	0.9886794686317444
235	0xbfa27984c0000000	-0.03608336299657822
236	0x3fc2a44d20000000	0.1456390768289566
237	0x3fef87cf00000000	0.985328197479248
238	0xbf93f39700000000	-0.019483909010887146
239	0x3fc5b3f500000000	0.16955435276031494
240	0x3fef699340000000	0.9816375970840454
241	0xbf7524f800000000	-0.0051622092723846436
242	0x3fc8686440000000	0.19068577885627747
243	0x3fef4df0e0000000	0.9782642722129822
244	0x3f762460e0000000	0.0054057869128882885
245	0x3fca8886a0000000	0.20729143917560577
246	0x3fef3107a0000000	0.9747350811958313
247	0x3f8f366180000000	0.015240442007780075
248	0x3fcc8621a0000000	0.22284336388111115
249	0x3fef17fda0000000	0.9716785550117493
250	0x3f96bca260000000	0.02220395766198635
251	0x3fce1d0740000000	0.23526087403297424
252	0x3feeffba00000000	0.9687166213989258
253	0x3f9d7e6c60000000	0.028802579268813133
254	0x3fcf8d10c0000000	0.24649247527122498
255	0x3feeeb0bc0000000	0.9661921262741089

continuous_index_train f8 [5200, 3]
0	0xbfc9dc37634367db	-0.20203296992150296
1	0x4007d61a4e0114f7	2.979542359741227
2	0x0000000000000000	0.0
3	0x3ff7c246ec0fe468	1.484930917851921
4	0x4015b5fd45ad42ef	5.42772396917347
5	0x0000000000000000	0.0
6	0x3fff7046a3ce7c8f	1.964911117429242
7	0x401ac5dbab867a20	6.693220787127331
8	0x0000000000000000	0.0
9	0x3fe4f69de613189f	0.6551045888561652
10	0x401c31269a708d03	7.047998822326238
11	0x0000000000000000	0.0
12	0xbfff4de7cac09e31	-1.95651988220369
13	0x401b4debe3b64056	6.8260951595294355
14	0x0000000000000000	0.0
15	0xc013b442572d1319	-4.926034319044242
16	0x401e7ef329c47dd8	7.623974468820471
17	0x0000000000000000	0.0
18	0xc01f04e311cd98d2	-7.754772451566355
19	0x4026c8b13dd39fe2	11.391977245410036
20	0x0000000000000000	0.0
21	0xc0211d413d2d615b	-8.557138358869159
22	0x40307fe465635bd7	16.499578797109134
23	0x0000000000000000	0.0
24	0xc02131975394d260	-8.596857654492112
25	0x40375b688a0056f5	23.357063889582566
26	0x0000000000000000	0.0
27	0xc024661112e0531c	-10.19934901226366
28	0x403f0f11f1fa4830	31.05886757240677
29	0x0000000000000000	0.0
30	0xc02b6b0d40870799	-13.709085480197063
31	0x4042f354da318666	37.901026987249494
32	0x0000000000000000	0.0
33	0xc031b74ad5653002	-17.71598561973952
34	0x4045d8db8ab81f94	43.69419988623045
35	0x0000000000000000	0.0
36	0xc038f1e9ff1591c2	-24.94497675205799
37	0x4048d160c154afe1	49.63576523432835
38	0x0000000000000000	0.0
39	0xc041321cf9407d18	-34.391509205330465
40	0x404cdf15570f86a9	57.74283874757868
41	0x0000000000000000	0.0
42	0xc04576fcf5c838f1	-42.92959472919927
43	0x4051b2df72999a9b	70.79488816261657
44	0x0000000000000000	0.0
45	0xc04952bc4a3ca1a4	-50.64637115440863
46	0x4056619734392fa0	89.52485375961851
47	0x0000000000000000	0.0
48	0xc04e5a717e3af6ff	-60.706588534156246
49	0x405c1d5a77495e05	112.458646604202
50	0x0000000000000000	0.0
51	0xc05180c740157b9e	-70.0121612748903
52	0x40612dd20a871a3a	137.4318897856445
53	0x0000000000000000	0.0
54	0xc05566852a237ca4	-85.6018777224113
55	0x40645137efc93b36	162.5380782060908
56	0x0000000000000000	0.0
57	0xc05b5bfef08be551	-109.43743528043457
58	0x406710e690a1800e	184.52814513724337
59	0x0000000000000000	0.0
60	0xc061c3a874759a68	-142.1143133446633
61	0x406946882eb67c56	202.20412383691536
62	0x0000000000000000	0.0
63	0xc067154388e72d93	-184.66449399139364
64	0x406ae94378ae4cac	215.2894862560546
65	0x0000000000000000	0.0
66	0xc06d666c11c67567	-235.20069206963964
67	0x406bf5e0a6fda8e4	223.68367337744633
68	0x0000000000000000	0.0
69	0xc07242ff40eab990	-292.18731776894947
70	0x406c50f100de0fe9	226.52941935893548
71	0x0000000000000000	0.0
72	0xc07625e8c104ab90	-354.3693247015408
73	0x406bce8935230da5	222.45424897047374
74	0x0000000000000000	0.0
75	0xc07a3e4be89dbb3b	-419.89353238691155
76	0x406a6b3983d02fcc	211.35077086125818
77	0x0000000000000000	0.0
78	0xc07e5c7480ccbdef	-485.7784431455356
79	0x40684823a544b39b	194.25435126703528
80	0x0000000000000000	0.0
81	0xc08100e153913299	-544.1100226729933
82	0x406578fddb2e7274	171.78098830291458
83	0x0000000000000000	0.0
84	0xc0828490087e8899	-592.5703287015377
85	0x40627c563617cf8c	147.88552384043248
86	0x0000000000000000	0.0
87	0xc0838f23d14a8d49	-625.8924890350692
88	0x405fbc589b17d69a	126.9429080708309
89	0x0000000000000000	0.0
90	0xc084002f6373b044	-640.0231389082114
91	0x405b7021e4c6a8ac	109.75206870460778
92	0x0000000000000000	0.0
93	0xc083f22b867fcbc3	-638.2712526306208
94	0x4058d770d444c5b1	99.3662615462879
95	0x0000000000000000	0.0
96	0xc0838ffefaa60205	-625.9995015115134
97	0x4057f828b79c1c06	95.87748518223825
98	0x0000000000000000	0.0
99	0xc083115f738cfd12	-610.1716071142894
100	0x405862952fe07695	97.54035565300212
101	0x0000000000000000	0.0
102	0xc082a46ca7c2debb	-596.5530543541166
103	0x4059ebcb051daca9	103.68426635644813
104	0x0000000000000000	0.0
105	0xc0827c9f8c459668	-591.577904266026
106	0x405c4a45c4ae0018	113.16050831787322
107	0x0000000000000000	0.0
108	0xc08295abd752bd7f	-594.7089067901687
109	0x405f29bea3441b95	124.65226060534617
110	0x0000000000000000	0.0
111	0xc082c8284c614f43	-601.0196769335092
112	0x4060f62217455d92	135.69166148708297
113	0x0000000000000000	0.0
114	0xc083128b7a7f4817	-610.318104738605
115	0x40620491389cd65d	144.1427271903257
116	0x0000000000000000	0.0
117	0xc08359c979b9fa93	-619.2233767060847
118	0x40627c15c0bdb242	147.8776553826338
119	0x0000000000000000	0.0
120	0xc08362edd741d313	-620.3661332266369
121	0x406220638f789541	145.0121533732545
122	0x0000000000000000	0.0
123	0xc08342d317bb2f88	-616.3530726074105
124	0x40610560469b8c81	136.16800241833337
125	0x0000000000000000	0.0
126	0xc082fe5a694bbf35	-607.7941461484648
127	0x405e6a385e15c95f	121.6596904003868
128	0x0000000000000000	0.0
129	0xc08299001acded75	-595.1250511253444
130	0x405a3160c93f3e46	104.77153235603427
131	0x0000000000000000	0.0
132	0xc0823a07d602da79	-583.253826162617
133	0x4056dcd69548d099	91.45059711561989
134	0x0000000000000000	0.0
135	0xc081e0f53e96a99a	-572.1197482843884
136	0x405541c02f9f55b6	85.02735510406532
137	0x0000000000000000	0.0
138	0xc0817bf9bb702ea6	-559.496939541267
139	0x4055badb6e6ba4a3	86.91964302551291
140	0x0000000000000000	0.0
141	0xc080ea4555eeed2e	-541.2838553110248
142	0x40583a8748f27c6f	96.9145071380642
143	0x0000000000000000	0.0
144	0xc080224bac1ce712	-516.2869493730561
145	0x405c1e3fe94af257	112.47265083617218
146	0x0000000000000000	0.0
147	0xc07e3cee1c74870b	-483.80813260572967
148	0x406017c17ee2f29e	128.7423700745175
149	0x0000000000000000	0.0
150	0xc07bd5db7079bb87	-445.36607406188745
151	0x4061b48761ef55c4	141.64152619118806
152	0x0000000000000000	0.0
153	0xc07997fdf2aa9aea	-409.4994990028632
154	0x4062a8dc6a8d14fe	149.27690627627447
155	0x0000000000000000	0.0
156	0xc077c3c150645f94	-380.2346958084902
157	0x4062df5629ea7d8a	150.97926803397087
158	0x0000000000000000	0.0
159	0xc076695210771594	-358.5825352336626
160	0x40625279cc86b075	146.57736803347112
161	0x0000000000000000	0.0
162	0xc075c890abb29787	-348.5353199936148
163	0x406160aed659bfe9	139.0213424446986
164	0x0000000000000000	0.0
165	0xc075a900b4cecb97	-346.5626724317494
166	0x4060039f2a576538	128.11317936963474
167	0x0000000000000000	0.0
168	0xc075bf556fc73bdd	-347.958358553178
169	0x405c654cde74df51	113.5828167096454
170	0x0000000000000000	0.0
171	0xc075c4a7d59288b1	-348.2909751628859
172	0x4057fe72f3a1b6ce	95.9757660941352
173	0x0000000000000000	0.0
174	0xc0758e5305c8f1d6	-344.8952691888238
175	0x4052bad77e893728	74.91940272712657
176	0x0000000000000000	0.0
177	0xc074eecde7e72c37	-334.92526998807756
178	0x404a63b6ca03b71a	52.77901578122528
179	0x0000000000000000	0.0
180	0xc073ee0fbcf668a0	-318.8788423180904
181	0x403fc125649d679f	31.754476822308444
182	0x0000000000000000	0.0
183	0xc072d1e7d30f2b31	-301.11909776616363
184	0x402c858eb85446a3	14.260854492461766
185	0x0000000000000000	0.0
186	0xc07182355a2a9ed7	-280.1380254425871
187	0x3ff494b235474aef	1.2863027650061516
188	0x0000000000000000	0.0
189	0xc07004c255a35090	-256.29744495196155
190	0xc0221429db5a5dae	-9.039381842404364
191	0x0000000000000000	0.0
192	0xc06d765d98318f49	-235.6989251106227
193	0xc0325f1e13d04e32	-18.371552694660018
194	0x0000000000000000	0.0
195	0xc06b196f66f55495	-216.7948488990411
196	0xc03ba0635c58a5e7	-27.62651612438449
197	0x0000000000000000	0.0
198	0xc068f5b30d28ed34	-199.67810686105224
199	0xc04258ceac389636	-36.69380715144182
200	0x0000000000000000	0.0
201	0xc0670b138217dd7d	-184.34613136922044
202	0xc0460d7df88e12cb	-44.10540682732752
203	0x0000000000000000	0.0
204	0xc065268f5b6c7f90	-169.2049996489627
205	0xc04862fa03d030c8	-48.7732548491054
206	0x0000000000000000	0.0
207	0xc06353694f04a46a	-154.60660506159485
208	0xc0494d2cecaed765	-50.6029334882467
209	0x0000000000000000	0.0
210	0xc06154e8e13e870d	-138.65342771732722
211	0xc048e2c16fadf418	-49.77152820581267
212	0x0000000000000000	0.0
213	0xc05e33ed42c9cf18	-120.81135625560671
214	0xc04845c1f295ea6c	-48.54498131103614
215	0x0000000000000000	0.0
216	0xc058a9ab93945fa5	-98.65109719743357
217	0xc0483d3683e75ceb	-48.478226173372455
218	0x0000000000000000	0.0
219	0xc0515efc5c15abc8	-69.48415281406699
220	0xc04902649f362863	-50.01869573730871
221	0x0000000000000000	0.0
222	0xc0421efc19a5ece0	-36.242068487184724
223	0xc04a1723647ea4a8	-52.18076759513616
224	0x0000000000000000	0.0
225	0xbffc7dbecc4b258f	-1.7806995372978667
226	0xc04b1af90d1847b0	-54.21072543798016
227	0x0000000000000000	0.0
228	0x403b08ec6a8d39e8	27.034857425192882
229	0xc04b72b39a946f1b	-54.896106073834936
230	0x0000000000000000	0.0
231	0x40458859e13d53ca	43.065242915101024
232	0xc04a39729323f7e2	-52.448809044420855
233	0x0000000000000000	0.0
234	0x404568c5c7edc13e	42.818535796252476
235	0xc046e158583caf9b	-45.76050856555158
236	0x0000000000000000	0.0
237	0x403d5dde2cd667b7	29.36667137369633
238	0xc041efc6eef88071	-35.873258467997296
239	0x0000000000000000	0.0
240	0x40212ad5a4e43a0d	8.58366122518512
241	0xc0367957e9329d3f	-22.473997664315217
242	0x0000000000000000	0.0
243	0xc026ed64204fb4ec	-11.463654527406526
244	0xc01e0eba89dd36b8	-7.5143834630268245
245	0x0000000000000000	0.0
246	0xc037c519f5d48d3b	-23.769927372353077
247	0x401e2c87f67de9a3	7.5434874071455935
248	0x0000000000000000	0.0
249	0xc03a8ffd6d87443f	-26.5624607520333
250	0x4034dc1b9771be68	20.859796014089085
251	0x0000000000000000	0.0
252	0xc03884854d2cafb3	-24.517659018907306
253	0x403f3dae5d738f0a	31.240941849434456
254	0x0000000000000000	0.0
255	0xc034dc9aac7fbb29	-20.86173513525424

continuous_index_test f8 [1400, 3]
0	0x401b9953be793216	6.899733520648189
1	0x40185deec723f33d	6.09173117787287
2	0x0000000000000000	0.0
3	0x40186767cc423d41	6.100981895010876
4	0x401b0754516c36b0	6.757157585363231
5	0x0000000000000000	0.0
6	0x401404284ee9b9be	5.004060013785816
7	0x4021d8c549d5e16a	8.92338019119116
8	0x0000000000000000	0.0
9	0x4010cfa9ffe885ad	4.202796934668567
10	0x40265ffda940349a	11.18748215588339
11	0x0000000000000000	0.0
12	0x4011875573e5680c	4.382161913754327
13	0x402cad6a1c78f514	14.338700189366627
14	0x0000000000000000	0.0
15	0x4015067f944c5af7	5.256346051369056
16	0x4031ec5543f81723	17.923176048344555
17	0x0000000000000000	0.0
18	0x4017be1bda833c96	5.935653127918291
19	0x4034eb9b053a6e27	20.92033417393227
20	0x0000000000000000	0.0
21	0x401947df6d22df92	6.320188241246699
22	0x4037287bcc6304e7	23.158139013456914
23	0x0000000000000000	0.0
24	0x401bf72f69468db7	6.991391797000168
25	0x403bd346577b16d1	27.82529207949739
26	0x0000000000000000	0.0
27	0x402351049e8820c1	9.65823836719244
28	0x4041ebefb45b8d88	35.843252701476615
29	0x0000000000000000	0.0
30	0x40303ba0177b0a57	16.232911555804403
31	0x4048cd7aafd827d1	49.605306606812185
32	0x0000000000000000	0.0
33	0x403b818c282b59eb	27.50604487474804
34	0x4051cfa1e892dd17	71.24425711004402
35	0x0000000000000000	0.0
36	0x4044aa2dfbfaa71a	41.32952832926658
37	0x40588e09a82929a4	98.21933940906325
38	0x0000000000000000	0.0
39	0x404c2a12fa5560eb	56.32870415848614
40	0x405fc6dc7cc2bc69	127.10720747964082
41	0x0000000000000000	0.0
42	0x40513f29f609d0bf	68.98693610151803
43	0x40636d77d86d17e3	155.4208795672158
44	0x0000000000000000	0.0
45	0x4053321d54bb2bd4	76.78304022100866
46	0x4066c334b6e1e396	182.10018486136386
47	0x0000000000000000	0.0
48	0x40541beb335d844a	80.43623050816055
49	0x4069c64c89553a4e	206.19684282918973
50	0x0000000000000000	0.0
51	0x40542437fcd84529	80.56591721649296
52	0x406c6deee067280d	227.4354097380423
53	0x0000000000000000	0.0
54	0x40537d91ee4be4bf	77.96203191195944
55	0x406f20aa92871f1e	249.0208218230336
56	0x0000000000000000	0.0
57	0x40529f544fd2759f	74.48952098419839
58	0x4070c457c98d5057	268.2714324493476
59	0x0000000000000000	0.0
60	0x4051d707743b6382	71.35982995795896
61	0x4071d14a449ab7a2	285.08063183247043
62	0x0000000000000000	0.0
63	0x4050ace424f8f2e9	66.70142483054555
64	0x4072e8d584d57971	302.5521286333888
65	0x0000000000000000	0.0
66	0x404d6fa2091f2846	58.87213243504861
67	0x4073e1bf541adb3b	318.10921106806535
68	0x0000000000000000	0.0
69	0x4047bf57ec5320bc	47.49487070139864
70	0x4074c9f434779bb8	332.62212034914
71	0x0000000000000000	0.0
72	0x403fd73804cc5834	31.84069852818375
73	0x4075c4373052dd0f	348.2634738194328
74	0x0000000000000000	0.0
75	0x4028ff932d633cdb	12.499169748653392
76	0x4076fbffae875951	367.74992230291997
77	0x0000000000000000	0.0
78	0xc022165108620edb	-9.043586980791067
79	0x40787b2c5a1c35a8	391.6983281232774
80	0x0000000000000000	0.0
81	0xc03e0246b9af2845	-30.008891682875646
82	0x407a5f2369341adb	421.9461452517841
83	0x0000000000000000	0.0
84	0xc049e1f11519c9f7	-51.76516975173211
85	0x407cbdb37c5eb1ac	459.856319780253
86	0x0000000000000000	0.0
87	0xc05246e19f2d341d	-73.10752086080943
88	0x407f38ef2aa00b93	499.55839025991116
89	0x0000000000000000	0.0
90	0xc057c7ba703c0ac9	-95.12075429786195
91	0x4080c95d607c80c7	537.1705941893387
92	0x0000000000000000	0.0
93	0xc05e08f0b6ffc9ed	-120.13969206790325
94	0x4081da0fb088a77e	571.257660930263
95	0x0000000000000000	0.0
96	0xc06234717e84511d	-145.63885427325377
97	0x4082905c998555a1	594.0452146927602
98	0x0000000000000000	0.0
99	0xc0652f6d50048668	-169.48209381946367
100	0x4082f98e2ea10b07	607.1944248754015
101	0x0000000000000000	0.0
102	0xc067cc765943016a	-190.3894468601896
103	0x40832fe39d19c013	613.98613948934
104	0x0000000000000000	0.0
105	0xc06a554658bd6cb7	-210.66483723637586
106	0x40834e79dc8f5fbe	617.8095027161687
107	0x0000000000000000	0.0
108	0xc06cdef16929c72e	-230.96696909103179
109	0x4083838a175d21ca	624.4424273754059
110	0x0000000000000000	0.0
111	0xc06fb23701b773c9	-253.56921468573117
112	0x4083ee50e90ac901	637.7895069925872
113	0x0000000000000000	0.0
114	0xc071a9a7d8ae1992	-282.60347812659995
115	0x4084813a4f49d14a	656.1534715430255
116	0x0000000000000000	0.0
117	0xc07397693c874dde	-313.4631924901313
118	0x40850ae0a337da61	673.3596863139647
119	0x0000000000000000	0.0
120	0xc07572a107555d70	-343.1643136343546
121	0x4085645895dfbf27	684.543254611989
122	0x0000000000000000	0.0
123	0xc077407054742ebb	-372.02742429145627
124	0x4085790713603441	687.1284549251505
125	0x0000000000000000	0.0
126	0xc0789ab0b3e1c950	-393.66814029882244
127	0x40851f5d3fc4269e	675.9205317806516
128	0x0000000000000000	0.0
129	0xc07991d92551d108	-409.115514106365
130	0x4084791915db5fff	655.1372487200423
131	0x0000000000000000	0.0
132	0xc07a4f01f6c84644	-420.9379794905874
133	0x4083b73fb46ac6d5	630.9061058370522
134	0x0000000000000000	0.0
135	0xc07b3f7f7d12c51b	-435.96862513858804
136	0x4082e317bde3eea4	604.3865926558688
137	0x0000000000000000	0.0
138	0xc07c609412d363d8	-454.03615076612687
139	0x40822458d7764531	580.5433797111383
140	0x0000000000000000	0.0
141	0xc07e3f593ce92229	-483.9592866045737
142	0x4081920d222e5ee2	562.2564128515917
143	0x0000000000000000	0.0
144	0xc0805451601a0648	-522.5397340806167
145	0x40810a3f8a8591a7	545.2810259280276
146	0x0000000000000000	0.0
147	0xc08196dc1445f6fc	-562.8574605432509
148	0x408072d43c7c6080	526.3536309925985
149	0x0000000000000000	0.0
150	0xc082afb085b06628	-597.9611924916435
151	0x407f6796f9d3def8	502.47435934793566
152	0x0000000000000000	0.0
153	0xc0836e487a790a87	-621.7853898483598
154	0x407d6f8d046cc708	470.9719280480499
155	0x0000000000000000	0.0
156	0xc083d01266fc5015	-634.0089854919376
157	0x407aea0c59b08414	430.62801522208724
158	0x0000000000000000	0.0
159	0xc083f79c43d4d426	-638.9513012530558
160	0x40781947410b7474	385.5798960158784
161	0x0000000000000000	0.0
162	0xc0843bf67582e448	-647.4953413225094
163	0x40754fd76f676415	340.9900964773854
164	0x0000000000000000	0.0
165	0xc084a7dc70d7c8f8	-660.9826371057707
166	0x40726b80cd061f18	294.7189455260391
167	0x0000000000000000	0.0
168	0xc085369b2e286341	-678.825771632699
169	0x406f9135803427bb	252.53778085886537
170	0x0000000000000000	0.0
171	0xc085a7d4c95ee0dd	-692.9788997089742
172	0x406af72de8831cd5	215.7243540344995
173	0x0000000000000000	0.0
174	0xc085c1d1064aa216	-696.2270627814021
175	0x406663412f058811	179.10170699196217
176	0x0000000000000000	0.0
177	0xc08551d582280f18	-682.2292521600348
178	0x4061eba2f2d48227	143.36364118104504
179	0x0000000000000000	0.0
180	0xc08487e5c7210bbf	-656.987196214839
181	0x405aec93dfe36307	107.69652554708237
182	0x0000000000000000	0.0
183	0xc083b2197fba2021	-630.2624506512694
184	0x40511cedbacc10fa	68.45200986793853
185	0x0000000000000000	0.0
186	0xc082f71af63d5049	-606.8881649770857
187	0x403c133fd79786e7	28.075192903989684
188	0x0000000000000000	0.0
189	0xc082761208227998	-590.7588045781476
190	0xc0263879820bf1ff	-11.110302032430807
191	0x0000000000000000	0.0
192	0xc08236064ef12d1d	-582.7530802575963
193	0xc047fb596d28fb35	-47.96366657734908
194	0x0000000000000000	0.0
195	0xc081f2ca956b37ff	-574.3489178062881
196	0xc055d73a087d0a54	-87.36291706286403
197	0x0000000000000000	0.0
198	0xc081b04fe4aef986	-566.0390103979014
199	0xc05fa163f296c61d	-126.52172531818401
200	0x0000000000000000	0.0
201	0xc0816cd26fb60e8e	-557.6027521346275
202	0xc064ebbb23aeea01	-167.3665941635409
203	0x0000000000000000	0.0
204	0xc08131f3e197019a	-550.2440826222767
205	0xc06a8d6d518c8661	-212.41959454962037
206	0x0000000000000000	0.0
207	0xc080d7084d2bc28c	-538.8790534418818
208	0xc070149671fe12ad	-257.28672980544326
209	0x0000000000000000	0.0
210	0xc0805944e69b25fe	-523.1586429711313
211	0xc072b59c2f72b452	-299.35063118749997
212	0x0000000000000000	0.0
213	0xc07f355ef4a50fa1	-499.33568253018353
214	0xc0753129a0b3aeef	-339.0726630228882
215	0x0000000000000000	0.0
216	0xc07ce8c98bb6b664	-462.54920550701195
217	0xc0772a7249b86c70	-370.6529023365065
218	0x0000000000000000	0.0
219	0xc07a5eea8e4db207	-421.9322646174409
220	0xc078a150cbe8e156	-394.08222571343265
221	0x0000000000000000	0.0
222	0xc077cc42142dc538	-380.7661325252443
223	0xc079b364b19959c9	-411.21208343412997
224	0x0000000000000000	0.0
225	0xc075925976dab4a8	-345.1468418639365
226	0xc07a9ecd613e7b5e	-425.9251415672969
227	0x0000000000000000	0.0
228	0xc073e7e1aab981d9	-318.492594456327
229	0xc07b7f0881485e58	-439.9395764185806
230	0x0000000000000000	0.0
231	0xc072d2837888fad3	-301.1570973730824
232	0xc07c8e8fcebee341	-456.9101092773963
233	0x0000000000000000	0.0
234	0xc071fdf92ae60e95	-287.87333192697525
235	0xc07dd1ba72cd8551	-477.1080196407466
236	0x0000000000000000	0.0
237	0xc071494452e63c5e	-276.5791806214892
238	0xc07f00213f0b6d54	-496.00811676467606
239	0x0000000000000000	0.0
240	0xc07085d8ee2e97e3	-264.3654615230609
241	0xc07fd90c96eca9cf	-509.565573620287
242	0x0000000000000000	0.0
243	0xc06f2f271d68d34d	-249.4735247657176
244	0xc08022fb2c12aa64	-516.3726426561593
245	0x0000000000000000	0.0
246	0xc06cdaa9bf94d6ce	-230.8332212359441
247	0xc07ff3e0c60dac54	-511.2423763784511
248	0x0000000000000000	0.0
249	0xc06a4b65f8b48d2d	-210.35619769348105
250	0xc07ef2e14540d743	-495.1799976857039
251	0x0000000000000000	0.0
252	0xc067b06f3b2440f3	-189.51357800560763
253	0xc07da0205ada00e9	-474.007899142815
254	0x0000000000000000	0.0
255	0xc064b1f4204abdcf	-165.56105055425584
