NeuroAI/Neural Embeddings Rank Aligning 3D latent dynamics with movements/NER/data_NER/Fig8/Type_ curve-up-down=[31, 38]_parameters_5000itr_lr0.0001.npz (npz, 579244 bytes, 7 tensors)

train_loss_stable f4 [5000]
00000000: e70b be40 730f be40 d209 be40 810b be40
00000010: d208 be40 910b be40 9108 be40 a009 be40
00000020: 1c09 be40 3d0b be40 b509 be40 7608 be40
00000030: 1108 be40 7d09 be40 e907 be40 e609 be40
00000040: dd07 be40 ea09 be40 d708 be40 240a be40
00000050: ea08 be40 2409 be40 7708 be40 b70d be40
00000060: 7106 be40 a207 be40 3e07 be40 7806 be40
00000070: 080b be40 fd07 be40 f405 be40 d008 be40
00000080: 0d06 be40 a60d be40 be08 be40 6e05 be40
00000090: 260d be40 f106 be40 e903 be40 3405 be40
000000a0: 2a06 be40 1503 be40 7d0c be40 1006 be40
000000b0: 9a03 be40 e503 be40 dd03 be40 9302 be40
000000c0: 0204 be40 6b08 be40 9d02 be40 5005 be40
000000d0: 5b05 be40 4000 be40 380a be40 fc01 be40
000000e0: 7003 be40 5600 be40 1001 be40 f3fe bd40
000000f0: a900 be40 5201 be40 9ffe bd40 67fb bd40
00000100: 6dfd bd40 5bff bd40 6efe bd40 4802 be40
00000110: b7f9 bd40 ccf9 bd40 e9fa bd40 3cf6 bd40
00000120: a6f8 bd40 e6f5 bd40 41f6 bd40 65f2 bd40
00000130: 9ff3 bd40 f2fb bd40 72f5 bd40 90f0 bd40
00000140: b8f1 bd40 d5f1 bd40 dff1 bd40 25ee bd40
00000150: d5eb bd40 d3ee bd40 76e9 bd40 d5ed bd40
00000160: 70e9 bd40 12ea bd40 28e5 bd40 2be2 bd40
00000170: 29e0 bd40 b7dc bd40 d6df bd40 2bdc bd40
00000180: 12de bd40 18dd bd40 d5d1 bd40 69d0 bd40
00000190: f3d5 bd40 64c7 bd40 39cf bd40 36ca bd40
000001a0: d5bf bd40 dec4 bd40 e1c2 bd40 05b6 bd40
000001b0: aabb bd40 20bd bd40 16b9 bd40 9ba8 bd40
000001c0: 48a9 bd40 22a2 bd40 06a2 bd40 59a7 bd40
000001d0: e497 bd40 1a8d bd40 ff93 bd40 a376 bd40
000001e0: 8b69 bd40 1b7b bd40 8858 bd40 8557 bd40
000001f0: 4e50 bd40 d248 bd40 7c32 bd40 9628 bd40
00000200: 7e0d bd40 45fd bc40 42e1 bc40 c7ca bc40
00000210: 65c9 bc40 f493 bc40 6870 bc40 4f5c bc40
00000220: 5701 bc40 e719 bc40 a49a bb40 d3c5 bb40
00000230: 6401 bb40 1f77 ba40 36b2 ba40 9568 ba40
00000240: f883 ba40 8794 b940 9cf8 b940 2c7b b940
00000250: aaf0 b940 1b05 ba40 b91a ba40 e1bd b940
00000260: 6f45 b940 c7c5 b940 5f96 b940 f23c b940
00000270: 0e13 b940 69e9 b840 a366 b940 968e b840
00000280: 1d2c ba40 7a7c b840 3fcd b840 535f b940
00000290: 317f b940 ea12 ba40 99c6 b840 e769 b940
000002a0: 6938 b940 843e b940 29fc b840 5a1c b940
000002b0: 8b8c b840 8896 b940 64b4 b840 df2e b940
000002c0: 37ca b840 388f b740 10c1 b840 0ce1 b840
000002d0: 230c b840 a3ed b840 aa0e b840 d449 b840
000002e0: 9908 b940 9b13 b840 85c7 b840 552b b840
000002f0: 90ff b740 6f22 b840 e67d b840 6885 b840
00000300: 1601 b840 9b0b b840 dcf4 b840 4c14 b940
00000310: 896c b840 d377 b840 e0e2 b740 de1c b840
00000320: 973b b740 08d1 b740 19ab b740 ad67 b740
00000330: 213d b840 a1e3 b740 8839 b740 5992 b740
00000340: 2618 b740 b30a b740 7637 b840 c9d0 b640
00000350: 9682 b840 9875 b740 08b4 b640 9369 b740
00000360: 1213 b740 f758 b740 7885 b740 6c39 b740
00000370: 9970 b640 595e b740 c21f b740 560b b740
00000380: 9148 b740 e1ed b640 48ff b740 fa50 b740
00000390: 3571 b740 6107 b740 3c3c b740 6106 b740
000003a0: 1884 b640 d1f4 b740 d835 b740 49a2 b640
000003b0: df6c b740 4352 b740 0d57 b740 207d b740
000003c0: c1e3 b740 a3f4 b540 e733 b740 5cbe b640
000003d0: c5c7 b640 56da b640 1341 b740 7b1c b740
000003e0: 35c8 b540 91e9 b640 3976 b640 5f7e b640
000003f0: 2b5a b740 3482 b640 9992 b640 650e b740
5.938953 5.939386 5.938699 5.9389043 5.9385767 5.938912 5.9385457 5.938675
5.938612 5.938872 5.938685 5.938533 5.9384847 5.938658 5.9384656 5.9387083
5.93846 5.93871 5.938579 5.938738 5.938588 5.938616 5.9385333 5.939174
5.9382863 5.9384317 5.938384 5.9382896 5.9388466 5.938475 5.9382267 5.9385757
5.9382386 5.939166 5.938567 5.938163 5.939105 5.9383473 5.9379773 5.938135
5.9382524 5.937876 5.9390244 5.93824 5.9379396 5.9379754 5.9379716 5.937814
5.937989 5.9385276 5.937819 5.9381485 5.9381537 5.9375305 5.9387474 5.937742
5.9379196 5.937541 5.9376297 5.9373717 5.9375806 5.937661 5.9373317 5.936939
5.937186 5.9374213 5.9373083 5.9377785 5.936733 5.936743 5.9368787 5.936308
5.9366026 5.936267 5.9363103 5.935839 5.935989 5.937005 5.9362116 5.9356155
5.9357567 5.9357705 5.9357753 5.9353204 5.935038 5.9354033 5.9347486 5.935282
5.934746 5.934823 5.934223 5.9338584 5.9336133 5.9331927 5.9335737 5.933126
5.933358 5.933239 5.9318643 5.9316907 5.932367 5.9305897 5.9315457 5.930934
5.929667 5.9302816 5.930039 5.928469 5.929158 5.9293365 5.9288435 5.9268317
5.926914 5.9260416 5.9260283 5.926678 5.9247913 5.9234743 5.924316 5.920732
5.9191337 5.9212775 5.917057 5.9169335 5.916053 5.915139 5.9124126 5.9112043
5.907897 5.9059167 5.9024973 5.899753 5.8995843 5.8930607 5.8887215 5.886268
5.8751636 5.878162 5.862627 5.8678985 5.8439198 5.827041 5.8342543 5.8252664
5.8286095 5.799381 5.811598 5.7962856 5.810628 5.813123 5.815762 5.8044286
5.789726 5.8053927 5.799606 5.7886896 5.783576 5.7784925 5.793779 5.7674055
5.817885 5.765195 5.7750545 5.7928863 5.7967763 5.814809 5.774243 5.7941775
5.788136 5.7888813 5.7807813 5.784711 5.767156 5.7996254 5.7720203 5.7869716
5.7746844 5.7362328 5.773567 5.7774715 5.7514815 5.7790084 5.75179 5.759012
5.7822995 5.7523932 5.7743554 5.7552896 5.7499466 5.7542033 5.7653685 5.766285
5.7501326 5.7514167 5.77989 5.7837276 5.763249 5.764627 5.7464447 5.753524
5.726024 5.7442665 5.739636 5.7314057 5.757462 5.7465367 5.725773 5.7366147
5.721698 5.720056 5.75677 5.7129865 5.7659407 5.7331047 5.7094765 5.7316375
5.721078 5.72961 5.7350426 5.7257595 5.701245 5.730267 5.7226267 5.720134
5.727608 5.716538 5.7499123 5.728635 5.732569 5.7196507 5.726103 5.7195287
5.7036247 5.748635 5.7253227 5.70731 5.73204 5.7287917 5.7293763 5.734024
5.746552 5.686113 5.7250857 5.710737 5.711886 5.7141523 5.7266936 5.7222266
5.6806893 5.7160115 5.7019315 5.702926 5.729757 5.703394 5.705395 5.720507

cebra_veldir_train f8 [6900, 3]
00000000: 0000 0020 5b2b dcbf 0000 00e0 423b ecbf
00000010: 0000 00e0 b464 c53f 0000 0040 072a dcbf
00000020: 0000 0040 f630 ecbf 0000 0080 9540 c63f
00000030: 0000 0040 e030 dcbf 0000 00e0 b41e ecbf
00000040: 0000 0080 2d86 c73f 0000 00c0 d22c dcbf
00000050: 0000 00a0 3410 ecbf 0000 0080 b2a7 c83f
00000060: 0000 0020 6133 dcbf 0000 00e0 b3f4 ebbf
00000070: 0000 00c0 566d ca3f 0000 0000 bb31 dcbf
00000080: 0000 00c0 e8d6 ebbf 0000 00e0 ae59 cc3f
00000090: 0000 00a0 9c3e dcbf 0000 00c0 1ba3 ebbf
000000a0: 0000 00c0 3f2d cf3f 0000 0080 4d49 dcbf
000000b0: 0000 0080 a863 ebbf 0000 0080 5d2e d13f
000000c0: 0000 00a0 fe5a dcbf 0000 0080 7ff7 eabf
000000d0: 0000 0040 eb92 d33f 0000 00c0 f372 dcbf
000000e0: 0000 0000 d540 eabf 0000 00c0 0004 d73f
000000f0: 0000 00e0 f482 dcbf 0000 0040 07da e8bf
00000100: 0000 00a0 e181 dc3f 0000 0080 3b31 dcbf
00000110: 0000 0020 7bb8 e6bf 0000 00a0 9694 e13f
00000120: 0000 0060 78fc dabf 0000 00c0 71e3 e2bf
00000130: 0000 0020 c206 e63f 0000 0000 b5b6 d7bf
00000140: 0000 0040 a7f1 d7bf 0000 0080 5c34 eb3f
00000150: 0000 00e0 c3dc d0bf 0000 0060 746a a5bf
00000160: 0000 0040 1dd7 ee3f 0000 0060 3eb9 c1bf
00000170: 0000 0080 22be d03f 0000 00e0 ec90 ee3f
00000180: 0000 00c0 ab12 a2bf 0000 0080 2041 de3f
00000190: 0000 0000 142d ec3f 0000 0000 4612 9f3f
000001a0: 0000 00a0 761e e33f 0000 00a0 65a4 e93f
000001b0: 0000 0040 776c b23f 0000 0000 b783 e53f
000001c0: 0000 00e0 6c93 e73f 0000 0060 4732 b93f
000001d0: 0000 0040 9800 e73f 0000 0000 a905 e63f
000001e0: 0000 00a0 f381 bc3f 0000 00a0 deca e73f
000001f0: 0000 0020 aa19 e53f 0000 00a0 0173 be3f
00000200: 0000 00e0 6e60 e83f 0000 0060 f060 e43f
00000210: 0000 00a0 9809 bf3f 0000 0060 d2ab e83f
00000220: 0000 0020 cc01 e43f 0000 0000 1e81 bd3f
00000230: 0000 0040 b8aa e83f 0000 00c0 6c0c e43f
00000240: 0000 00a0 e05b bb3f 0000 0040 ea89 e83f
00000250: 0000 0040 9640 e43f 0000 0000 c12d b93f
00000260: 0000 0000 9b64 e83f 0000 00a0 aa78 e43f
00000270: 0000 00e0 b2ec b63f 0000 00c0 c531 e83f
00000280: 0000 0060 1cbf e43f 0000 0000 c9d3 b43f
00000290: 0000 00c0 12fa e73f 0000 0080 1e08 e53f
000002a0: 0000 0020 7438 b13f 0000 00c0 288a e73f
000002b0: 0000 00a0 d491 e53f 0000 0040 ef24 ac3f
000002c0: 0000 0060 4616 e73f 0000 0000 9f16 e63f
000002d0: 0000 0040 a5a8 a63f 0000 0000 8da4 e63f
000002e0: 0000 00e0 5191 e63f 0000 0040 d1a1 a03f
000002f0: 0000 00c0 3919 e63f 0000 0060 f01e e73f
00000300: 0000 00e0 951e 953f 0000 00a0 447a e53f
00000310: 0000 0020 5eb6 e73f 0000 0040 a018 833f
00000320: 0000 0020 1dd2 e43f 0000 00e0 5c4c e83f
00000330: 0000 0000 e6f6 5cbf 0000 00e0 f70e e43f
00000340: 0000 0040 d9ee e83f 0000 00c0 0e92 8cbf
00000350: 0000 0020 1130 e33f 0000 00e0 f39a e93f
00000360: 0000 0020 0bee 99bf 0000 00c0 523c e23f
00000370: 0000 00c0 7d48 ea3f 0000 0080 a8f9 a3bf
00000380: 0000 0000 6c22 e13f 0000 0000 4cff ea3f
00000390: 0000 0040 7721 abbf 0000 0040 7aa8 df3f
000003a0: 0000 0000 52c2 eb3f 0000 00c0 88ec afbf
000003b0: 0000 0040 193c dd3f 0000 0080 7565 ec3f
000003c0: 0000 0000 b0d6 b4bf 0000 00e0 d43e d93f
000003d0: 0000 0080 244a ed3f 0000 0040 08f5 b9bf
000003e0: 0000 00c0 685b d43f 0000 00e0 fe29 ee3f
000003f0: 0000 0040 a01f c0bf 0000 0040 cb5c cb3f
00000400: 0000 0080 d3ff ee3f 0000 00c0 3cd1 c4bf
00000410: 0000 0060 9b4d a73f 0000 0040 548a ef3f
00000420: 0000 0080 fa9a c9bf 0000 00c0 8ffb c8bf
00000430: 0000 00a0 8db9 ee3f 0000 00e0 bf17 cfbf
00000440: 0000 0040 7ba9 e2bf 0000 0020 2cce e83f
00000450: 0000 00a0 15da cdbf 0000 00a0 4d2e edbf
00000460: 0000 00a0 ef9c d53f 0000 00c0 a162 c6bf
00000470: 0000 0040 c472 efbf 0000 00a0 feb6 aebf
00000480: 0000 0000 f833 c0bf 0000 0040 f348 eebf
00000490: 0000 0060 6004 d3bf 0000 00c0 b3e6 b7bf
000004a0: 0000 00a0 c6a3 ecbf 0000 0000 bcea dbbf
000004b0: 0000 00e0 caa7 b1bf 0000 0080 3a2c ebbf
000004c0: 0000 0040 96c1 e0bf 0000 0020 9789 aabf
000004d0: 0000 0020 79fb e9bf 0000 0080 089b e2bf
000004e0: 0000 0060 a7ea a3bf 0000 00a0 8005 e9bf
000004f0: 0000 00c0 bfe8 e3bf 0000 0040 477e 9ebf
00000500: 0000 00a0 b149 e8bf 0000 0060 31d0 e4bf
00000510: 0000 0020 9db1 95bf 0000 0080 a0a2 e7bf
00000520: 0000 0080 d78f e5bf 0000 0000 7259 8fbf
00000530: 0000 00c0 0824 e7bf 0000 0000 c318 e6bf
00000540: 0000 0020 9a17 87bf 0000 0020 5cc3 e6bf
00000550: 0000 0040 ed7c e6bf 0000 00a0 cfb6 7fbf
00000560: 0000 0040 ca6b e6bf 0000 0040 a0d4 e6bf
00000570: 0000 00a0 d2a1 71bf 0000 00e0 341d e6bf
00000580: 0000 00a0 0221 e7bf 0000 0080 f32a 4fbf
00000590: 0000 0040 aed2 e5bf 0000 0040 7a67 e7bf
000005a0: 0000 0040 a00d 563f 0000 00a0 6c97 e5bf
000005b0: 0000 00a0 2e9e e7bf 0000 00c0 67be 6f3f
000005c0: 0000 00e0 cd59 e5bf 0000 0020 dfd5 e7bf
000005d0: 0000 0000 b615 773f 0000 0020 8e25 e5bf
000005e0: 0000 00c0 2e04 e8bf 0000 0060 61b6 7d3f
000005f0: 0000 0000 6af5 e4bf 0000 0060 202e e8bf
00000600: 0000 0000 8bce 823f 0000 0060 22c2 e4bf
00000610: 0000 00c0 085a e8bf 0000 00c0 e59c 863f
00000620: 0000 00e0 068f e4bf 0000 0040 0a85 e8bf
00000630: 0000 00e0 2dd4 8a3f 0000 00a0 d058 e4bf
00000640: 0000 00a0 d5b1 e8bf 0000 0020 360a 8d3f
00000650: 0000 0040 b62d e4bf 0000 00a0 f2d4 e8bf
00000660: 0000 00a0 7912 903f 0000 0020 d6fb e3bf
00000670: 0000 00c0 eafc e8bf 0000 00c0 9b32 923f
00000680: 0000 00e0 f5c3 e3bf 0000 0000 d828 e9bf
00000690: 0000 00a0 408c 933f 0000 00e0 8a94 e3bf
000006a0: 0000 0040 904d e9bf 0000 0000 d90d 943f
000006b0: 0000 0060 1970 e3bf 0000 00a0 8069 e9bf
000006c0: 0000 0040 c934 943f 0000 0080 2a51 e3bf
000006d0: 0000 0040 0481 e9bf 0000 0020 27fe 923f
000006e0: 0000 00a0 e145 e3bf 0000 0020 c889 e9bf
000006f0: 0000 0060 3dcf 903f 0000 0000 344c e3bf
00000700: 0000 00a0 6385 e9bf 0000 00a0 7ef7 883f
00000710: 0000 00c0 1c6b e3bf 0000 0060 866e e9bf
00000720: 0000 0040 5bba 7b3f 0000 0040 b29e e3bf
00000730: 0000 0080 5847 e9bf 0000 0020 74da 5b3f
00000740: 0000 0000 dbd2 e3bf 0000 0040 bf1e e9bf
00000750: 0000 00e0 fa15 73bf 0000 0020 981e e4bf
00000760: 0000 0000 26e2 e8bf 0000 00c0 8891 8abf
00000770: 0000 0040 0782 e4bf 0000 0020 ab8f e8bf
00000780: 0000 0080 d470 95bf 0000 0040 28e6 e4bf
00000790: 0000 0020 3b39 e8bf 0000 00c0 8ea8 9dbf
000007a0: 0000 0080 854f e5bf 0000 00c0 8ada e7bf
000007b0: 0000 00e0 b2b4 a2bf 0000 00c0 03b7 e5bf
000007c0: 0000 0040 b679 e7bf 0000 0000 be7b a6bf
000007d0: 0000 00a0 8b1f e6bf 0000 00c0 ef13 e7bf
000007e0: 0000 0020 f735 aabf 0000 0060 8684 e6bf
000007f0: 0000 0000 73ad e6bf 0000 0080 c182 adbf
-0.44014623761177063 -0.8822340369224548 0.1671358197927475 -0.4400652050971985 -0.8809767961502075 0.17384594678878784 -0.4404831528663635 -0.87874835729599
0.18378227949142456 -0.44023579359054565 -0.8769782185554504 0.19261771440505981 -0.44063594937324524 -0.8736209273338318 0.20646175742149353 -0.440535306930542
-0.8699840307235718 0.2214869111776352 -0.4413215219974518 -0.8636606931686401 0.24356839060783386 -0.44197404384613037 -0.8559153079986572 0.268454909324646
-0.44305387139320374 -0.8427121639251709 0.30584222078323364 -0.444516122341156 -0.8204140663146973 0.3596193194389343 -0.4454929530620575 -0.776614785194397
0.4454273283481598 -0.44050490856170654 -0.7100196480751038 0.5493882298469543 -0.42165955901145935 -0.5902642011642456 0.6883249878883362 -0.3705265522003174
-0.37412434816360474 0.8501417636871338 -0.2634744346141815 -0.04182780906558037 0.9637590646743774 -0.13846568763256073 0.261604905128479 0.9551910758018494
-0.03529869765043259 0.4727250337600708 0.8805027008056641 0.03034314513206482 0.5974686741828918 0.8013179898262024 0.07196755707263947 0.6723284721374512
0.7367462515830994 0.09842344373464584 0.7188225984573364 0.6881909370422363 0.1113579049706459 0.743514358997345 0.6593828797340393 0.11894235759973526
0.7617716193199158 0.6368333697319031 0.12124017626047134 0.770974338054657 0.6252194046974182 0.11525142192840576 0.7708398103713989 0.6265166997909546
0.10687068849802017 0.7668353319168091 0.63288414478302 0.09835439920425415 0.7622809410095215 0.6397297978401184 0.0895492359995842 0.7560757398605347
0.648328959941864 0.08135658502578735 0.7492765188217163 0.6572411060333252 0.06726766377687454 0.7356151342391968 0.6740515828132629 0.054969288408756256
0.7214691042900085 0.6902613639831543 0.04425541311502457 0.7075867652893066 0.7052392363548279 0.032484568655490875 0.6905792951583862 0.7225267291069031
0.020624486729502678 0.6711753010749817 0.7410116791725159 0.009324314072728157 0.6506486535072327 0.7593216300010681 -0.001767849549651146 0.6268271803855896
0.7791563272476196 -0.01395045779645443 0.5996175408363342 0.8001651167869568 -0.02532212622463703 0.5698636770248413 0.821349024772644 -0.03901411592960358
0.5354518890380859 0.8436641693115234 -0.05298969894647598 0.49465805292129517 0.8674707412719727 -0.06235148757696152 0.4567931294441223 0.8873851299285889
-0.08140087127685547 0.39445993304252625 0.9153006076812744 -0.1013951450586319 0.3180791735649109 0.942626416683197 -0.1259651482105255 0.2137693464756012
0.96872878074646 -0.1626354157924652 0.04551396891474724 0.9856358766555786 -0.20004206895828247 -0.19517704844474792 0.9601505398750305 -0.24291227757930756
-0.5831886529922485 0.7751675248146057 -0.23321790993213654 -0.9119022488594055 0.3377036154270172 -0.17488500475883484 -0.9827595949172974 -0.05998988822102547
-0.1265859603881836 -0.9464050531387329 -0.2971421182155609 -0.09336398541927338 -0.8949921727180481 -0.4362020492553711 -0.06896656006574631 -0.8491489887237549
-0.52363121509552 -0.05183098092675209 -0.8119474053382874 -0.5814249515533447 -0.03889964148402214 -0.7819216847419739 -0.6221617460250854 -0.02977858856320381
-0.7589958310127258 -0.6504141688346863 -0.02118535526096821 -0.7386019229888916 -0.6738088130950928 -0.015307322144508362 -0.7231487035751343 -0.6905226707458496
-0.011275486089289188 -0.7113476395606995 -0.7027498483657837 -0.007742701563984156 -0.7006579637527466 -0.713455319404602 -0.00430471682921052 -0.69106525182724
-0.7227795720100403 -0.0009511651005595922 -0.6819678544998169 -0.7313815355300903 0.0013460221234709024 -0.6747344136238098 -0.7380593419075012 0.0038749719969928265
-0.6672124266624451 -0.7448573708534241 0.005635939538478851 -0.6608343720436096 -0.750510573387146 0.00725400960072875 -0.6549577713012695 -0.7556306719779968
0.009183011949062347 -0.6486980319023132 -0.7609905004501343 0.011041445657610893 -0.6424593329429626 -0.7662402391433716 0.013100012205541134 -0.6358416676521301
-0.7717083096504211 0.014179632999002934 -0.6305800676345825 -0.775994598865509 0.01569547690451145 -0.6244917511940002 -0.7808736562728882 0.017771180719137192
-0.6176709532737732 -0.7862358093261719 0.019089708104729652 -0.6118826270103455 -0.7907181978225708 0.01958407461643219 -0.6074339747428894 -0.7941287159919739
0.019732613116502762 -0.6036579608917236 -0.7969990968704224 0.01854764111340046 -0.6022804379463196 -0.7980690598487854 0.016415556892752647 -0.6030521392822266
-0.797532856464386 0.012190808542072773 -0.6068252325057983 -0.7947418093681335 0.006769520230591297 -0.6131221055984497 -0.789959192276001 0.0017000326188281178
-0.6194891929626465 -0.7850033044815063 -0.004659633617848158 -0.6287346482276917 -0.7776060104370117 -0.012972896918654442 -0.640872597694397 -0.7675376534461975
-0.020938225090503693 -0.6530953645706177 -0.7569862008094788 -0.028963308781385422 -0.6659572124481201 -0.7454274892807007 -0.0365348719060421 -0.6785906553268433
-0.7336074113845825 -0.04391282796859741 -0.6913507580757141 -0.7211836576461792 -0.05119297280907631 -0.7036773562431335 -0.7086730003356934 -0.05763821303844452

cebra_veldir_test f8 [1800, 3]
00000000: 0000 0060 4ef5 d6bf 0000 00e0 b7c3 edbf
00000010: 0000 0020 a615 b4bf 0000 0020 10be d6bf
00000020: 0000 0080 9cc6 edbf 0000 0020 30c3 b6bf
00000030: 0000 0020 d981 d6bf 0000 00e0 4dc8 edbf
00000040: 0000 0080 bac0 b9bf 0000 0060 523e d6bf
00000050: 0000 00a0 23c8 edbf 0000 0060 853b bdbf
00000060: 0000 0040 bded d5bf 0000 0080 d4c5 edbf
00000070: 0000 0040 34ab c0bf 0000 00e0 8293 d5bf
00000080: 0000 0060 e0c0 edbf 0000 0040 19e9 c2bf
00000090: 0000 0020 6e1a d5bf 0000 00e0 76b7 edbf
000000a0: 0000 00e0 9bc1 c5bf 0000 0040 7dac d4bf
000000b0: 0000 0080 afa9 edbf 0000 0020 026b c8bf
000000c0: 0000 0000 c730 d4bf 0000 00e0 a796 edbf
000000d0: 0000 0060 b84e cbbf 0000 0080 93a6 d3bf
000000e0: 0000 0040 887c edbf 0000 0040 5577 cebf
000000f0: 0000 00a0 5f0d d3bf 0000 0020 2d5a edbf
00000100: 0000 00e0 5aef d0bf 0000 0080 2878 d2bf
00000110: 0000 00e0 2d32 edbf 0000 0060 bc94 d2bf
00000120: 0000 0000 4fc3 d1bf 0000 0040 9efe ecbf
00000130: 0000 0020 3e70 d4bf 0000 00e0 aaf7 d0bf
00000140: 0000 00a0 4dbd ecbf 0000 0020 c574 d6bf
00000150: 0000 00e0 681c d0bf 0000 0040 dc70 ecbf
00000160: 0000 00e0 6d83 d8bf 0000 0080 e252 cebf
00000170: 0000 00c0 3713 ecbf 0000 00e0 10b5 dabf
00000180: 0000 0060 9235 ccbf 0000 0040 bda3 ebbf
00000190: 0000 0060 2f01 ddbf 0000 0060 dcd7 c9bf
000001a0: 0000 0000 1d1e ebbf 0000 00c0 f46c dfbf
000001b0: 0000 0060 ed2d c7bf 0000 00e0 ba7d eabf
000001c0: 0000 0000 49fd e0bf 0000 00e0 4851 c4bf
000001d0: 0000 0040 edc2 e9bf 0000 0000 694a e2bf
000001e0: 0000 00e0 7e15 c1bf 0000 0000 cce4 e8bf
000001f0: 0000 0000 ffa5 e3bf 0000 0060 a8d9 b9bf
00000200: 0000 0020 5cb4 e7bf 0000 0040 8d40 e5bf
00000210: 0000 00e0 6c7f b0bf 0000 0040 fd43 e6bf
00000220: 0000 00e0 0ee4 e6bf 0000 00c0 2317 91bf
00000230: 0000 0000 2743 e4bf 0000 0000 0ec3 e8bf
00000240: 0000 00e0 3986 a83f 0000 0020 ea4b e1bf
00000250: 0000 00a0 05e1 eabf 0000 00a0 288c c13f
00000260: 0000 00e0 488a d9bf 0000 0060 0003 edbf
00000270: 0000 0080 b986 d03f 0000 0080 a00d c6bf
00000280: 0000 00a0 4c6b eebf 0000 00a0 754f d93f
00000290: 0000 00c0 229f c33f 0000 0060 a0fa ecbf
000002a0: 0000 0000 44b4 df3f 0000 0040 1baf e03f
000002b0: 0000 0000 ee3b e6bf 0000 00a0 e945 e03f
000002c0: 0000 0000 a926 e83f 0000 0020 cd86 dabf
000002d0: 0000 0020 885b de3f 0000 00e0 8fa8 eb3f
000002e0: 0000 0080 b365 c5bf 0000 0020 d1cc db3f
000002f0: 0000 00a0 c9d2 ec3f 0000 0020 da26 533f
00000300: 0000 0040 a9ad d93f 0000 0040 5416 ed3f
00000310: 0000 0060 58f1 bc3f 0000 0000 aecc d73f
00000320: 0000 0000 a001 ed3f 0000 00a0 fe9e c93f
00000330: 0000 0020 1930 d63f 0000 00a0 1ec4 ec3f
00000340: 0000 0020 9623 d13f 0000 0080 b1ee d43f
00000350: 0000 0060 c074 ec3f 0000 0020 3977 d43f
00000360: 0000 0020 5add d33f 0000 0000 c223 ec3f
00000370: 0000 0040 ec1b d73f 0000 0000 f9d2 d23f
00000380: 0000 0060 85c6 eb3f 0000 0060 879b d93f
00000390: 0000 0040 31ff d13f 0000 00a0 7c6e eb3f
000003a0: 0000 0000 639b db3f 0000 0080 0d37 d13f
000003b0: 0000 00e0 7611 eb3f 0000 0040 167a dd3f
000003c0: 0000 0040 ab87 d03f 0000 0000 ccb6 ea3f
000003d0: 0000 0060 aa1d df3f 0000 0000 57e3 cf3f
000003e0: 0000 00e0 5b61 ea3f 0000 00c0 a643 e03f
000003f0: 0000 00e0 00b4 ce3f 0000 0000 1d04 ea3f
00000400: 0000 0000 53fa e03f 0000 00e0 739d cd3f
00000410: 0000 0060 49a4 e93f 0000 0060 94a7 e13f
00000420: 0000 0060 51b4 cc3f 0000 0040 c44c e93f
00000430: 0000 0040 7e3b e23f 0000 00e0 1cba cb3f
00000440: 0000 0080 a9e6 e83f 0000 0080 73dd e23f
00000450: 0000 00e0 f9d1 ca3f 0000 0000 987f e83f
00000460: 0000 0000 ef76 e33f 0000 00a0 e90f ca3f
00000470: 0000 0000 5016 e83f 0000 00c0 ac08 e43f
00000480: 0000 0020 bba0 c93f 0000 0060 f4b6 e73f
00000490: 0000 0020 f881 e43f 0000 0040 78d9 c83f
000004a0: 0000 00a0 503b e73f 0000 0000 8a1c e53f
000004b0: 0000 0080 a199 c83f 0000 0020 63c9 e63f
000004c0: 0000 0060 e19b e53f 0000 0080 799b c83f
000004d0: 0000 0060 1554 e63f 0000 0020 e114 e63f
000004e0: 0000 0040 9d13 c93f 0000 00e0 83e3 e53f
000004f0: 0000 00a0 317c e63f 0000 0080 4012 ca3f
00000500: 0000 0080 4967 e53f 0000 0020 cee0 e63f
00000510: 0000 0080 e433 cb3f 0000 0080 9ab9 e43f
00000520: 0000 00c0 086a e73f 0000 0000 e172 cd3f
00000530: 0000 00c0 76f5 e33f 0000 00a0 a5e7 e73f
00000540: 0000 0080 be97 d03f 0000 00c0 bef8 e23f
00000550: 0000 00a0 cd65 e83f 0000 0040 da75 d33f
00000560: 0000 0060 ee85 e13f 0000 0060 f7f1 e83f
00000570: 0000 0060 f68e d83f 0000 0060 4c38 de3f
00000580: 0000 0080 2365 e93f 0000 00e0 034e e03f
00000590: 0000 00c0 ee2b d53f 0000 0060 1d6b e93f
000005a0: 0000 0040 f470 e73f 0000 0080 5edd 90bf
000005b0: 0000 00a0 dfc6 e53f 0000 0000 48fd e83f
000005c0: 0000 00c0 373d e3bf 0000 00e0 0eaf c53f
000005d0: 0000 00a0 a44a e03f 0000 0040 9ffa e9bf
000005e0: 0000 00e0 834b d2bf 0000 00a0 f701 d53f
000005f0: 0000 00e0 cc65 eabf 0000 00c0 5373 ddbf
00000600: 0000 0020 8cca cc3f 0000 00a0 9e35 eabf
00000610: 0000 0080 b8e3 e0bf 0000 00e0 d053 c43f
00000620: 0000 0020 9afc e9bf 0000 00a0 ebf7 e1bf
00000630: 0000 0000 bee7 ba3f 0000 00c0 f3de e9bf
00000640: 0000 0020 d987 e2bf 0000 0020 78ea b13f
00000650: 0000 0000 7ec9 e9bf 0000 0020 b0d0 e2bf
00000660: 0000 0040 00a8 a43f 0000 00c0 8dc7 e9bf
00000670: 0000 00c0 0eea e2bf 0000 00c0 75b8 903f
00000680: 0000 0000 bec1 e9bf 0000 0040 60fb e2bf
00000690: 0000 0040 557a 75bf 0000 00a0 c1ce e9bf
000006a0: 0000 0000 53eb e2bf 0000 00e0 8cf6 98bf
000006b0: 0000 0040 26e2 e9bf 0000 0020 cfcc e2bf
000006c0: 0000 0080 e680 a5bf 0000 0060 53f7 e9bf
000006d0: 0000 0060 4ea7 e2bf 0000 0020 0797 adbf
000006e0: 0000 0060 5812 eabf 0000 00a0 4a76 e2bf
000006f0: 0000 0060 3467 b2bf 0000 0020 2f2b eabf
00000700: 0000 0020 ed45 e2bf 0000 0000 4f99 b5bf
00000710: 0000 0040 d13e eabf 0000 00c0 951b e2bf
00000720: 0000 0060 2d2d b9bf 0000 0020 2962 eabf
00000730: 0000 0000 35d5 e1bf 0000 00e0 20e9 bbbf
00000740: 0000 0040 7b78 eabf 0000 0060 94a3 e1bf
00000750: 0000 00a0 f80e bebf 0000 00a0 7383 eabf
00000760: 0000 00e0 e184 e1bf 0000 0000 c3f8 bfbf
00000770: 0000 0060 2e90 eabf 0000 0000 ee63 e1bf
00000780: 0000 0060 71e1 c0bf 0000 00c0 1d9c eabf
00000790: 0000 0040 0a44 e1bf 0000 00e0 466d c1bf
000007a0: 0000 00a0 119a eabf 0000 0080 823e e1bf
000007b0: 0000 00e0 e5f2 c1bf 0000 0000 569a eabf
000007c0: 0000 00c0 8535 e1bf 0000 00a0 ca6c c2bf
000007d0: 0000 0020 eb9a eabf 0000 0080 8f2c e1bf
000007e0: 0000 00a0 c3ee c2bf 0000 00e0 f6a1 eabf
000007f0: 0000 0080 c218 e1bf 0000 0080 9f59 c3bf
-0.3587222993373871 -0.9301413893699646 -0.07845533639192581 -0.355350524187088 -0.9304945468902588 -0.08891583234071732 -0.3516753017902374 -0.9307011961936951
-0.10059705376625061 -0.3475538194179535 -0.930681049823761 -0.11418946832418442 -0.34263545274734497 -0.9303991794586182 -0.13022473454475403 -0.3371283710002899
-0.9297944903373718 -0.14773860573768616 -0.32973816990852356 -0.9286455512046814 -0.16997097432613373 -0.32302790880203247 -0.9269635677337646 -0.1907656341791153
-0.3154771327972412 -0.9246405959129333 -0.21333985030651093 -0.3070420026779175 -0.9214516878128052 -0.2380167543888092 -0.2976912558078766 -0.9172578454017639
-0.26460906863212585 -0.2885838747024536 -0.9123753905296326 -0.29032811522483826 -0.277545690536499 -0.9060813188552856 -0.3193507492542267 -0.265116423368454
-0.8981083035469055 -0.3508770763874054 -0.2517339885234833 -0.8887768983840942 -0.3830218017101288 -0.23690444231033325 -0.8773459196090698 -0.41730138659477234
-0.220384880900383 -0.8637377023696899 -0.45319733023643494 -0.20190005004405975 -0.8474259376525879 -0.4910251498222351 -0.18108908832073212 -0.8278478980064392
-0.5309185981750488 -0.158730611205101 -0.8050447702407837 -0.5715832710266113 -0.13346849381923676 -0.7779293060302734 -0.6140131950378418 -0.10097744315862656
-0.7407665848731995 -0.6641298532485962 -0.06444435566663742 -0.6957994699478149 -0.7153391242027283 -0.016689833253622055 -0.6331973075866699 -0.7738103866577148
0.04789906367659569 -0.5405169129371643 -0.8399685025215149 0.137089803814888 -0.399065226316452 -0.9066163897514343 0.25822293758392334 -0.1722908616065979
-0.9505980610847473 0.3954748213291168 0.1532939374446869 -0.9055940508842468 0.4953775405883789 0.521375298500061 -0.6948156356811523 0.5085342526435852
0.7547192573547363 -0.4144776165485382 0.4743366539478302 0.8643264174461365 -0.16716617345809937 0.4343760311603546 0.9007309079170227 0.0011689310194924474
0.40122443437576294 0.9089757204055786 0.11305763572454453 0.37186765670776367 0.9064483642578125 0.20016463100910187 0.3466856777667999 0.89894038438797
0.2677970230579376 0.3270686864852905 0.8892518877983093 0.3197768032550812 0.31038525700569153 0.8793649673461914 0.36107927560806274 0.2941267490386963
0.8679835200309753 0.4001177251338959 0.28120070695877075 0.8572371602058411 0.43135905265808105 0.26898515224456787 0.8458818793296814 0.460576593875885
0.25828057527542114 0.8348140716552734 0.48618564009666443 0.24912536144256592 0.8243846297264099 0.5082582235336304 0.23986826837062836 0.8130021095275879
0.5305571556091309 0.2313675731420517 0.8013045191764832 0.5517064929008484 0.2242528647184372 0.7906209230422974 0.5697623491287231 0.21661721169948578
0.7781569957733154 0.5895326137542725 0.2095329612493515 0.7655754089355469 0.6082682609558105 0.2036106139421463 0.7527236938476562 0.6260589361190796
0.2002176195383072 0.7410833239555359 0.6408653855323792 0.19413664937019348 0.7259905934333801 0.659733772277832 0.19218844175338745 0.7120833992958069
0.67527836561203 0.19224470853805542 0.6977640986442566 0.6900487542152405 0.19591107964515686 0.684022843837738 0.7026603817939758 0.20368200540542603
0.6688582897186279 0.7149420380592346 0.21252113580703735 0.6476566791534424 0.7316936254501343 0.23006832599639893 0.6237138509750366 0.7470272183418274
0.25926172733306885 0.5928643941879272 0.7624271512031555 0.3040681481361389 0.5475990176200867 0.7795369029045105 0.38372573256492615 0.4721861779689789
0.7935960292816162 0.509523332118988 0.3308064341545105 0.7943255305290222 0.7325383424758911 -0.016469456255435944 0.6805265545845032 0.7809181213378906
-0.6012228727340698 0.16940484941005707 0.5091117024421692 -0.8118435144424438 -0.285859078168869 0.3282450735569 -0.8249267935752869 -0.46016401052474976
0.2249312549829483 -0.81904536485672 -0.5277979373931885 0.15880785882472992 -0.8120852112770081 -0.5615137219429016 0.10509860515594482 -0.808465838432312
-0.5790830254554749 0.06998396664857864 -0.8058462142944336 -0.5879746079444885 0.0403442457318306 -0.8056095838546753 -0.5910714864730835 0.016328658908605576
-0.8049001693725586 -0.593185544013977 -0.005243618972599506 -0.8064888119697571 -0.5912261009216309 -0.024378014728426933 -0.8088561296463013 -0.5875011086463928
-0.041999056935310364 -0.8114411234855652 -0.5829231142997742 -0.05779287591576576 -0.8147394061088562 -0.5769398808479309 -0.07188727706670761 -0.8177714943885803
-0.5710359215736389 -0.08437055349349976 -0.820168137550354 -0.5658673048019409 -0.09834560006856918 -0.8244825005531311 -0.5572762489318848 -0.10902600735425949
-0.8272072076797485 -0.5512182116508484 -0.11741594225168228 -0.8285463452339172 -0.5474709868431091 -0.1248895525932312 -0.8301002383232117 -0.5434484481811523
-0.13187997043132782 -0.8315571546554565 -0.5395556688308716 -0.1361473649740219 -0.8313072323799133 -0.5388805866241455 -0.14022515714168549 -0.8313398361206055
-0.5377835035324097 -0.14394505321979523 -0.8314109444618225 -0.5366895198822021 -0.14791150391101837 -0.8322710394859314 -0.5342724323272705 -0.15117257833480835

continuous_index_train f8 [6900, 3]
00000000: 18e3 a6ef 0c34 12c0 0881 b891 2864 3dc0
00000010: 0000 0000 0000 0000 56ac 1adf bcde 97bf
00000020: 8ad2 5a4d 0e35 39c0 0000 0000 0000 0000
00000030: 8900 9281 1204 2240 3b77 7220 d638 32c0
00000040: 0000 0000 0000 0000 ba83 ed15 983e 3140
00000050: 0de4 8de1 7970 26c0 0000 0000 0000 0000
00000060: 9987 fafa 1219 3840 8adc e209 8fcf 14c0
00000070: 0000 0000 0000 0000 a773 fefc 6c75 3e40
00000080: be2d 790b cb05 bebf 0000 0000 0000 0000
00000090: 4923 b9be ed29 3f40 4bae ebd6 32f8 0340
000000a0: 0000 0000 0000 0000 2126 56a8 8f4c 3740
000000b0: 354a 088a 6910 fe3f 0000 0000 0000 0000
000000c0: 9cc8 f040 a870 2440 f02a 104f 055b f03f
000000d0: 0000 0000 0000 0000 650a 410f 4c66 31c0
000000e0: 6217 17d9 619a 0ec0 0000 0000 0000 0000
000000f0: 88e7 10c3 5d62 4dc0 edfd 9e88 6b60 2cc0
00000100: 0000 0000 0000 0000 a78c 109d 8abe 5cc0
00000110: de37 a7e6 3743 3dc0 0000 0000 0000 0000
00000120: 01c4 a2ef 6e2a 67c0 c95c 18a3 ed5b 48c0
00000130: 0000 0000 0000 0000 a04e 7548 bb8e 70c0
00000140: d389 244b 2e2a 52c0 0000 0000 0000 0000
00000150: 697b 9568 36ee 75c0 c4ee ed8f 2eeb 58c0
00000160: 0000 0000 0000 0000 c288 9965 02a6 7bc0
00000170: 82b5 5419 301e 60c0 0000 0000 0000 0000
00000180: e106 58fa 19bd 80c0 ab5c 203a 1c24 64c0
00000190: 0000 0000 0000 0000 63d1 be7a a297 83c0
000001a0: 007d 7e60 8396 68c0 0000 0000 0000 0000
000001b0: fdb1 d0d9 ca26 86c0 1dba 153e 1454 6dc0
000001c0: 0000 0000 0000 0000 64fe 8a55 6a43 88c0
000001d0: 725c c1a3 fc4c 71c0 0000 0000 0000 0000
000001e0: 495e 2ab7 ee91 89c0 e3ed 80bb b9d6 73c0
000001f0: 0000 0000 0000 0000 2630 762c b4f7 89c0
00000200: 5da0 0098 c631 76c0 0000 0000 0000 0000
00000210: f381 8e51 ff96 89c0 43a9 34da b24f 78c0
00000220: 0000 0000 0000 0000 70d9 bb7d 48b4 88c0
00000230: ee27 b34f eb22 7ac0 0000 0000 0000 0000
00000240: b025 2d5d 43a8 87c0 fb9b 1207 e3c6 7bc0
00000250: 0000 0000 0000 0000 d224 09a2 adb5 86c0
00000260: 48b7 8883 545d 7dc0 0000 0000 0000 0000
00000270: 5a04 95d9 b81e 86c0 5eeb 56c5 aedf 7ec0
00000280: 0000 0000 0000 0000 c8a3 6c8c 92bf 85c0
00000290: 3be9 7c0a dd00 80c0 0000 0000 0000 0000
000002a0: fa62 f18d 7955 85c0 2fb0 6b13 ed43 80c0
000002b0: 0000 0000 0000 0000 1acb 9757 40d3 84c0
000002c0: 5193 2847 0a27 80c0 0000 0000 0000 0000
000002d0: 3339 0e37 c820 84c0 a6c6 8e5f f443 7fc0
000002e0: 0000 0000 0000 0000 1e7a 1f4c 2513 83c0
000002f0: 77f3 5049 c985 7dc0 0000 0000 0000 0000
00000300: 69ab 971b 7cf2 81c0 e1b6 fe52 2b8d 7bc0
00000310: 0000 0000 0000 0000 6079 612a afcb 80c0
00000320: 5713 0e76 3c82 79c0 0000 0000 0000 0000
00000330: 6ccd 5e60 d16e 7fc0 3401 2576 6b78 77c0
00000340: 0000 0000 0000 0000 4026 3768 70ce 7dc0
00000350: a90d bec2 c386 75c0 0000 0000 0000 0000
00000360: f6cb d460 539f 7cc0 ec4f 586d 90a3 73c0
00000370: 0000 0000 0000 0000 24e9 dcbc d4ba 7bc0
00000380: 5b14 3c95 12a5 71c0 0000 0000 0000 0000
00000390: 8e83 4f09 25f9 7ac0 55bc 17b3 9b36 6fc0
000003a0: 0000 0000 0000 0000 13cc f2a4 7d13 7ac0
000003b0: d324 2043 43c8 6ac0 0000 0000 0000 0000
000003c0: 4fa9 cca2 56be 78c0 8647 1cfd 1602 66c0
000003d0: 0000 0000 0000 0000 6b3f b4ce dbfb 76c0
000003e0: cb46 7e24 41c4 60c0 0000 0000 0000 0000
000003f0: bb49 1a72 2822 75c0 e5ad 156f f717 57c0
00000400: 0000 0000 0000 0000 99f3 8560 1724 73c0
00000410: f359 92c3 bb67 48c0 0000 0000 0000 0000
00000420: a265 9476 df4d 71c0 08fc f07f 22f4 18c0
00000430: 0000 0000 0000 0000 3e77 fd6f abf4 6fc0
00000440: 79f6 02d9 8514 3f40 0000 0000 0000 0000
00000450: 54b8 4d4d 7e00 6ec0 8bff 7f2d 029f 5040
00000460: 0000 0000 0000 0000 aa4e 10d2 916f 6cc0
00000470: 7de6 768e 6085 5940 0000 0000 0000 0000
00000480: 60f1 5f48 49ee 6ac0 d4be f738 6b03 6140
00000490: 0000 0000 0000 0000 274e d3a2 22cf 68c0
000004a0: 994b d5b0 30a6 6540 0000 0000 0000 0000
000004b0: 92e7 6935 5dba 65c0 67b2 c6c0 9e57 6a40
000004c0: 0000 0000 0000 0000 b0a5 f7ea 66df 61c0
000004d0: a194 5694 5076 6e40 0000 0000 0000 0000
000004e0: be12 14c7 d9ad 5bc0 99f3 05bc fbdc 7040
000004f0: 0000 0000 0000 0000 a36b 4af9 95af 53c0
00000500: 9d73 7fb4 683d 7240 0000 0000 0000 0000
00000510: 6dcf f3cf aa65 49c0 13b1 9160 c483 7340
00000520: 0000 0000 0000 0000 54a0 2f25 4743 3ec0
00000530: 15f2 7829 95d3 7440 0000 0000 0000 0000
00000540: d768 5a71 f224 2cc0 60e2 2afd 3296 7640
00000550: 0000 0000 0000 0000 2a54 a519 4b55 d7bf
00000560: 7457 e5a5 7fbb 7840 0000 0000 0000 0000
00000570: 56e3 cf38 c2a2 2a40 51c4 82b7 15dd 7a40
00000580: 0000 0000 0000 0000 d805 8100 1d85 3d40
00000590: 6461 7464 e5f0 7c40 0000 0000 0000 0000
000005a0: 31ab 74ab 3ff7 4740 1833 ee24 b58f 7e40
000005b0: 0000 0000 0000 0000 1b34 1367 e97e 5040
000005c0: 09a7 c806 8c6b 7f40 0000 0000 0000 0000
000005d0: b876 78a8 0235 5440 b705 c8d3 79b6 7f40
000005e0: 0000 0000 0000 0000 617b 42ca ccf8 5640
000005f0: 6d4c 5cfb 4ac2 7f40 0000 0000 0000 0000
00000600: d393 2c7f a0b7 5840 10a5 ce3c 94e3 7f40
00000610: 0000 0000 0000 0000 1985 d73a 826e 5940
00000620: 804c 070a f337 8040 0000 0000 0000 0000
00000630: 869c b421 220a 5a40 cb4b f276 39ca 8040
00000640: 0000 0000 0000 0000 f3ce 2dea 7878 5a40
00000650: e65d 30da 4287 8140 0000 0000 0000 0000
00000660: f1f3 5907 9cf9 5a40 1f0c dfa1 fd34 8240
00000670: 0000 0000 0000 0000 17c3 8c99 9469 5b40
00000680: 2adb f214 d5c0 8240 0000 0000 0000 0000
00000690: cca1 b7b6 b391 5b40 1186 51e3 0001 8340
000006a0: 0000 0000 0000 0000 f401 e925 f4fd 5a40
000006b0: a358 feea cbe4 8240 0000 0000 0000 0000
000006c0: da31 bcf3 17bc 5940 1335 2647 099f 8240
000006d0: 0000 0000 0000 0000 2e8c dd3e 31de 5740
000006e0: eb71 1ca3 2140 8240 0000 0000 0000 0000
000006f0: 812c 51c5 7b88 5540 5eea 84ba 33e6 8140
00000700: 0000 0000 0000 0000 6c0d 9fc2 4216 5340
00000710: a9e9 c7f6 fdb9 8140 0000 0000 0000 0000
00000720: fd38 1461 c2b9 5040 614d 4074 a5b7 8140
00000730: 0000 0000 0000 0000 b35c c3b0 3b99 4c40
00000740: 9d81 ff64 75c3 8140 0000 0000 0000 0000
00000750: 9d04 8f3d 8b96 4740 c188 4cda dfbd 8140
00000760: 0000 0000 0000 0000 8fa6 db3b 9216 4240
00000770: 76ae 2dd5 8190 8140 0000 0000 0000 0000
00000780: fb6c 33d6 d8a0 3940 8d71 5f55 371e 8140
00000790: 0000 0000 0000 0000 8622 98ad 960d 2f40
000007a0: 84e7 e900 055a 8040 0000 0000 0000 0000
000007b0: f884 1564 1f85 1940 da2f 1bc5 bbe3 7e40
000007c0: 0000 0000 0000 0000 52a4 b600 f570 08c0
000007d0: 44d5 9d9a 3fda 7c40 0000 0000 0000 0000
000007e0: e93b cb18 e993 2cc0 ae31 4d1f 6ecd 7a40
000007f0: 0000 0000 0000 0000 ed05 818b 3051 3bc0
-4.55083059745882 -29.391244037194184 0.0 -0.023310614697646358 -25.207249483750765 0.0 9.00795369059803 -18.22201731485914
0.0 17.244508142935707 -11.219679878779084 0.0 24.097945867695305 -5.202694086524511 0.0 30.458694278833402
-0.11727589635955035 0.0 31.16378395099608 2.4961907187151033 0.0 23.299067040474373 1.8790069000139173 0.0
10.220033673660787 1.022221859779787 0.0 -17.399598077181867 -3.8253819427654188 0.0 -58.76848638844882 -14.188320416839781
0.0 -114.97721029869227 -29.262571731400264 0.0 -185.32604200163044 -48.71818960847447 0.0 -264.9207233984289
-72.65907553260995 0.0 -350.888283332743 -99.67471693263639 0.0 -442.37558517431546 -128.9433714537118 0.0
-535.6376845242595 -161.12844568558407 0.0 -626.9543356807375 -196.70353722290747 0.0 -708.8490482620542 -234.6274710106235
0.0 -776.4269209727177 -276.81167960673986 0.0 -818.2415602979682 -317.42034483302103 0.0 -830.9629754289097
-355.1109848045797 0.0 -818.8746672757537 -388.98116512842915 0.0 -790.5353960681659 -418.182449054554 0.0
-757.0328925635458 -444.43042666692025 0.0 -726.7097817148554 -469.833133253142 0.0 -707.8402587549165 -493.98016866639034
0.0 -695.946556900738 -512.1079301603962 0.0 -682.6843527658777 -520.4907596982138 0.0 -666.4064170702798
-516.8800185365636 0.0 -644.0977612601476 -500.247161443442 0.0 -610.3932115992682 -472.3616421854162 0.0
-574.3105995034394 -440.8230771970539 0.0 -537.4605300536314 -408.13976102350483 0.0 -502.92611729652594 -375.5262357182976
0.0 -476.9024431375765 -344.4227931426963 0.0 -457.95785601733894 -314.22276052948905 0.0 -443.676937926228
-282.3170368525368 0.0 -431.57154208240615 -249.70650629649995 0.0 -417.2181748852028 -214.25821071889968 0.0
-395.89615135141224 -176.0653062393505 0.0 -367.7411639252593 -134.13295197165857 0.0 -338.13487444180254 -92.37447716824643
0.0 -306.2557072861178 -48.810417601071 0.0 -276.86705644576625 -6.238412856181647 0.0 -255.64592742447888
31.080167353843056 0.0 -240.01541772060102 66.48450791835619 0.0 -227.4865503614904 102.08401834117281 0.0
-215.4464456437954 136.10683868778017 0.0 -198.4729780318314 173.1934436956333 0.0 -173.82387800869452 210.73812903221116
0.0 -142.9813132130489 243.69733635816831 0.0 -110.71641709289813 269.81145860981775 0.0 -78.7435286738169
291.8380627611712 0.0 -50.794275278137185 312.23544365797824 0.0 -30.262804340484152 333.22391650432957 0.0
-14.072162191664047 361.38744847060843 0.0 -0.36458089355920953 395.7186640700013 0.0 13.317888045670468 429.8178019626694
0.0 29.51997378492328 463.05600400410754 0.0 47.93163054653849 488.981724672763 0.0 65.98299576640458
502.72168615703464 0.0 80.8282872368244 507.404742986047 0.0 91.88749939434412 508.14330612234227 0.0
98.86917094567552 510.22369080277076 0.0 101.72669859930865 518.9936714716168 0.0 104.1583332313331 537.278058903635
0.0 105.8823800513599 560.9076427248626 0.0 107.90014823708022 582.6238439012121 0.0 109.6496948122625
600.1040438626417 0.0 110.27659385617079 608.1254335755385 0.0 107.96802661661769 604.5995693083572 0.0
102.93896191957847 595.8795302376697 0.0 95.47175571094041 584.0164243910089 0.0 86.13255436827787 572.7752581008933
0.0 76.34782472164596 567.2490058534796 0.0 66.90248896574845 566.9557881377806 0.0 57.197134108916906
568.4323215447836 0.0 47.17612428172399 567.7343030909761 0.0 36.176337702037124 562.0633948868624 0.0
25.628308665804962 547.7770183044937 0.0 15.526540207692289 523.2524431489733 0.0 6.380002559483948 494.2333422719945
0.0 -3.0551548057306173 461.6405283131937 0.0 -14.288887762841073 428.8393853202241 0.0 -27.317146986961166

continuous_index_test f8 [1800, 3]
00000000: 75ca a399 abde b5bf 4196 604a fa99 fdbf
00000010: 0000 0000 0000 0000 5ac6 827c 7036 f33f
00000020: 3c33 6a69 3ecf e7bf 0000 0000 0000 0000
00000030: 99b7 d6d1 0cdd 1340 d699 1317 7626 0440
00000040: 0000 0000 0000 0000 e1f1 4f25 613f 2440
00000050: 687b 4e8b e831 1a40 0000 0000 0000 0000
00000060: 20d2 bd64 c11c 2f40 4241 322d fab7 2540
00000070: 0000 0000 0000 0000 9568 074c b63d 3640
00000080: a15b 23d7 1d52 2f40 0000 0000 0000 0000
00000090: 6f2e c88e b908 3c40 dc87 011e f3e6 3140
000000a0: 0000 0000 0000 0000 6214 a714 8b24 3f40
000000b0: c355 9a08 7de9 2c40 0000 0000 0000 0000
000000c0: b426 112e b583 3f40 8b7a 6d5c 3d48 0f40
000000d0: 0000 0000 0000 0000 3392 bb2a 91f4 3c40
000000e0: 16a1 0e13 e0d3 2ac0 0000 0000 0000 0000
000000f0: eab7 eac7 687e 3540 1b18 73de c0a4 43c0
00000100: 0000 0000 0000 0000 16ca 52bc d346 2440
00000110: b0ac fb88 2f47 51c0 0000 0000 0000 0000
00000120: 5f3e 574b 15e8 17c0 811d 1d87 eff0 58c0
00000130: 0000 0000 0000 0000 f4ad 95cc d184 3cc0
00000140: 9ef5 c6d4 c870 60c0 0000 0000 0000 0000
00000150: 85f7 81f1 e517 4cc0 3390 b674 2b0a 64c0
00000160: 0000 0000 0000 0000 215b eaca e109 56c0
00000170: ed2a 6873 f548 67c0 0000 0000 0000 0000
00000180: 1ba3 a97e 3490 5ec0 5e60 6b04 fc44 6ac0
00000190: 0000 0000 0000 0000 c58f 7b92 eaa1 63c0
000001a0: 6402 1ab8 ba5c 6dc0 0000 0000 0000 0000
000001b0: 369a 9343 d5ca 67c0 7f49 82bb 9272 70c0
000001c0: 0000 0000 0000 0000 a7e6 ac24 5485 6bc0
000001d0: 7653 9308 198c 72c0 0000 0000 0000 0000
000001e0: 5a94 d560 4012 6fc0 c5d6 3619 3314 75c0
000001f0: 0000 0000 0000 0000 af24 b0db 750f 71c0
00000200: 8d9b ed84 e1c3 77c0 0000 0000 0000 0000
00000210: f065 0a3e 3f4c 72c0 ae47 0adb a95b 7ac0
00000220: 0000 0000 0000 0000 3e01 146a ef54 73c0
00000230: e8c9 2a51 3bbf 7cc0 0000 0000 0000 0000
00000240: a91e f046 7ef2 73c0 b358 3566 7473 7ec0
00000250: 0000 0000 0000 0000 ccf1 06b8 4535 74c0
00000260: adf9 3778 ab96 7fc0 0000 0000 0000 0000
00000270: 7a9a 8827 195d 74c0 c54d d57c b624 80c0
00000280: 0000 0000 0000 0000 7805 5792 43c9 74c0
00000290: 0134 6a35 3e65 80c0 0000 0000 0000 0000
000002a0: 66da 3d8e 59b6 75c0 d0ed e807 80b1 80c0
000002b0: 0000 0000 0000 0000 3049 228e 725c 77c0
000002c0: ec82 2b9e bf32 81c0 0000 0000 0000 0000
000002d0: f009 1b07 a1ae 79c0 61e6 532f 1cd6 81c0
000002e0: 0000 0000 0000 0000 3d61 d689 d91e 7cc0
000002f0: 59a9 6483 7077 82c0 0000 0000 0000 0000
00000300: 9584 9032 8b3e 7ec0 7751 eef5 d7e4 82c0
00000310: 0000 0000 0000 0000 5e0f b10e f7e0 7fc0
00000320: de14 7ff8 fff2 82c0 0000 0000 0000 0000
00000330: 9d7b 1d5d 7a57 80c0 3ec2 9d26 2d7c 82c0
00000340: 0000 0000 0000 0000 c44c 2f97 c972 80c0
00000350: a36f 12be 6f8c 81c0 0000 0000 0000 0000
00000360: 4a81 4f6f 7066 80c0 11d7 b6e0 f064 80c0
00000370: 0000 0000 0000 0000 64d3 88cb 6e46 80c0
00000380: bf2f 8b5c 4317 7ec0 0000 0000 0000 0000
00000390: 49a7 26cf d431 80c0 4d08 2c8a ae63 7bc0
000003a0: 0000 0000 0000 0000 4199 6a8c 4738 80c0
000003b0: 74a4 c0ce f2da 78c0 0000 0000 0000 0000
000003c0: 965b ba08 b14f 80c0 3f1a 17cc 0859 76c0
000003d0: 0000 0000 0000 0000 3b47 022a 0f67 80c0
000003e0: 1c6a c6ea 62d2 73c0 0000 0000 0000 0000
000003f0: e423 4e28 3064 80c0 490b 285b c250 71c0
00000400: 0000 0000 0000 0000 8d66 3fa4 bf3c 80c0
00000410: e2f9 b3b1 15b7 6dc0 0000 0000 0000 0000
00000420: 4577 643a ddaf 7fc0 f011 ce6e afc0 68c0
00000430: 0000 0000 0000 0000 b40b e658 4962 7ec0
00000440: 741e 9d2d 91ef 63c0 0000 0000 0000 0000
00000450: c829 75de b30a 7dc0 4190 e85a 3126 5ec0
00000460: 0000 0000 0000 0000 c5b7 15ec 458c 7bc0
00000470: 67bc 9c8c f334 53c0 0000 0000 0000 0000
00000480: d57e cc1f da30 7ac0 aa7d 17d2 9f4c 40c0
00000490: 0000 0000 0000 0000 db91 775e 5708 79c0
000004a0: 89bb fb81 77f5 2240 0000 0000 0000 0000
000004b0: 9355 55d0 40fa 77c0 ad1c 2329 2d69 4940
000004c0: 0000 0000 0000 0000 0b75 da79 3aec 76c0
000004d0: cb95 5569 6113 5640 0000 0000 0000 0000
000004e0: 3ac1 3c23 efee 75c0 8ab9 35c1 e2e8 5e40
000004f0: 0000 0000 0000 0000 9b33 16ea fa07 75c0
00000500: 7dba 2669 d07c 6440 0000 0000 0000 0000
00000510: 9235 9111 4b28 74c0 fc52 026f 94cd 6940
00000520: 0000 0000 0000 0000 274a 52ae af55 73c0
00000530: 4ee3 a667 39ef 6e40 0000 0000 0000 0000
00000540: 541f 1100 f384 72c0 636c 2562 4dc0 7140
00000550: 0000 0000 0000 0000 b85b c976 5c62 71c0
00000560: 3753 05be 71b7 7340 0000 0000 0000 0000
00000570: 8506 e4ac c826 70c0 1c0c b4a4 243e 7540
00000580: 0000 0000 0000 0000 2c91 e7b6 acec 6dc0
00000590: 1e5d bbbf e296 7640 0000 0000 0000 0000
000005a0: 9176 9362 a6a8 6bc0 7be5 22ba a936 7840
000005b0: 0000 0000 0000 0000 d4bc 9c90 0cab 69c0
000005c0: ea82 4fd8 c51f 7a40 0000 0000 0000 0000
000005d0: b50e bbe4 a5d7 67c0 f27a 1e17 a705 7c40
000005e0: 0000 0000 0000 0000 ecd0 6a7c 18c5 65c0
000005f0: efcf 31c0 e8c0 7d40 0000 0000 0000 0000
00000600: 6560 86b1 4358 63c0 f147 a750 a1f9 7e40
00000610: 0000 0000 0000 0000 d077 34fc b3bd 60c0
00000620: c763 5831 237e 7f40 0000 0000 0000 0000
00000630: 78d1 f357 5107 5cc0 5bbc 850d e5ee 7f40
00000640: 0000 0000 0000 0000 6eb7 5d6a 39ba 56c0
00000650: 8be4 355f 6245 8040 0000 0000 0000 0000
00000660: 572d a6a2 e99e 51c0 2bf8 e37e b7b1 8040
00000670: 0000 0000 0000 0000 6ca7 5ae2 2905 4ac0
00000680: 8254 4edf 2a48 8140 0000 0000 0000 0000
00000690: 7ebc 9b04 52be 40c0 ee0a 9fec 9cec 8140
000006a0: 0000 0000 0000 0000 3f1c 374d b356 2fc0
000006b0: 5a87 9e7a ea81 8240 0000 0000 0000 0000
000006c0: 89fb 38f8 1b9d ebbf 346c a599 710e 8340
000006d0: 0000 0000 0000 0000 3eb3 2afb 04ec 2540
000006e0: 8f52 9b5d e9a8 8340 0000 0000 0000 0000
000006f0: ce2b 9b94 4433 3340 0103 e142 854f 8440
00000700: 0000 0000 0000 0000 260e 6060 3708 3840
00000710: e68c e441 b4db 8440 0000 0000 0000 0000
00000720: ccd8 5e69 1104 3a40 8aa9 a4b0 d35f 8540
00000730: 0000 0000 0000 0000 c74e 0e4a 8e36 3b40
00000740: 3d9c 4b02 fc81 8540 0000 0000 0000 0000
00000750: 78cf 374d 463c 3a40 a113 e93f 1044 8540
00000760: 0000 0000 0000 0000 fb52 828b 915f 3840
00000770: 2bbf 65a0 72c1 8440 0000 0000 0000 0000
00000780: 3f5f 5d13 8a0a 3740 fe1c d8e7 d621 8440
00000790: 0000 0000 0000 0000 59a9 43ea 737f 3640
000007a0: a695 f94b 7598 8340 0000 0000 0000 0000
000007b0: 790f 4334 82d7 3640 5f3a 55ee 604a 8340
000007c0: 0000 0000 0000 0000 2516 682b 0f31 3840
000007d0: 1ebc d6e6 313e 8340 0000 0000 0000 0000
000007e0: 8c1f 1db7 f47f 3840 98ef 460e 914b 8340
000007f0: 0000 0000 0000 0000 3829 e6c4 05ee 3640
-0.08542892933818698 -1.8500922112811085 0.0 1.2007908691124585 -0.7440483149417569 0.0 4.965869215708062 2.5187799265724875
0.0 10.123788038262264 6.548738648095288 0.0 15.55616297547482 10.859330570587762 0.0 22.24106288128731
15.660383914056924 0.0 28.03408138644448 17.902147174237925 0.0 31.14274720267384 14.456032055701945 0.0
31.514483336627293 3.9102732869062655 0.0 28.95534007148144 -13.413818927322193 0.0 21.49378633003645 -39.287135893057176
0.0 10.138334164720657 -69.11227631166071 0.0 -5.976643731307916 -99.76461961596762 0.0 -28.518826281111572
-131.52451552256838 0.0 -56.18670481534995 -160.31780467659846 0.0 -88.15440628897024 -186.27996225686312 0.0
-122.25320402685286 -210.15576382610283 0.0 -157.0598843015015 -234.89779286460828 0.0 -190.33853319958297 -263.1608233537044
0.0 -220.16652139444088 -296.7561116938517 0.0 -248.57035867419 -337.2624752180239 0.0 -272.9662739639852
-380.2425584107921 0.0 -292.7654400259189 -421.7289686585963 0.0 -309.3084507733764 -459.95198170389494 0.0
-319.155829370468 -487.2159177860114 0.0 -323.32952120506957 -505.4168626963172 0.0 -325.81864121781075 -516.5891052879675
0.0 -332.57899698250503 -524.6553753182526 0.0 -347.39686416779875 -534.1875150868964 0.0 -373.7779675807278
-550.3435634040193 0.0 -410.91431341707266 -570.7637621454888 0.0 -449.9281099676335 -590.9299381126576 0.0
-483.90898376896195 -604.6054495447742 0.0 -510.06031674541543 -606.374985688042 0.0 -522.9347479155873 -591.5220463108924
0.0 -526.348432893305 -561.5545617523497 0.0 -524.8048998080569 -524.6176161083587 0.0 -520.8040991487037
-481.45394567842226 0.0 -518.2289107341577 -438.23011223983923 0.0 -519.0349357917804 -397.684279205808 0.0
-521.9614424285126 -357.56464776062415 0.0 -524.8824043443668 -317.1491496801916 0.0 -524.5235143761352 -277.0474502147886
0.0 -519.593574996297 -237.72139821197112 0.0 -506.9915107655 -198.02141514061032 0.0 -486.1429070459519
-159.48647194564148 0.0 -464.6689133240402 -120.59676239692 0.0 -440.76707085116897 -76.82736506754155 0.0
-419.0532529819587 -32.59862733981147 0.0 -400.52133032519276 9.479427396754334 0.0 -383.64082368215276 50.8216906949468
0.0 -366.76427636465877 88.30282052381442 0.0 -350.9333832143053 123.63884001013335 0.0 -336.4987583987474
163.900440765039 0.0 -322.518327300285 206.42436933950364 0.0 -309.3553908552589 247.47575743289275 0.0
-296.3093262356608 284.018892427621 0.0 -278.14757422118737 315.4652691085825 0.0 -258.4239930064435 339.88394613581636
0.0 -239.3960833094401 361.43035863102875 0.0 -221.27031067658802 387.4164372790471 0.0 -205.34528380024733
417.9858019929803 0.0 -190.73900066885622 448.3532935324321 0.0 -174.1592390142681 476.0568239160338 0.0
-154.75826336141031 495.6018835577407 0.0 -133.92822084663067 503.883591981194 0.0 -112.11433981714606 510.93092109909566
0.0 -90.90975436355595 520.6730331621524 0.0 -70.48300996998056 534.2145974931822 0.0 -52.04034070421662
553.0209337348499 0.0 -33.48687799076377 573.5766231942378 0.0 -15.669336712815605 592.2394916901642 0.0
-0.8629283760163712 609.8054688380857 0.0 10.960975502931998 629.1139480719156 0.0 19.200265205272267 649.9400689677278
0.0 24.032094977808946 667.4630163054942 0.0 26.01589067998502 683.9783642639388 0.0 27.213108662121865
688.2480512530379 0.0 26.2354477177864 680.5079343995204 0.0 24.37331458980314 664.1809699963536 0.0
23.04116936711875 644.2299343952034 0.0 22.49786247398274 627.0572738169474 0.0 22.84183050763338 617.2973295839728
0.0 24.19163771907019 615.7743660713347 0.0 24.499827808962024 617.4458280126446 0.0 22.929775530044225
