NeuroAI/Neural Embeddings Rank Aligning 3D latent dynamics with movements/NER/data_NER/Fig8/Type_ curve-straight=[18]_parameters_5000itr_lr0.0001.npz (npz, 393644 bytes, 7 tensors)

train_loss_stable f4 [5000]
000000 64 10 be 40 96 0a be 40 d8 09 be 40 a3 0b be 40
       5.939501 5.938792 5.9387016 5.9389205
000010 bc 13 be 40 c7 09 be 40 7d 0a be 40 7f 0c be 40
       5.939909 5.9386935 5.9387803 5.9390254
000020 3b 0a be 40 81 0e be 40 81 0d be 40 e6 09 be 40
       5.938749 5.9392705 5.9391484 5.9387083
000030 3c 0a be 40 ee 08 be 40 37 09 be 40 35 0b be 40
       5.9387493 5.93859 5.938625 5.938868
000040 53 0d be 40 9f 0b be 40 2e 0b be 40 fe 0b be 40
       5.9391265 5.9389186 5.9388647 5.938964
000050 da 0c be 40 c4 0d be 40 7b 0b be 40 d6 0c be 40
       5.939069 5.9391804 5.9389014 5.939067
000060 30 0c be 40 e0 08 be 40 55 0b be 40 9a 0a be 40
       5.9389877 5.9385834 5.9388833 5.938794
000070 6a 13 be 40 7b 0a be 40 bb 0a be 40 ce 0c be 40
       5.93987 5.9387794 5.93881 5.939063
000080 5c 0a be 40 e8 0b be 40 46 0c be 40 71 0a be 40
       5.9387646 5.9389534 5.938998 5.9387746
000090 e0 0a be 40 36 09 be 40 d3 09 be 40 28 07 be 40
       5.9388275 5.9386244 5.9386992 5.9383736
0000a0 b5 08 be 40 c7 08 be 40 d6 06 be 40 33 09 be 40
       5.938563 5.9385715 5.9383345 5.938623
0000b0 15 08 be 40 34 0b be 40 16 09 be 40 7e 08 be 40
       5.9384866 5.9388676 5.938609 5.9385366
0000c0 f8 08 be 40 a0 05 be 40 9c 08 be 40 9d 07 be 40
       5.938595 5.9381866 5.938551 5.9384294
0000d0 69 09 be 40 99 04 be 40 f4 09 be 40 29 0c be 40
       5.9386487 5.938061 5.938715 5.9389844
0000e0 4e 06 be 40 22 09 be 40 18 06 be 40 d5 05 be 40
       5.9382696 5.938615 5.938244 5.938212
0000f0 92 04 be 40 37 0a be 40 4f 05 be 40 2b 07 be 40
       5.938058 5.938747 5.938148 5.938375
000100 79 09 be 40 7b 04 be 40 1c 06 be 40 18 07 be 40
       5.9386563 5.938047 5.938246 5.938366
000110 cf 05 be 40 e6 02 be 40 35 04 be 40 00 07 be 40
       5.938209 5.937854 5.9380136 5.9383545
000120 68 01 be 40 bf 01 be 40 23 05 be 40 f2 04 be 40
       5.9376717 5.937713 5.938127 5.9381037
000130 e5 01 be 40 dd 02 be 40 49 ff bd 40 91 02 be 40
       5.9377313 5.9378495 5.9374127 5.9378133
000140 fc 04 be 40 98 02 be 40 e4 03 be 40 fa 04 be 40
       5.9381084 5.9378166 5.937975 5.9381075
000150 a6 ff bd 40 3a 04 be 40 bd 05 be 40 6e 01 be 40
       5.937457 5.938016 5.9382005 5.9376745
000160 e9 ff bd 40 2f 00 be 40 8a fd bd 40 d1 fd bd 40
       5.937489 5.9375224 5.9371996 5.9372334
000170 f8 fb bd 40 19 fc bd 40 26 fb bd 40 d0 ff bd 40
       5.937008 5.9370236 5.936908 5.937477
000180 31 fa bd 40 2a fb bd 40 4e fc bd 40 ab f9 bd 40
       5.936791 5.9369097 5.937049 5.936727
000190 47 f8 bd 40 f2 f8 bd 40 e1 f7 bd 40 a6 fc bd 40
       5.9365573 5.936639 5.9365087 5.937091
0001a0 20 fb bd 40 0b f6 bd 40 4d f7 bd 40 5b f7 bd 40
       5.936905 5.9362845 5.936438 5.9364448
0001b0 ef f4 bd 40 1b f6 bd 40 bb f4 bd 40 59 f3 bd 40
       5.936149 5.936292 5.9361243 5.9359555
0001c0 2d f5 bd 40 29 f5 bd 40 28 ef bd 40 41 f0 bd 40
       5.9361787 5.936177 5.935444 5.935578
0001d0 f4 f2 bd 40 a7 f2 bd 40 62 f5 bd 40 64 ea bd 40
       5.9359074 5.9358706 5.936204 5.934862
0001e0 6e f3 bd 40 3f eb bd 40 dc e9 bd 40 d1 ec bd 40
       5.9359655 5.9349666 5.9347973 5.9351583
0001f0 13 ef bd 40 e8 e9 bd 40 a6 ed bd 40 e7 e6 bd 40
       5.935434 5.934803 5.93526 5.9344363
000200 b5 ec bd 40 12 ea bd 40 37 e4 bd 40 58 e4 bd 40
       5.935145 5.934823 5.9341083 5.934124
000210 f3 e2 bd 40 d4 ea bd 40 89 e3 bd 40 ea e0 bd 40
       5.933954 5.9349155 5.9340253 5.9337053
000220 0e da bd 40 15 e1 bd 40 06 df bd 40 eb de bd 40
       5.932868 5.933726 5.9334745 5.9334617
000230 0d df bd 40 6d d9 bd 40 7c de bd 40 34 d7 bd 40
       5.933478 5.932791 5.9334087 5.93252
000240 38 da bd 40 ae d9 bd 40 df d3 bd 40 76 ce bd 40
       5.932888 5.932822 5.932113 5.9314528
000250 24 d5 bd 40 e2 c8 bd 40 cd d0 bd 40 08 ca bd 40
       5.932268 5.930772 5.9317384 5.930912
000260 f5 d6 bd 40 8c cb bd 40 68 ca bd 40 57 c8 bd 40
       5.93249 5.931097 5.930958 5.9307055
000270 b2 bc bd 40 ff be bd 40 68 c2 bd 40 11 c2 bd 40
       5.929284 5.929565 5.929981 5.9299397
000280 77 b9 bd 40 61 c7 bd 40 fe bc bd 40 9a bb bd 40
       5.9288898 5.9305882 5.9293203 5.9291506
000290 40 b7 bd 40 7c b0 bd 40 a5 b0 bd 40 3e b3 bd 40
       5.9286194 5.9277935 5.927813 5.92813
0002a0 61 ac bd 40 f5 a7 bd 40 76 a5 bd 40 84 a2 bd 40
       5.9272923 5.9267526 5.926448 5.9260883
0002b0 24 aa bd 40 36 aa bd 40 a1 9d bd 40 1a 9c bd 40
       5.927019 5.9270277 5.925492 5.9253054
0002c0 7a 92 bd 40 7a a1 bd 40 68 97 bd 40 45 8e bd 40
       5.9241304 5.9259615 5.924732 5.923617
0002d0 08 92 bd 40 c6 8d bd 40 a5 90 bd 40 53 8e bd 40
       5.924076 5.9235563 5.923907 5.9236236
0002e0 c9 8a bd 40 de 7f bd 40 20 74 bd 40 19 83 bd 40
       5.9231915 5.921859 5.9204254 5.922253
0002f0 0e 7c bd 40 e3 7a bd 40 5b 75 bd 40 0b 5c bd 40
       5.9213934 5.921251 5.9205756 5.9174857
000300 32 6e bd 40 dc 73 bd 40 f0 7c bd 40 c9 68 bd 40
       5.9197016 5.920393 5.921501 5.919041
000310 57 4c bd 40 46 52 bd 40 8c 64 bd 40 e0 5a bd 40
       5.915569 5.916293 5.918524 5.917343
000320 39 44 bd 40 f5 53 bd 40 e6 35 bd 40 10 4b bd 40
       5.914578 5.9164987 5.9128294 5.915413
000330 26 2d bd 40 86 2d bd 40 c1 35 bd 40 b1 27 bd 40
       5.9117613 5.911807 5.9128118 5.911095
000340 42 26 bd 40 b2 0a bd 40 d7 1c bd 40 33 1a bd 40
       5.91092 5.9075556 5.9097705 5.909448
000350 89 03 bd 40 78 ff bc 40 ec 14 bd 40 84 03 bd 40
       5.9066815 5.906185 5.908804 5.906679
000360 55 ff bc 40 c1 f8 bc 40 ba e4 bc 40 c9 e4 bc 40
       5.9061685 5.9053655 5.9029207 5.902928
000370 5f d9 bc 40 fa c3 bc 40 9a c0 bc 40 45 d0 bc 40
       5.9015346 5.898923 5.898511 5.9004235
000380 4e ad bc 40 9f c0 bc 40 5e b7 bc 40 02 95 bc 40
       5.8961554 5.8985133 5.8973837 5.8931894
000390 85 9c bc 40 b6 7a bc 40 fc 98 bc 40 42 56 bc 40
       5.8941064 5.8899794 5.893675 5.8855295
0003a0 d9 71 bc 40 35 7e bc 40 13 51 bc 40 c5 40 bc 40
       5.8888974 5.890406 5.8848968 5.8829064
0003b0 46 3e bc 40 b1 27 bc 40 1f fb bb 40 10 32 bc 40
       5.8826017 5.879845 5.8744044 5.881111
0003c0 de fe bb 40 e2 fb bb 40 76 ec bb 40 83 0b bc 40
       5.8748617 5.8744974 5.872615 5.8764052
0003d0 8a b4 bb 40 97 bb bb 40 2f cc bb 40 20 93 bb 40
       5.8657885 5.866649 5.8686748 5.8617096
0003e0 d2 cc bb 40 ee 98 bb 40 7d 6f bb 40 22 9d bb 40
       5.8687525 5.862418 5.8573594 5.8629313
0003f0 4f 59 bb 40 a4 48 bb 40 f9 51 bb 40 97 25 bb 40
       5.854652 5.8526173 5.8537564 5.8483386

cebra_veldir_train f8 [4600, 3]
000000 00 00 00 c0 10 99 e9 bf 00 00 00 a0 00 ac e2 3f
       -0.7999347448348999 0.5834963917732239
000010 00 00 00 60 c6 ef c1 bf 00 00 00 a0 c7 5d e9 bf
       -0.14012984931468964 -0.7926977276802063
000020 00 00 00 c0 36 e5 e2 3f 00 00 00 e0 8d 65 c3 bf
       0.5904802083969116 -0.15153668820858002
000030 00 00 00 80 a4 20 e9 bf 00 00 00 40 ec 1d e3 3f
       -0.7852346897125244 0.5974026918411255
000040 00 00 00 60 e6 d7 c4 bf 00 00 00 40 de de e8 bf
       -0.16283874213695526 -0.7772055864334106
000050 00 00 00 a0 4f 58 e3 3f 00 00 00 20 2f 5a c6 bf
       0.6045301556587219 -0.17462719976902008
000060 00 00 00 a0 19 a0 e8 bf 00 00 00 20 e3 8d e3 3f
       -0.769543468952179 0.6110702157020569
000070 00 00 00 20 33 bd c7 bf 00 00 00 00 ce 58 e8 bf
       -0.18546141684055328 -0.7608404159545898
000080 00 00 00 60 0c c8 e3 3f 00 00 00 80 23 46 c9 bf
       0.6181699633598328 -0.19745296239852905
000090 00 00 00 20 16 12 e8 bf 00 00 00 a0 9a ff e3 3f
       -0.7522078156471252 0.6249516606330872
0000a0 00 00 00 00 a4 bb ca bf 00 00 00 40 70 c4 e7 bf
       -0.20885133743286133 -0.7427293062210083
0000b0 00 00 00 60 ea 39 e4 3f 00 00 00 a0 ba 49 cc bf
       0.6320697665214539 -0.22100003063678741
0000c0 00 00 00 c0 28 76 e7 bf 00 00 00 20 68 72 e4 3f
       -0.7331737279891968 0.6389656662940979
0000d0 00 00 00 60 36 cb cd bf 00 00 00 e0 d7 09 e7 bf
       -0.23276405036449432 -0.7199515700340271
0000e0 00 00 00 60 33 bc e4 3f 00 00 00 40 fa d1 cf bf
       0.6479737162590027 -0.24859550595283508
0000f0 00 00 00 80 4f aa e6 bf 00 00 00 00 c3 f9 e4 3f
       -0.7082898616790771 0.6554884910583496
000100 00 00 00 e0 1e c5 d0 bf 00 00 00 00 6d 40 e6 bf
       -0.26203128695487976 -0.6953644752502441
000110 00 00 00 80 57 3a e5 3f 00 00 00 00 cf b0 d1 bf
       0.6633718013763428 -0.276416540145874
000120 00 00 00 80 ee d6 e5 bf 00 00 00 20 50 77 e5 3f
       -0.6824867725372314 0.670814573764801
000130 00 00 00 00 bd 92 d2 bf 00 00 00 e0 99 51 e5 bf
       -0.2902061939239502 -0.6662110686302185
000140 00 00 00 40 ac be e5 3f 00 00 00 c0 20 aa d3 bf
       0.6795254945755005 -0.3072587847709656
000150 00 00 00 a0 b2 c3 e4 bf 00 00 00 a0 3d 05 e6 3f
       -0.648888885974884 0.6881397366523743
000160 00 00 00 c0 4c c7 d4 bf 00 00 00 a0 4e 20 e4 bf
       -0.32466429471969604 -0.6289437413215637
000170 00 00 00 c0 07 50 e6 3f 00 00 00 40 ee 01 d6 bf
       0.6972693204879761 -0.34386783838272095
000180 00 00 00 20 18 46 e3 bf 00 00 00 c0 c2 a8 e6 3f
       -0.6023064255714417 0.7081006765365601
000190 00 00 00 60 21 96 d7 bf 00 00 00 40 5f 5f e2 bf
       -0.3685382306575775 -0.5741420984268188
0001a0 00 00 00 e0 36 fb e6 3f 00 00 00 c0 08 2a d9 bf
       0.7181658148765564 -0.39319056272506714
0001b0 00 00 00 20 4f 45 e1 bf 00 00 00 40 63 51 e7 3f
       -0.5397105813026428 0.7286850214004517
0001c0 00 00 00 e0 2f fb da bf 00 00 00 c0 b4 c8 df bf
       -0.4215812385082245 -0.4966251254081726
0001d0 00 00 00 a0 74 a8 e7 3f 00 00 00 40 4b 1a dd bf
       0.7393134236335754 -0.4547298550605774
0001e0 00 00 00 a0 d8 e1 db bf 00 00 00 40 8c 00 e8 3f
       -0.4356595575809479 0.750066876411438
0001f0 00 00 00 80 97 d8 df bf 00 00 00 80 b9 b1 d6 bf
       -0.4975947141647339 -0.35459744930267334
000200 00 00 00 40 00 3d e8 3f 00 00 00 a0 f2 8a e1 bf
       0.7574464082717896 -0.548211395740509
000210 00 00 00 a0 8c 3b cf bf 00 00 00 a0 2e 35 e8 3f
       -0.24400480091571808 0.7564919590950012
000220 00 00 00 20 bd 6a e3 bf 00 00 00 60 f9 0f b7 bf
       -0.6067796349525452 -0.09008749574422836
000230 00 00 00 20 d0 92 e7 3f 00 00 00 40 78 72 e5 bf
       0.736671507358551 -0.6702233552932739
000240 00 00 00 e0 f4 96 bf 3f 00 00 00 60 10 a2 e5 3f
       0.12339716404676437 0.6760331988334656
000250 00 00 00 c0 34 3f e7 bf 00 00 00 00 af 33 d8 3f
       -0.7264655828475952 0.3781545162200928
000260 00 00 00 a0 06 ab e1 3f 00 00 00 00 3d c7 e7 bf
       0.5521271824836731 -0.7430710792541504
000270 00 00 00 c0 d3 21 e4 3f 00 00 00 a0 f2 f1 d6 3f
       0.6291292905807495 0.3585173189640045
000280 00 00 00 80 e0 11 e6 bf 00 00 00 60 b6 33 e9 3f
       -0.6896822452545166 0.7875625491142273
000290 00 00 00 60 12 de c5 3f 00 00 00 60 52 f2 e2 bf
       0.1708395928144455 -0.592080295085907
0002a0 00 00 00 e0 51 0d ec 3f 00 00 00 a0 b6 1a 80 3f
       0.8766259551048279 0.007863451726734638
0002b0 00 00 00 a0 79 ca de bf 00 00 00 a0 c4 4d ed 3f
       -0.4811080992221832 0.9157431721687317
0002c0 00 00 00 60 d1 78 bc bf 00 00 00 a0 42 b5 d8 bf
       -0.11121853440999985 -0.38606324791908264
0002d0 00 00 00 a0 e8 c1 ed 3f 00 00 00 00 52 06 c9 bf
       0.929920494556427 -0.19550538063049316
0002e0 00 00 00 60 70 ef d3 bf 00 00 00 00 cc d9 ed 3f
       -0.31148919463157654 0.9328365325927734
0002f0 00 00 00 c0 a9 61 d0 bf 00 00 00 60 90 3a d0 bf
       -0.2559608817100525 -0.2535744607448578
000300 00 00 00 80 ae c4 ed 3f 00 00 00 a0 4c 95 d3 bf
       0.9302589893341064 -0.30598750710487366
000310 00 00 00 60 33 ea c9 bf 00 00 00 60 b3 9c ed 3f
       -0.20245973765850067 0.9253785014152527
000320 00 00 00 80 8b e1 d5 bf 00 00 00 60 dc f2 c4 bf
       -0.34189116954803467 -0.16366152465343475
000330 00 00 00 00 6e 69 ed 3f 00 00 00 60 98 cf d7 bf
       0.9191198348999023 -0.3720456063747406
000340 00 00 00 20 52 97 c0 bf 00 00 00 a0 fa 32 ed 3f
       -0.12961794435977936 0.9124730229377747
000350 00 00 00 a0 e5 60 d9 bf 00 00 00 e0 7a ca b9 bf
       -0.3965391218662262 -0.10074584931135178
000360 00 00 00 a0 de fb ec 3f 00 00 00 00 91 b0 da bf
       0.905745804309845 -0.4170267581939697
000370 00 00 00 e0 9b 59 b3 bf 00 00 00 20 5e cb ec 3f
       -0.07558607310056686 0.8998251557350159
000380 00 00 00 40 f0 b1 db bf 00 00 00 00 34 4c ac bf
       -0.43273550271987915 -0.05526888370513916
000390 00 00 00 a0 2b 9a ec 3f 00 00 00 e0 48 9b dc bf
       0.8938196301460266 -0.446977823972702
0003a0 00 00 00 c0 e0 70 a2 bf 00 00 00 80 69 65 ec 3f
       -0.036017440259456635 0.8873794078826904
0003b0 00 00 00 20 af 7c dd bf 00 00 00 c0 33 2a 91 bf
       -0.46073511242866516 -0.01676255092024803
0003c0 00 00 00 20 9e 32 ec 3f 00 00 00 20 12 42 de bf
       0.8811789155006409 -0.4727826416492462
0003d0 00 00 00 20 50 70 44 3f 00 00 00 60 31 0d ec 3f
       0.000623740314040333 0.8766104578971863
0003e0 00 00 00 40 bd c8 de bf 00 00 00 c0 40 4e 8c 3f
       -0.48100215196609497 0.013821130618453026
0003f0 00 00 00 80 51 f0 eb 3f 00 00 00 20 56 2a df bf
       0.8730857372283936 -0.4869590103626251
000400 00 00 00 c0 98 eb 98 3f 00 00 00 60 37 d9 eb 3f
       0.024336230009794235 0.8702656626701355
000410 00 00 00 e0 4b 74 df bf 00 00 00 c0 e3 ea a0 3f
       -0.49147316813468933 0.0330420657992363
000420 00 00 00 40 26 cc eb 3f 00 00 00 c0 fe 9a df bf
       0.8686705827713013 -0.4938351511955261
000430 00 00 00 40 ce 14 a4 3f 00 00 00 80 cb c4 eb 3f
       0.03922123461961746 0.8677728176116943
000440 00 00 00 40 06 ae df bf 00 00 00 80 05 9a a6 3f
       -0.4949966073036194 0.04414384067058563
000450 00 00 00 80 d4 c8 eb 3f 00 00 00 80 6a 9c df bf
       0.8682653903961182 -0.4939218759536743
000460 00 00 00 60 72 c6 a7 3f 00 00 00 a0 6a d9 eb 3f
       0.04643590375781059 0.8702901005744934
000470 00 00 00 80 92 62 df bf 00 00 00 80 c7 86 a7 3f
       -0.4903913736343384 0.045950159430503845
000480 00 00 00 80 f3 f6 eb 3f 00 00 00 e0 69 fd de bf
       0.8738954067230225 -0.4842171370983124
000490 00 00 00 20 21 f7 a5 3f 00 00 00 20 89 27 ec 3f
       0.04290107265114784 0.8798261284828186
0004a0 00 00 00 e0 80 55 de bf 00 00 00 40 bc 2b a2 3f
       -0.4739687144756317 0.035489924252033234
0004b0 00 00 00 00 4a 76 ec 3f 00 00 00 80 65 38 dd bf
       0.889439582824707 -0.4565671682357788
0004c0 00 00 00 a0 ed 91 95 3f 00 00 00 60 f0 d9 ec 3f
       0.021064484491944313 0.9016038775444031
0004d0 00 00 00 00 14 af db bf 00 00 00 00 51 40 54 3f
       -0.43256092071533203 0.0012360373511910439
0004e0 00 00 00 c0 d5 71 ed 3f 00 00 00 c0 46 f5 d8 bf
       0.9201458692550659 -0.38997048139572144
0004f0 00 00 00 c0 94 22 a2 bf 00 00 00 00 42 3e ee 3f
       -0.03542008250951767 0.9450998306274414
000500 00 00 00 e0 3d e5 d3 bf 00 00 00 40 f6 c9 b9 bf
       -0.3108668029308319 -0.10073794424533844
000510 00 00 00 c0 6c d9 ee 3f 00 00 00 80 91 57 c3 bf
       0.9640411138534546 -0.15110987424850464
000520 00 00 00 20 6c fb cb bf 00 00 00 80 16 11 eb 3f
       -0.21861030161380768 0.8458359241485596
000530 00 00 00 e0 da be d0 3f 00 00 00 e0 61 c0 dd bf
       0.26164886355400085 -0.46486708521842957
000540 00 00 00 20 bf 1a b5 3f 00 00 00 a0 a9 d0 e9 3f
       0.0824393704533577 0.8067215085029602
000550 00 00 00 00 93 b9 e2 bf 00 00 00 60 c7 27 db bf
       -0.5851531028747559 -0.4243029057979584
000560 00 00 00 40 99 b6 e9 3f 00 00 00 20 04 b8 da bf
       0.8035398721694946 -0.4174814522266388
000570 00 00 00 20 ec 00 e3 bf 00 00 00 60 53 b2 e7 3f
       -0.5938625931739807 0.7405182719230652
000580 00 00 00 20 10 22 d4 bf 00 00 00 20 d3 6e e5 bf
       -0.314579039812088 -0.6697784066200256
000590 00 00 00 e0 9d 4f e6 3f 00 00 00 e0 31 5a d0 bf
       0.6972188353538513 -0.2555050551891327
0005a0 00 00 00 60 c5 d6 e6 bf 00 00 00 20 d4 52 e5 3f
       -0.7137171626091003 0.6663609147071838
0005b0 00 00 00 20 6f 9f cb bf 00 00 00 c0 7c d2 e7 bf
       -0.21580304205417633 -0.7444442510604858
0005c0 00 00 00 a0 1d 89 e4 3f 00 00 00 20 ed 97 c7 bf
       0.6417377591133118 -0.18432392179965973
0005d0 00 00 00 40 08 83 e8 bf 00 00 00 80 48 ec e3 3f
       -0.7659951448440552 0.6225931644439697
0005e0 00 00 00 40 dd 7d c4 bf 00 00 00 a0 63 17 e9 bf
       -0.1600910723209381 -0.784105122089386
0005f0 00 00 00 20 43 5d e3 3f 00 00 00 00 b8 a3 c1 bf
       0.6051345467567444 -0.13780879974365234
000600 00 00 00 e0 d2 77 e9 bf 00 00 00 60 b3 f8 e2 3f
       -0.7958769202232361 0.5928589701652527
000610 00 00 00 40 be 74 bf bf 00 00 00 80 fc c2 e9 bf
       -0.12287510931491852 -0.8050520420074463
000620 00 00 00 00 21 a6 e2 3f 00 00 00 60 44 58 bc bf
       0.5827794075012207 -0.11072184890508652
000630 00 00 00 20 36 02 ea bf 00 00 00 00 ab 5d e2 3f
       -0.8127699494361877 0.5739340782165527
000640 00 00 00 60 27 9b b9 bf 00 00 00 e0 53 36 ea bf
       -0.10002370923757553 -0.8191317915916443
000650 00 00 00 c0 a8 1f e2 3f 00 00 00 e0 21 42 b7 bf
       0.5663646459579468 -0.09085284918546677
000660 00 00 00 80 9d 5d ea bf 00 00 00 20 3f ef e1 3f
       -0.823927640914917 0.5604549050331116
000670 00 00 00 a0 3c 78 b5 bf 00 00 00 60 99 7d ea bf
       -0.08386591821908951 -0.8278319239616394
000680 00 00 00 60 c0 c6 e1 3f 00 00 00 c0 f3 fe b3 bf
       0.5555116534233093 -0.078109011054039
000690 00 00 00 80 48 97 ea bf 00 00 00 40 9c a5 e1 3f
       -0.8309671878814697 0.5514661073684692
0006a0 00 00 00 40 50 c6 b2 bf 00 00 00 c0 22 a6 ea bf
       -0.07333852350711823 -0.8327802419662476
0006b0 00 00 00 40 d7 91 e1 3f 00 00 00 20 78 22 b2 bf
       0.5490528345108032 -0.07083845883607864
0006c0 00 00 00 20 1a ac ea bf 00 00 00 e0 75 89 e1 3f
       -0.8335085511207581 0.5480298399925232
0006d0 00 00 00 e0 1c f8 b1 bf 00 00 00 e0 0a b0 ea bf
       -0.07019215077161789 -0.8339895606040955
0006e0 00 00 00 c0 cb 83 e1 3f 00 00 00 40 32 e3 b1 bf
       0.5473383665084839 -0.06987299025058746
0006f0 00 00 00 40 9a aa ea bf 00 00 00 40 41 8a e1 3f
       -0.8333255052566528 0.5481268167495728
000700 00 00 00 00 ef 53 b2 bf 00 00 00 80 68 a3 ea bf
       -0.07159322500228882 -0.8324472904205322
000710 00 00 00 a0 fa 92 e1 3f 00 00 00 60 c0 d8 b2 bf
       0.5491917729377747 -0.07361986488103867
000720 00 00 00 60 5f 96 ea bf 00 00 00 e0 0e a3 e1 3f
       -0.8308560252189636 0.5511545538902283
000730 00 00 00 e0 db ac b3 bf 00 00 00 80 c6 89 ea bf
       -0.07685636729001999 -0.8293182849884033
000740 00 00 00 c0 79 b2 e1 3f 00 00 00 60 62 73 b4 bf
       0.5530365705490112 -0.07988562434911728
000750 00 00 00 60 3a 74 ea bf 00 00 00 00 9e cc e1 3f
       -0.8266879916191101 0.5562276840209961
000760 00 00 00 c0 00 b8 b5 bf 00 00 00 40 7b 60 ea bf
       -0.08483891189098358 -0.8242775201797485
000770 00 00 00 80 24 e4 e1 3f 00 00 00 40 56 dc b6 bf
       0.5590994358062744 -0.08929957449436188
000780 00 00 00 e0 e1 4c ea bf 00 00 00 20 1a fb e1 3f
       -0.8218850493431091 0.5619021058082581
000790 00 00 00 a0 ae f9 b7 bf 00 00 00 a0 8c 3a ea bf
       -0.0936535969376564 -0.8196471333503723
0007a0 00 00 00 80 3b 10 e2 3f 00 00 00 a0 cd 00 b9 bf
       0.5644814968109131 -0.09766850620508194
0007b0 00 00 00 e0 71 2a ea bf 00 00 00 c0 8a 22 e2 3f
       -0.8176812529563904 0.5667165517807007
0007c0 00 00 00 40 69 e4 b9 bf 00 00 00 80 86 1c ea bf
       -0.10114152729511261 -0.8159821033477783
0007d0 00 00 00 20 29 32 e2 3f 00 00 00 40 96 a7 ba bf
       0.5686231255531311 -0.104119673371315
0007e0 00 00 00 00 7f 13 ea bf 00 00 00 20 2b 3c e2 3f
       -0.8148798942565918 0.5698447823524475
0007f0 00 00 00 80 69 26 bb bf 00 00 00 a0 95 0b ea bf
       -0.1060548722743988 -0.8139141201972961

cebra_veldir_test f8 [1200, 3]
000000 00 00 00 80 f1 b0 ec bf 00 00 00 c0 6d cd db 3f
       -0.896599531173706 0.4344133734703064
000010 00 00 00 20 76 03 b6 3f 00 00 00 a0 71 b7 ec bf
       0.08599031716585159 -0.8973930478096008
000020 00 00 00 80 c2 aa db 3f 00 00 00 80 ba 9d b6 3f
       0.43229734897613525 0.08834424614906311
000030 00 00 00 40 1a bb ec bf 00 00 00 20 8b 97 db 3f
       -0.8978396654129028 0.4311244785785675
000040 00 00 00 20 72 eb b6 3f 00 00 00 20 5d c0 ec bf
       0.08953011780977249 -0.8984819054603577
000050 00 00 00 e0 89 7b db 3f 00 00 00 a0 6f 5e b7 3f
       0.42941519618034363 0.09128472954034805
000060 00 00 00 e0 c4 c2 ec bf 00 00 00 c0 7d 6f db 3f
       -0.8987755179405212 0.428679883480072
000070 00 00 00 60 5f 83 b7 3f 00 00 00 c0 2a c5 ec bf
       0.09184833616018295 -0.8990682363510132
000080 00 00 00 60 97 63 db 3f 00 00 00 a0 88 a5 b7 3f
       0.4279535710811615 0.09236959367990494
000090 00 00 00 a0 05 c3 ec bf 00 00 00 a0 8a 71 db 3f
       -0.8988063931465149 0.42880502343177795
0000a0 00 00 00 20 10 49 b7 3f 00 00 00 e0 a5 bf ec bf
       0.0909586027264595 -0.8983945250511169
0000b0 00 00 00 c0 2c 86 db 3f 00 00 00 20 be cc b6 3f
       0.4300643801689148 0.08906162530183792
0000c0 00 00 00 e0 95 b8 ec bf 00 00 00 c0 d2 ae db 3f
       -0.8975324034690857 0.43254536390304565
0000d0 00 00 00 c0 bc ee b5 3f 00 00 00 20 f3 ad ec bf
       0.08567409217357635 -0.8962340950965881
0000e0 00 00 00 e0 b9 e9 db 3f 00 00 00 a0 59 b6 b4 3f
       0.4361405074596405 0.080907441675663
0000f0 00 00 00 a0 39 a2 ec bf 00 00 00 e0 66 28 dc 3f
       -0.8948028683662415 0.4399659335613251
000100 00 00 00 80 e6 6c b3 3f 00 00 00 80 e0 91 ec bf
       0.07588043808937073 -0.8928072452545166
000110 00 00 00 e0 64 7c dc 3f 00 00 00 a0 c7 b6 b1 3f
       0.44509240984916687 0.06919524818658829
000120 00 00 00 20 f2 7f ec bf 00 00 00 00 88 d4 dc 3f
       -0.8906183838844299 0.4504718780517578
000130 00 00 00 80 41 de af 3f 00 00 00 00 aa 6c ec bf
       0.062242552638053894 -0.8882646560668945
000140 00 00 00 20 5d 2f dd 3f 00 00 00 00 78 35 ac 3f
       0.45601585507392883 0.05509543418884277
000150 00 00 00 20 ba 55 ec bf 00 00 00 00 ca 96 dd 3f
       -0.8854647278785706 0.4623284339904785
000160 00 00 00 c0 23 0a a8 3f 00 00 00 e0 e4 41 ec bf
       0.04695235937833786 -0.8830437064170837
000170 00 00 00 40 92 ec dd 3f 00 00 00 c0 79 97 a4 3f
       0.4675641655921936 0.04021816700696945
000180 00 00 00 40 dc 2c ec bf 00 00 00 60 25 44 de 3f
       -0.8804761171340942 0.4729093015193939
000190 00 00 00 a0 d0 1f a1 3f 00 00 00 80 5d 18 ec bf
       0.03344585373997688 -0.877974271774292
0001a0 00 00 00 a0 95 96 de 3f 00 00 00 c0 bc bb 9b 3f
       0.47794094681739807 0.027083348482847214
0001b0 00 00 00 40 59 06 ec bf 00 00 00 00 e6 dc de 3f
       -0.8757749795913696 0.48223257064819336
0001c0 00 00 00 c0 96 32 96 3f 00 00 00 20 fb f6 eb bf
       0.021677356213331223 -0.8738990426063538
0001d0 00 00 00 c0 58 17 df 3f 00 00 00 80 45 b4 91 3f
       0.48579996824264526 0.017289243638515472
0001e0 00 00 00 e0 23 e6 eb bf 00 00 00 60 f5 55 df 3f
       -0.8718432784080505 0.48962149024009705
0001f0 00 00 00 a0 94 e7 89 3f 00 00 00 80 cf da eb bf
       0.012648736126720905 -0.8704602718353271
000200 00 00 00 e0 44 7f df 3f 00 00 00 40 8f e4 83 3f
       0.4921428859233856 0.00971328653395176
000210 00 00 00 80 43 d4 eb bf 00 00 00 40 ce 96 df 3f
       -0.8696610927581787 0.4935794472694397
000220 00 00 00 80 ae fe 80 3f 00 00 00 00 22 ce eb bf
       0.008298266679048538 -0.8689126968383789
000230 00 00 00 80 ad ac df 3f 00 00 00 00 03 1b 7d 3f
       0.4949144124984741 0.007105838507413864
000240 00 00 00 e0 18 cf eb bf 00 00 00 e0 0a a9 df 3f
       -0.8690304160118103 0.49469253420829773
000250 00 00 00 80 6e 92 80 3f 00 00 00 40 21 d3 eb bf
       0.008091796189546585 -0.8695226907730103
000260 00 00 00 c0 42 9a df 3f 00 00 00 60 e5 9e 84 3f
       0.49379032850265503 0.010068695060908794
000270 00 00 00 20 7b dc eb bf 00 00 00 e0 c9 77 df 3f
       -0.8706641793251038 0.49168631434440613
000280 00 00 00 80 5b 1d 8c 3f 00 00 00 80 81 e8 eb bf
       0.013727869838476181 -0.8721320629119873
000290 00 00 00 20 81 4a df 3f 00 00 00 60 ea e5 92 3f
       0.4889223873615265 0.018455183133482933
0002a0 00 00 00 80 67 fd eb bf 00 00 00 c0 a7 f9 de 3f
       -0.874683141708374 0.4839877486228943
0002b0 00 00 00 00 05 cf 9a 3f 00 00 00 00 36 1d ec bf
       0.026180341839790344 -0.878565788269043
0002c0 00 00 00 80 8b 78 de 3f 00 00 00 80 4c 74 a3 3f
       0.47610747814178467 0.03799666464328766
0002d0 00 00 00 00 60 40 ec bf 00 00 00 e0 7a df dd 3f
       -0.8828582763671875 0.4667651355266571
0002e0 00 00 00 a0 1b 90 aa 3f 00 00 00 a0 37 6d ec bf
       0.05188070610165596 -0.888332188129425
0002f0 00 00 00 40 ef 09 dd 3f 00 00 00 80 35 17 b2 3f
       0.45373135805130005 0.07066664099693298
000300 00 00 00 a0 75 a7 ec bf 00 00 00 00 3f cc db 3f
       -0.8954418301582336 0.4343411922454834
000310 00 00 00 60 50 fe b8 3f 00 00 00 c0 a2 e7 ec bf
       0.09763052314519882 -0.9032758474349976
000320 00 00 00 c0 f9 1a da 3f 00 00 00 e0 20 09 c1 3f
       0.4078964591026306 0.13309107720851898
000330 00 00 00 80 b0 2a ed bf 00 00 00 c0 89 89 d7 3f
       -0.9114611148834229 0.36776965856552124
000340 00 00 00 20 b8 98 c7 3f 00 00 00 e0 fb 52 ed bf
       0.18434812128543854 -0.9163798689842224
000350 00 00 00 20 69 8e d3 3f 00 00 00 c0 fd 8c d0 3f
       0.30556705594062805 0.258605420589447
000360 00 00 00 80 cd f6 ec bf 00 00 00 80 b2 b0 c8 3f
       -0.9051272869110107 0.19289237260818481
000370 00 00 00 40 4a 3f d8 3f 00 00 00 80 b4 dd ea bf
       0.3788629174232483 -0.8395636081695557
000380 00 00 00 00 9c 00 86 3f 00 00 00 e0 86 61 e1 3f
       0.01074334979057312 0.5431551337242126
000390 00 00 00 80 57 cb e3 bf 00 00 00 20 66 2e d2 bf
       -0.6185719966888428 -0.28408196568489075
0003a0 00 00 00 00 41 71 e7 3f 00 00 00 c0 21 96 cc bf
       0.7325749397277832 -0.22333166003227234
0003b0 00 00 00 a0 ba 1f e2 bf 00 00 00 a0 d0 62 e9 3f
       -0.5663731694221497 0.7933123707771301
0003c0 00 00 00 20 45 72 c2 3f 00 00 00 60 c2 55 e6 bf
       0.1441122442483902 -0.6979686617851257
0003d0 00 00 00 e0 81 72 e6 3f 00 00 00 80 fa 44 d7 3f
       0.7014779448509216 0.36358511447906494
0003e0 00 00 00 20 1c 29 e7 bf 00 00 00 60 7d c4 e2 3f
       -0.7237682938575745 0.5864855647087097
0003f0 00 00 00 c0 e1 22 df 3f 00 00 00 a0 27 f7 e6 bf
       0.4865040183067322 -0.7176702618598938
000400 00 00 00 20 7f e3 df 3f 00 00 00 40 95 38 e2 3f
       0.4982602894306183 0.5694071054458618
000410 00 00 00 80 3f 79 e6 bf 00 00 00 40 31 58 db 3f
       -0.7023007869720459 0.42725783586502075
000420 00 00 00 c0 02 ea e3 3f 00 00 00 80 f5 f9 e5 bf
       0.6223157644271851 -0.6867625713348389
000430 00 00 00 00 f0 09 d8 3f 00 00 00 e0 26 1f e5 3f
       0.3756065368652344 0.6600527167320251
000440 00 00 00 e0 21 83 e5 bf 00 00 00 20 ee 74 d5 3f
       -0.6722573637962341 0.33526185154914856
000450 00 00 00 40 80 1a e6 3f 00 00 00 40 71 0d e5 bf
       0.6907349824905396 -0.6578909158706665
000460 00 00 00 20 f7 34 d3 3f 00 00 00 20 f3 df e6 3f
       0.3001077473163605 0.7148376107215881
000470 00 00 00 40 17 a2 e4 bf 00 00 00 20 83 52 d1 3f
       -0.6447864770889282 0.2706611454486847
000480 00 00 00 80 73 8d e7 3f 00 00 00 20 a7 36 e4 bf
       0.7360169887542725 -0.6316714882850647
000490 00 00 00 c0 84 29 cf 3f 00 00 00 a0 c0 24 e8 3f
       0.24345454573631287 0.7544863820075989
0004a0 00 00 00 60 c5 cd e3 bf 00 00 00 00 8c f8 cb 3f
       -0.6188685297966003 0.2185225486755371
0004b0 00 00 00 60 8c af e8 3f 00 00 00 60 fa 62 e3 bf
       0.7714292407035828 -0.6058322787284851
0004c0 00 00 00 c0 39 e8 c8 3f 00 00 00 80 a3 32 e9 3f
       0.19458696246147156 0.7874314785003662
0004d0 00 00 00 40 d4 f3 e2 bf 00 00 00 80 fc dc c5 3f
       -0.5922642946243286 0.17080646753311157
0004e0 00 00 00 a0 0f a4 e9 3f 00 00 00 80 50 8a e2 bf
       0.8012769818305969 -0.5793840885162354
0004f0 00 00 00 c0 eb 19 c3 3f 00 00 00 60 60 0a ea 3f
       0.1492285430431366 0.8137666583061218
000500 00 00 00 c0 af 22 e2 bf 00 00 00 20 5f 7d c0 3f
       -0.5667341947555542 0.12882603704929352
000510 00 00 00 40 c9 63 ea 3f 00 00 00 60 ae c0 e1 bf
       0.8246809244155884 -0.5547706484794617
000520 00 00 00 e0 24 32 bc 3f 00 00 00 80 87 b0 ea 3f
       0.11014013737440109 0.8340489864349365
000530 00 00 00 e0 26 66 e1 bf 00 00 00 40 b6 eb b7 3f
       -0.5437197089195251 0.09344042837619781
000540 00 00 00 80 a9 f9 ea 3f 00 00 00 00 c2 09 e1 bf
       0.8429763317108154 -0.5324411392211914
000550 00 00 00 00 b3 a8 b3 3f 00 00 00 20 13 39 eb 3f
       0.0767928957939148 0.8507171273231506
000560 00 00 00 c0 15 b4 e0 bf 00 00 00 00 e2 9e af 3f
       -0.5219830274581909 0.06175905466079712
000570 00 00 00 c0 cb 6f eb 3f 00 00 00 20 7b 65 e0 bf
       0.8573969602584839 -0.5123878121376038
000580 00 00 00 c0 b1 b5 a8 3f 00 00 00 40 e1 9f eb 3f
       0.04826121777296066 0.8632665872573853
000590 00 00 00 60 64 1c e0 bf 00 00 00 80 2f 69 a2 3f
       -0.5034658312797546 0.035958752036094666
0005a0 00 00 00 e0 57 c5 eb 3f 00 00 00 00 20 c1 df bf
       0.8678397536277771 -0.49616241455078125
0005b0 00 00 00 80 cc a4 9a 3f 00 00 00 e0 36 e6 eb 3f
       0.026019282639026642 0.8718523383140564
0005c0 00 00 00 60 8c 53 df bf 00 00 00 20 94 63 91 3f
       -0.4894743859767914 0.016981424763798714
0005d0 00 00 00 60 22 07 ec 3f 00 00 00 c0 06 e1 de bf
       0.8758708834648132 -0.48248451948165894
0005e0 00 00 00 e0 4f 6a 7f 3f 00 00 00 a0 1b 26 ec 3f
       0.007669746410101652 0.8796518445014954
0005f0 00 00 00 40 7e 70 de bf 00 00 00 20 11 d7 56 bf
       -0.4756160378456116 -0.0013940493809059262
000600 00 00 00 c0 da 3e ec 3f 00 00 00 60 e3 12 de bf
       0.8826726675033569 -0.4699028432369232
000610 00 00 00 00 b2 59 82 bf 00 00 00 20 0d 56 ec 3f
       -0.008960142731666565 0.8855043053627014
000620 00 00 00 00 d9 b7 dd bf 00 00 00 00 e6 a9 90 bf
       -0.46434617042541504 -0.01627311110496521
000630 00 00 00 e0 12 6b ec 3f 00 00 00 20 46 62 dd bf
       0.8880705237388611 -0.4591231644153595
000640 00 00 00 20 05 b9 97 bf 00 00 00 20 bf 85 ec 3f
       -0.023166732862591743 0.8913264870643616
000650 00 00 00 a0 12 f1 dc bf 00 00 00 60 22 82 a0 bf
       -0.45221391320228577 -0.03224284574389458
000660 00 00 00 60 9d 9d ec 3f 00 00 00 a0 f3 86 dc bf
       0.8942400813102722 -0.4457367956638336
000670 00 00 00 80 c4 d1 a4 bf 00 00 00 60 fd b4 ec 3f
       -0.04066289961338043 0.8970934748649597
000680 00 00 00 c0 e5 19 dc bf 00 00 00 20 40 3f a9 bf
       -0.4390806555747986 -0.04931068792939186
000690 00 00 00 a0 59 d1 ec 3f 00 00 00 00 3f 8e db bf
       0.900555431842804 -0.4305570125579834
0006a0 00 00 00 e0 c8 ce ae bf 00 00 00 e0 0c ec ec 3f
       -0.06017139181494713 0.9038147330284119
0006b0 00 00 00 a0 c2 01 db bf 00 00 00 00 0e 31 b2 bf
       -0.42198243737220764 -0.07106101512908936
0006c0 00 00 00 20 38 07 ed 3f 00 00 00 60 90 68 da bf
       0.9071312546730042 -0.4126320779323578
0006d0 00 00 00 40 22 2f b5 bf 00 00 00 c0 78 22 ed 3f
       -0.08275045454502106 0.910457968711853
0006e0 00 00 00 a0 41 c2 d9 bf 00 00 00 80 25 63 b8 bf
       -0.40248146653175354 -0.09526285529136658
0006f0 00 00 00 40 db 3b ed 3f 00 00 00 e0 f7 18 d9 bf
       0.913556694984436 -0.3921489417552948
000700 00 00 00 40 9a 9c bb bf 00 00 00 00 5f 55 ed 3f
       -0.1078583151102066 0.9166712760925293
000710 00 00 00 60 21 5d d8 bf 00 00 00 c0 fa 22 bf bf
       -0.3806842267513275 -0.12162749469280243
000720 00 00 00 40 2e 6c ed 3f 00 00 00 60 30 a1 d7 bf
       0.9194556474685669 -0.36921319365501404
000730 00 00 00 60 b6 4e c1 bf 00 00 00 c0 bb 7f ed 3f
       -0.13521461188793182 0.9218424558639526
000740 00 00 00 60 20 eb d6 bf 00 00 00 40 fe f8 c2 bf
       -0.3581009805202484 -0.1482236683368683
000750 00 00 00 60 df 8e ed 3f 00 00 00 c0 39 4c d6 bf
       0.9236904978752136 -0.3484024405479431
000760 00 00 00 20 8c 67 c4 bf 00 00 00 00 a7 9d ed 3f
       -0.1594100147485733 0.9254946708679199
000770 00 00 00 e0 d4 9c d5 bf 00 00 00 80 76 f4 c5 bf
       -0.33769723773002625 -0.17152291536331177
000780 00 00 00 c0 2b a8 ed 3f 00 00 00 60 57 0b d5 bf
       0.9267786741256714 -0.328817218542099
000790 00 00 00 80 0a 3d c7 bf 00 00 00 60 20 b1 ed 3f
       -0.18155032396316528 0.9278718829154968
0007a0 00 00 00 60 5d 7e d4 bf 00 00 00 80 d3 75 c8 bf
       -0.3202126920223236 -0.191095769405365
0007b0 00 00 00 a0 e1 b8 ed 3f 00 00 00 e0 8c ef d3 bf
       0.9288185238838196 -0.31149598956108093
0007c0 00 00 00 80 62 af c9 bf 00 00 00 40 76 be ed 3f
       -0.20066481828689575 0.9294997453689575
0007d0 00 00 00 a0 33 74 d3 bf 00 00 00 80 d6 bc ca bf
       -0.3039673864841461 -0.20888787508010864
0007e0 00 00 00 e0 3f c3 ed 3f 00 00 00 c0 4a f5 d2 bf
       0.9300841689109802 -0.29622143507003784
0007f0 00 00 00 60 c0 ce cb bf 00 00 00 00 b5 c6 ed 3f
       -0.21724705398082733 0.9305062294006348

continuous_index_train f8 [4600, 3]
000000 29 64 0e 94 71 14 12 40 61 0a e5 21 e4 f4 06 c0
       4.519964517000553 -2.869575753023398
000010 00 00 00 00 00 00 00 00 e4 07 9f a2 c3 a0 e2 bf
       0.0 -0.5821245361514653
000020 51 a2 b6 2e 67 df 11 c0 00 00 00 00 00 00 00 00
       -4.468167047402475 0.0
000030 ee 75 19 31 04 d8 12 c0 a6 db 7d 68 0c fc 0a c0
       -4.710953490427967 -3.3730705417069258
000040 00 00 00 00 00 00 00 00 1c 53 a4 d0 51 c4 14 c0
       0.0 -5.191718349484997
000050 bb 4f be 04 29 40 c9 3f 00 00 00 00 00 00 00 00
       0.19727051478969124 0.0
000060 f2 bf f8 e6 ac e0 fc bf 38 1f d5 d3 bf 64 12 40
       -1.8048523924189763 4.598388013728076
000070 00 00 00 00 00 00 00 00 85 23 37 fa f2 f1 0c 40
       0.0 3.6181392238690386
000080 f9 3c 6c c6 b4 52 21 40 00 00 00 00 00 00 00 00
       8.66153545447604 0.0
000090 9d 72 11 75 cc 2c 29 40 e6 de 51 51 b9 f0 29 40
       12.587497385387275 12.970163861507398
0000a0 00 00 00 00 00 00 00 00 d4 03 46 49 22 a0 34 40
       0.0 20.62552316626882
0000b0 80 0b 33 76 45 d6 31 40 00 00 00 00 00 00 00 00
       17.836997401678218 0.0
0000c0 8b f4 df cb 41 92 3a 40 96 ee 97 c3 4b 1d 38 40
       26.571316473175596 24.11443731745984
0000d0 00 00 00 00 00 00 00 00 23 f2 19 29 b0 9d 40 40
       0.0 33.23193849341285
0000e0 4a 6d 01 c0 3a 84 3f 40 00 00 00 00 00 00 00 00
       31.51652145418965 0.0
0000f0 cd 82 74 66 df a5 44 40 5d 8e 55 ab 3a d5 42 40
       41.295880133524044 37.66585294415993
000100 00 00 00 00 00 00 00 00 99 a7 68 18 5b 2e 4a 40
       0.0 52.36215500936596
000110 59 c9 62 30 5a bc 45 40 00 00 00 00 00 00 00 00
       43.471502350078204 0.0
000120 01 e9 f0 f7 b9 37 51 40 8a b8 b5 26 4e c8 47 40
       68.87072561766037 47.56488498566712
000130 00 00 00 00 00 00 00 00 b8 5c 40 eb a9 30 57 40
       0.0 92.76037102971429
000140 09 ec b1 37 21 e4 48 40 00 00 00 00 00 00 00 00
       49.782263719440444 0.0
000150 02 a5 7b 2c 9c 10 5f 40 ef be eb 19 48 0c 4b 40
       124.25953208994545 54.09595035563495
000160 00 00 00 00 00 00 00 00 1f 82 dc f4 5c 5a 64 40
       0.0 162.8238472277453
000170 2a 8a 37 ba 84 6a 4f 40 00 00 00 00 00 00 00 00
       62.832175519103046 0.0
000180 39 bf bd ae 1a 18 6a 40 60 d0 0a 7d e9 84 52 40
       208.7532571512218 74.07675100379993
000190 00 00 00 00 00 00 00 00 83 bc d3 67 83 12 70 40
       0.0 257.15708143910905
0001a0 17 d4 0c cc 2e 6b 55 40 00 00 00 00 00 00 00 00
       85.67473126652509 0.0
0001b0 d9 9c 17 b4 d5 fa 72 40 f6 c5 98 32 c2 8a 57 40
       303.67717370246606 94.16810288352266
0001c0 00 00 00 00 00 00 00 00 a1 32 6d 27 76 bc 75 40
       0.0 347.77884619384173
0001d0 5d 0f 56 1d 7c 8c 57 40 00 00 00 00 00 00 00 00
       94.19507535366343 0.0
0001e0 2e cc ed 0e 69 ef 77 40 07 46 bd 44 7e 6a 54 40
       382.96314900293044 81.6639568184256
0001f0 00 00 00 00 00 00 00 00 48 d7 7b ae f0 83 79 40
       0.0 408.2462601506745
000200 62 d6 36 20 60 34 4d 40 00 00 00 00 00 00 00 00
       58.409183527732935 0.0
000210 a0 d4 03 97 10 96 7a 40 92 84 4e 8b 5d 01 37 40
       425.37905026909175 23.0053336207098
000220 00 00 00 00 00 00 00 00 34 83 67 7a 1e 72 7b 40
       0.0 439.13244095263076
000230 73 85 72 50 d0 f4 33 c0 00 00 00 00 00 00 00 00
       -19.956303623160647 0.0
000240 8f a9 d7 17 68 60 7c 40 55 66 3b 5a 89 6d 50 c0
       454.0254133629141 -65.71150832939868
000250 00 00 00 00 00 00 00 00 ac cd 2d 44 8c a3 7d 40
       0.0 474.2217447079845
000260 6a c5 7a ae df 25 5b c0 00 00 00 00 00 00 00 00
       -108.59177743901606 0.0
000270 b1 36 ee 92 2b 92 7f 40 eb 20 17 e4 2a 72 62 c0
       505.13563817074015 -147.56773571507742
000280 00 00 00 00 00 00 00 00 00 20 21 6f 17 e9 80 40
       0.0 541.1364424312487
000290 d2 23 1f b3 ef 91 66 c0 00 00 00 00 00 00 00 00
       -180.56051021654145 0.0
0002a0 9c d8 75 2c 1d 0f 82 40 fc 85 d8 43 ab 59 6a c0
       577.8892449576119 -210.80215637483332
0002b0 00 00 00 00 00 00 00 00 15 d5 7a ee 00 36 83 40
       0.0 614.750454864147
0002c0 39 88 eb 0e 63 79 6e c0 00 00 00 00 00 00 00 00
       -243.79334207537048 0.0
0002d0 e6 fd 2e 96 76 09 84 40 04 20 da f6 37 6c 71 c0
       641.182903639911 -278.763663150836
0002e0 00 00 00 00 00 00 00 00 0f 35 97 da a6 7d 84 40
       0.0 655.7064716160838
0002f0 7e 10 6e 28 7b b8 73 c0 00 00 00 00 00 00 00 00
       -315.5300678538696 0.0
000300 fe 49 25 a8 cf b5 84 40 bc 77 37 5f 3e d3 75 c0
       662.7263949311453 -349.2027275244434
000310 00 00 00 00 00 00 00 00 eb a2 32 76 cc d0 84 40
       0.0 666.0998348194092
000320 82 d3 4c 3a 54 9d 77 c0 00 00 00 00 00 00 00 00
       -377.83306341181026 0.0
000330 ec 24 f2 fe a2 14 85 40 5b 15 dd 66 66 03 79 c0
       674.5795878331678 -400.2125004421302
000340 00 00 00 00 00 00 00 00 3a 8b 19 60 3c bb 85 40
       0.0 695.4044801707853
000350 2a 01 58 a4 c1 4b 7a c0 00 00 00 00 00 00 00 00
       -420.7347758710554 0.0
000360 ea 4c 3d 62 01 bb 86 40 99 24 24 cc 31 d5 7b c0
       727.3756756581399 -445.32465757482856
000370 00 00 00 00 00 00 00 00 79 d1 c7 e4 e9 dd 87 40
       0.0 763.7392058955003
000380 5b 89 73 d9 a4 97 7d c0 00 00 00 00 00 00 00 00
       -473.47774644023383 0.0
000390 70 a9 18 10 42 e9 88 40 a4 fd 67 d4 51 78 7f c0
       797.1572572638233 -503.51997795697594
0003a0 00 00 00 00 00 00 00 00 90 42 65 b8 bd ad 89 40
       0.0 821.7176368628443
0003b0 9c ab 1d 2b de a9 80 c0 00 00 00 00 00 00 00 00
       -533.2334806745525 0.0
0003c0 77 3e 5f 14 4b e9 89 40 7d ac ca de 7c 41 81 c0
       829.1616599503458 -552.1859718164338
0003d0 00 00 00 00 00 00 00 00 5f a0 b0 fd f7 a9 89 40
       0.0 821.2460893439237
0003e0 ef ff f2 21 e2 7a 81 c0 00 00 00 00 00 00 00 00
       -559.360416315494 0.0
0003f0 10 4e de dc aa 18 89 40 81 cb c2 67 93 57 81 c0
       803.0834290855 -554.9469752519946
000400 00 00 00 00 00 00 00 00 ff d6 38 00 ef 34 88 40
       0.0 774.6166996422397
000410 bd e8 90 95 03 04 81 c0 00 00 00 00 00 00 00 00
       -544.5017501183535 0.0
000420 b5 9d 4b 19 8c 2a 87 40 90 2b 9c 4d 7c a7 80 c0
       741.3184076220992 -532.9356949044031
000430 00 00 00 00 00 00 00 00 8c 8a 3b a3 a5 1c 86 40
       0.0 707.5808777476936
000440 52 d6 ca ba 35 80 80 c0 00 00 00 00 00 00 00 00
       -528.0262351843505 0.0
000450 62 2d c0 f9 61 01 85 40 56 09 d2 e4 8d 84 80 c0
       672.1728396428919 -528.5692840966319
000460 00 00 00 00 00 00 00 00 d3 15 4c 1b ce dd 83 40
       0.0 635.7256380027924
000470 61 75 85 8b 04 94 80 c0 00 00 00 00 00 00 00 00
       -530.5022192408034 0.0
000480 12 02 12 01 b1 b9 82 40 48 a5 bd d4 fa 91 80 c0
       599.2114278227693 -530.2474760833802
000490 00 00 00 00 00 00 00 00 04 cf f2 a2 f0 9a 81 40
       0.0 563.367498299544
0004a0 53 1a ca b5 60 58 80 c0 00 00 00 00 00 00 00 00
       -523.047221735886 0.0
0004b0 d4 9d df 3a b6 70 80 40 c6 dd b6 79 55 82 7f c0
       526.0889794797936 -504.14586802894735
0004c0 00 00 00 00 00 00 00 00 8f fc 54 71 10 8e 7e 40
       0.0 488.87901433179735
0004d0 3f 66 0e 89 d8 80 7d c0 00 00 00 00 00 00 00 00
       -472.0528650820233 0.0
0004e0 61 96 f4 fd 6f 6f 7c 40 b1 f7 de e8 50 08 7b c0
       454.9648418001362 -432.51975333306024
0004f0 00 00 00 00 00 00 00 00 9d b0 f7 4e 78 21 7a 40
       0.0 418.09187218431344
000500 3c f9 06 7c bb 2f 78 c0 00 00 00 00 00 00 00 00
       -386.9832725784688 0.0
000510 9f 77 21 63 03 d5 77 40 36 13 c7 2f b7 51 75 c0
       381.3133269603076 -341.1072232986802
000520 00 00 00 00 00 00 00 00 a6 ef 2d 09 2b 83 75 40
       0.0 344.19800680106925
000530 ad f0 6b a8 43 a4 72 c0 00 00 00 00 00 00 00 00
       -298.2665180412685 0.0
000540 7e b1 63 92 91 f5 72 40 4d 60 04 cb ac 38 70 c0
       303.3480399984618 -259.54218579968875
000550 00 00 00 00 00 00 00 00 52 e3 0a ab 97 33 70 40
       0.0 259.22452835324395
000560 fb 4d 3f ff 09 0f 6c c0 00 00 00 00 00 00 00 00
       -224.46997034420187 0.0
000570 b4 50 f9 ae 37 9b 6a 40 68 eb 58 32 9a 27 68 c0
       212.85054730123886 -193.2375728356085
000580 00 00 00 00 00 00 00 00 63 36 c3 4b 6b 6b 64 40
       0.0 163.35684764983588
000590 0a 91 d6 b0 65 c3 64 c0 00 00 00 00 00 00 00 00
       -166.1061634245637 0.0
0005a0 24 dd fb c7 4e bd 5c 40 3f 3e 2a 5f ae 0a 62 c0
       114.95793342205121 -144.33378561258903
0005b0 00 00 00 00 00 00 00 00 29 07 44 83 27 82 51 40
       0.0 70.0336616672836
0005c0 a0 f6 d7 9d 2b 4a 60 c0 00 00 00 00 00 00 00 00
       -130.31782428913448 0.0
0005d0 a9 d7 86 47 da 63 3f 40 f2 d3 e6 15 14 bb 5f c0
       31.390049429340852 -126.9231009248904
0005e0 00 00 00 00 00 00 00 00 c6 5f 08 16 52 33 12 c0
       0.0 -4.550117820988765
0005f0 cc ec f4 16 5d fb 5f c0 00 00 00 00 00 00 00 00
       -127.92755674284416 0.0
000600 da fb a7 7f 30 f1 41 c0 b0 aa 9b b1 73 c8 60 c0
       -35.88429256155332 -134.26412277606642
000610 00 00 00 00 00 00 00 00 a7 1e 5f b3 65 17 50 c0
       0.0 -64.36558231629407
000620 62 ec 03 09 c9 b6 61 c0 00 00 00 00 00 00 00 00
       -141.71204043165477 0.0
000630 20 fc f5 0d 27 e5 56 c0 ee b7 81 9b 6b 44 62 c0
       -91.58050869962653 -146.1381356748165
000640 00 00 00 00 00 00 00 00 4d 98 91 40 74 df 5c c0
       0.0 -115.4914704725099
000650 ce 3c 66 b5 ff 63 62 c0 00 00 00 00 00 00 00 00
       -147.12496442764535 0.0
000660 bc 6f e6 1c 18 9b 60 c0 47 80 8e c2 71 18 62 c0
       -132.8466934681618 -144.76388671715014
000670 00 00 00 00 00 00 00 00 04 8f 48 d6 57 cb 61 c0
       0.0 -142.35447229549038
000680 35 4a 4b e9 e8 20 61 c0 00 00 00 00 00 00 00 00
       -137.02843155579617 0.0
000690 3c 5d 08 06 a6 94 61 c0 7c 6f ff 8d fb 1f 5f c0
       -140.64526654847748 -124.49972867913124
0006a0 00 00 00 00 00 00 00 00 72 12 99 cd b3 e3 5f c0
       0.0 -127.55784931133692
0006b0 01 fe 6a 6f b1 43 5b c0 00 00 00 00 00 00 00 00
       -109.05770478676278 0.0
0006c0 d4 38 ec 36 ae 01 5b c0 83 ab 0c bd ed db 56 c0
       -108.02625821178964 -91.43638540494253
0006d0 00 00 00 00 00 00 00 00 d9 3c c6 6b b9 57 56 c0
       0.0 -89.37069219931745
0006e0 c8 11 ea 44 32 13 52 c0 00 00 00 00 00 00 00 00
       -72.29994318827005 0.0
0006f0 22 df 5f d6 77 60 52 c0 5b 37 31 02 22 22 4c c0
       -73.50731429445707 -56.26666285899292
000700 00 00 00 00 00 00 00 00 c1 e6 bf e1 b0 82 4f c0
       0.0 -63.021023005201194
000710 14 c1 5b 33 0a ef 46 c0 00 00 00 00 00 00 00 00
       -45.8674987981814 0.0
000720 e1 a1 77 90 f7 e4 4c c0 a5 75 aa e0 96 f0 44 c0
       -57.78880506364272 -41.87960441897602
000730 00 00 00 00 00 00 00 00 58 e2 f3 83 97 e9 4a c0
       0.0 -53.824936384281216
000740 d3 93 2c 41 a7 6a 45 c0 00 00 00 00 00 00 00 00
       -42.83322920490868 0.0
000750 4b c4 80 2c 72 02 48 c0 16 b0 bb c3 01 e3 46 c0
       -48.01910930907669 -45.77349135078855
000760 00 00 00 00 00 00 00 00 95 23 0b bb 23 56 44 c0
       0.0 -40.67296541255852
000770 a8 15 fb 9b 20 d5 47 c0 00 00 00 00 00 00 00 00
       -47.665057656860256 0.0
000780 2e 47 77 66 53 6d 3f c0 00 a3 bb 1e 6c 33 47 c0
       -31.42705383693754 -46.40173706209134
000790 00 00 00 00 00 00 00 00 b5 57 77 c4 8d 23 35 c0
       0.0 -21.138881949554804
0007a0 db af 8e a0 7d cd 44 c0 00 00 00 00 00 00 00 00
       -41.605396337195735 0.0
0007b0 ea 94 81 b8 72 8b 28 c0 d5 87 9f 4f 89 13 41 c0
       -12.272359624689177 -34.15262790002422
0007c0 00 00 00 00 00 00 00 00 97 40 da ed 3f 0d 14 c0
       0.0 -5.012939182706893
0007d0 16 1a 6f 0a 2c 66 39 c0 00 00 00 00 00 00 00 00
       -25.399109508633124 0.0
0007e0 9f 5d 83 9e 57 48 e6 bf ef 8b 8b bf b3 3e 31 c0
       -0.6963308425865086 -17.244930240220068
0007f0 00 00 00 00 00 00 00 00 3a 10 08 a9 98 df ea 3f
       0.0 0.8397944737812459
