NeuroAI/Neural Embeddings Rank Aligning 3D latent dynamics with movements/NER/data_NER/Fig8/Type_ curve-up-down=[37, 1]_parameters_5000itr_lr0.0001.npz (npz, 566444 bytes, 7 tensors)

train_loss_stable f4 [5000]
5.938617 5.938701 5.9386415 5.938755 5.9387546 5.9389043 5.9387307 5.9389176
5.9384875 5.9385853 5.9390407 5.9385915 5.9384923 5.938397 5.9387646 5.938267
5.938237 5.938362 5.938929 5.9384875 5.938252 5.938709 5.938782 5.9384317
5.938138 5.93861 5.9380307 5.9381566 5.938009 5.9385366 5.9379325 5.938031
5.937825 5.937722 5.938256 5.9377065 5.939113 5.9373803 5.9375463 5.9376945
5.937455 5.9373636 5.9372673 5.937154 5.9373813 5.937489 5.937039 5.937234
5.9365106 5.936673 5.9368486 5.9371066 5.936941 5.9374537 5.9366713 5.9364715
5.936927 5.9363656 5.9366775 5.9362636 5.936126 5.9364505 5.9354596 5.9364476
5.93565 5.9358487 5.935443 5.935556 5.9354672 5.9356155 5.9353075 5.935152
5.934557 5.935419 5.9346232 5.9345393 5.9352393 5.9348216 5.9346356 5.934203
5.934049 5.933708 5.934265 5.9335833 5.9333897 5.933088 5.9330044 5.932615
5.932893 5.932501 5.9322634 5.9314623 5.9306583 5.9314275 5.9315186 5.9314528
5.930522 5.9309244 5.9308486 5.9297543 5.929058 5.9297595 5.929048 5.9289765
5.929017 5.9280376 5.9277377 5.9264264 5.9272223 5.9269133 5.928176 5.926781
5.9260406 5.9263935 5.9237156 5.925371 5.923786 5.923098 5.924235 5.9236636
5.922343 5.9212914 5.921673 5.920593 5.919726 5.919037 5.91719 5.917554
5.916478 5.918237 5.917375 5.9142485 5.915241 5.917159 5.9133024 5.909647
5.910474 5.9096007 5.909085 5.907467 5.907969 5.9053574 5.9108453 5.9015512
5.902617 5.904201 5.901983 5.895785 5.8933 5.8953834 5.896491 5.8967147
5.8948455 5.8913174 5.886831 5.8891144 5.8863893 5.8838353 5.877065 5.8757763
5.8816743 5.869189 5.8647566 5.867384 5.866261 5.850768 5.855952 5.842595
5.8528495 5.8573136 5.844904 5.8450575 5.830435 5.8348727 5.827518 5.835586
5.8246007 5.8245745 5.7850046 5.788828 5.817754 5.81211 5.7790675 5.7972474
5.7964787 5.787309 5.8175783 5.77716 5.7628736 5.803863 5.781448 5.7948356
5.7816095 5.7905073 5.808708 5.784247 5.777924 5.7877345 5.783975 5.7695026
5.7796316 5.7599945 5.7560697 5.7828193 5.7640853 5.7945576 5.762239 5.7480497
5.7812295 5.779309 5.7752213 5.77691 5.7862186 5.7799296 5.7845926 5.7633047
5.761215 5.7499843 5.7685037 5.760784 5.760681 5.749383 5.7690263 5.739499
5.7681894 5.7743883 5.774059 5.750051 5.751027 5.7850523 5.7597003 5.750962
5.747224 5.7531652 5.762203 5.7313437 5.7424197 5.751733 5.7643547 5.7339106
5.7574515 5.770132 5.7506247 5.739125 5.723129 5.7593455 5.741849 5.742269
5.7212644 5.7387056 5.7055316 5.755587 5.7270465 5.7543902 5.717549 5.7241273
00000000: 2709 be40 d709 be40 5a09 be40 480a be40
00000010: 470a be40 810b be40 150a be40 9d0b be40
00000020: 1708 be40 e408 be40 9f0c be40 f108 be40
00000030: 2108 be40 5907 be40 5c0a be40 4906 be40
00000040: 0a06 be40 1007 be40 b50b be40 1708 be40
00000050: 2906 be40 e709 be40 810a be40 a207 be40
00000060: 3a05 be40 1809 be40 5904 be40 6105 be40
00000070: 2b04 be40 7e08 be40 8b03 be40 5a04 be40
00000080: aa02 be40 d201 be40 3106 be40 b101 be40
00000090: 370d be40 05ff bd40 6100 be40 9801 be40
000000a0: a2ff bd40 e2fe bd40 18fe bd40 2afd bd40
000000b0: 07ff bd40 e9ff bd40 39fc bd40 d2fd bd40
000000c0: e5f7 bd40 3af9 bd40 aafa bd40 c7fc bd40
000000d0: 6cfb bd40 9fff bd40 36f9 bd40 93f7 bd40
000000e0: 4efb bd40 b5f6 bd40 43f9 bd40 dff5 bd40
000000f0: bff4 bd40 67f7 bd40 49ef bd40 61f7 bd40
00000100: d8f0 bd40 79f2 bd40 26ef bd40 13f0 bd40
00000110: 59ef bd40 90f0 bd40 0aee bd40 c4ec bd40
00000120: e4e7 bd40 f4ee bd40 6fe8 bd40 bfe7 bd40
00000130: 7bed bd40 0fea bd40 89e8 bd40 fee4 bd40
00000140: bbe3 bd40 f0e0 bd40 80e5 bd40 eadf bd40
00000150: 54de bd40 dbdb bd40 2cdb bd40 fbd7 bd40
00000160: 42da bd40 0cd7 bd40 1ad5 bd40 8ace bd40
00000170: f4c7 bd40 41ce bd40 00cf bd40 76ce bd40
00000180: d6c6 bd40 22ca bd40 83c9 bd40 8cc0 bd40
00000190: d8ba bd40 97c0 bd40 c3ba bd40 2dba bd40
000001a0: 82ba bd40 7cb2 bd40 07b0 bd40 49a5 bd40
000001b0: ceab bd40 46a9 bd40 9eb3 bd40 31a8 bd40
000001c0: 20a2 bd40 04a5 bd40 148f bd40 a49c bd40
000001d0: a88f bd40 058a bd40 5593 bd40 a78e bd40
000001e0: d583 bd40 387b bd40 587e bd40 7f75 bd40
000001f0: 656e bd40 c068 bd40 9f59 bd40 9a5c bd40
00000200: ca53 bd40 3362 bd40 235b bd40 8641 bd40
00000210: a749 bd40 5e59 bd40 c639 bd40 d41b bd40
00000220: 9a22 bd40 731b bd40 3917 bd40 f809 bd40
00000230: 150e bd40 b0f8 bc40 a525 bd40 82d9 bc40
00000240: 3de2 bc40 37ef bc40 0bdd bc40 45aa bc40
00000250: ea95 bc40 fba6 bc40 0eb0 bc40 e3b1 bc40
00000260: 93a2 bc40 ac85 bc40 eb60 bc40 a073 bc40
00000270: 4d5d bc40 6148 bc40 eb10 bc40 5c06 bc40
00000280: ad36 bc40 65d0 bb40 16ac bb40 9cc1 bb40
00000290: 69b8 bb40 7e39 bb40 f563 bb40 8af6 ba40
000002a0: 8b4a bb40 1d6f bb40 7409 bb40 b60a bb40
000002b0: ec92 ba40 47b7 ba40 077b ba40 1fbd ba40
000002c0: 2163 ba40 ea62 ba40 c21e b940 143e b940
000002d0: 0a2b ba40 cefc b940 1fee b840 0d83 b940
000002e0: c17c b940 a331 b940 9a29 ba40 7fde b840
000002f0: 7669 b840 3fb9 b940 9f01 b940 4b6f b940
00000300: f202 b940 d64b b940 f0e0 b940 8d18 b940
00000310: c1e4 b840 1f35 b940 5316 b940 c49f b840
00000320: bef2 b840 e051 b840 b931 b840 db0c b940
00000330: 6373 b840 046d b940 4364 b840 06f0 b740
00000340: d5ff b840 19f0 b840 9dce b840 72dc b840
00000350: b428 b940 2ff5 b840 621b b940 fe6c b840
00000360: e05b b840 dfff b740 9597 b840 5858 b840
00000370: 8057 b840 f2fa b740 dd9b b840 faa9 b740
00000380: 0295 b840 cac7 b840 17c5 b840 6b00 b840
00000390: 6a08 b840 261f b940 774f b840 e107 b840
000003a0: 42e9 b740 ee19 b840 f863 b840 2b67 b740
000003b0: e7c1 b740 320e b840 9875 b840 327c b740
000003c0: 0b3d b840 eca4 b840 1e05 b840 e9a6 b740
000003d0: df23 b740 8f4c b840 3abd b740 abc0 b740
000003e0: 9914 b740 7aa3 b740 b793 b640 c52d b840
000003f0: f743 b740 f723 b840 29f6 b640 0d2c b740

cebra_veldir_train f8 [6800, 3]
-0.3970127999782562 0.7559649348258972 0.5204785466194153 -0.3939126431941986 0.7589771151542664 0.5184462666511536 -0.39018532633781433 0.7625156044960022
0.5160672664642334 -0.3860451877117157 0.7663825750350952 0.5134462118148804 -0.38093072175979614 0.771049439907074 0.510269045829773 -0.37521693110466003
0.776183545589447 0.5067064166069031 -0.36853402853012085 0.7820568680763245 0.5025631189346313 -0.36017754673957825 0.7891847491264343 0.49745306372642517
-0.34986454248428345 0.7977163195610046 0.4911653995513916 -0.3374974727630615 0.8075997233390808 0.48360949754714966 -0.3223397433757782 0.8192084431648254
0.47433602809906006 -0.30261722207069397 0.8335551023483276 0.46217823028564453 -0.2791789472103119 0.8496038913726807 0.44747328758239746 -0.2490271031856537
0.8686227202415466 0.4283455014228821 -0.21269071102142334 0.8893533945083618 0.40473854541778564 -0.16926713287830353 0.9111070036888123 0.3758094310760498
-0.11793218553066254 0.9327808618545532 0.34060510993003845 -0.05466160178184509 0.9537046551704407 0.29573583602905273 0.016482548788189888 0.9697728753089905
0.2434520423412323 0.09892508387565613 0.9786151051521301 0.180350199341774 0.19242757558822632 0.9756492972373962 0.10526227951049805 0.27529120445251465
0.9607018232345581 0.03559064120054245 0.3549288213253021 0.9342556595802307 -0.03452441468834877 0.43513792753219604 0.8937519788742065 -0.10891487449407578
0.500960111618042 0.8479490876197815 -0.1732667237520218 0.5588647127151489 0.7958070039749146 -0.23315533995628357 0.6205428242683411 0.7237422466278076
-0.30186694860458374 0.658781111240387 0.6673391461372375 -0.3473699390888214 0.6892997026443481 0.6128122806549072 -0.3864286243915558 0.7201616764068604
0.5449012517929077 -0.42947617173194885 0.7431188225746155 0.4804970324039459 -0.4657220244407654 0.7618072032928467 0.4135028123855591 -0.49866345524787903
0.7758561968803406 0.3436250388622284 -0.529120922088623 0.7864615321159363 0.2602217197418213 -0.5601454377174377 0.7904009222984314 0.17663167417049408
-0.5865727066993713 0.7881224155426025 0.08605635166168213 -0.6094731092453003 0.7813742160797119 0.012332507409155369 -0.6239409446716309 0.7652450203895569
-0.08739084005355835 -0.6377795934677124 0.7446462512016296 -0.1735563725233078 -0.6444999575614929 0.7212414145469666 -0.24970541894435883 -0.646109938621521
0.6967381834983826 -0.31600403785705566 -0.6439698934555054 0.6700206398963928 -0.3783281445503235 -0.6387019157409668 0.6381574869155884 -0.4425491690635681
-0.6300041675567627 0.6003676652908325 -0.5088784098625183 -0.6169289946556091 0.5624361038208008 -0.5672962665557861 -0.6015318632125854 0.5131940245628357
-0.6331695318222046 -0.5794206261634827 0.4439663887023926 -0.7113440036773682 -0.5448703169822693 0.3695826232433319 -0.7808102965354919 -0.5037299990653992
0.28208285570144653 -0.8466788530349731 -0.4511808156967163 0.19427578151226044 -0.8980419635772705 -0.3946866989135742 0.09467707574367523 -0.9403355121612549
-0.32681095600128174 0.01862276904284954 -0.9621087312698364 -0.27202919125556946 -0.07207559049129486 -0.9763990044593811 -0.20359276235103607 -0.13102732598781586
-0.9788058996200562 -0.157387375831604 -0.18633496761322021 -0.975964367389679 -0.11301658302545547 -0.2307320237159729 -0.9700011610984802 -0.07655392587184906
-0.27704596519470215 -0.9601238965988159 -0.03751859441399574 -0.31557697057724 -0.9488900899887085 -0.004335484467446804 -0.34553417563438416 -0.9381514191627502
0.021863101050257683 -0.3757266104221344 -0.9254531264305115 0.04864165559411049 -0.4088059067726135 -0.90920490026474 0.0788939967751503 -0.44197535514831543
-0.8902862668037415 0.10976449400186539 -0.47434741258621216 -0.8690629005432129 0.14044228196144104 -0.5097439289093018 -0.8423593640327454 0.17490525543689728
-0.5450997352600098 -0.8115416169166565 0.21039603650569916 -0.5803614258766174 -0.775997519493103 0.2469988614320755 -0.6165867447853088 -0.733474850654602
0.28606897592544556 -0.6495145559310913 -0.6881782412528992 0.32332873344421387 -0.6817223429679871 -0.6358970999717712 0.36178672313690186 -0.7098163962364197
-0.581477165222168 0.3975487947463989 -0.7401536703109741 -0.5083250999450684 0.44020235538482666 -0.7628968358039856 -0.4371632933616638 0.4763157367706299
-0.7807762622833252 -0.36055973172187805 0.5102794170379639 -0.7926753163337708 -0.28454047441482544 0.5391684770584106 -0.7991137504577637 -0.20766283571720123
0.5641749501228333 -0.8002793788909912 -0.12998588383197784 0.5853686332702637 -0.7960297465324402 -0.04974236339330673 0.6032100319862366 -0.786244809627533
0.031231442466378212 0.6171253323554993 -0.7693262100219727 0.11924294382333755 0.6276292204856873 -0.7488280534744263 0.1973610669374466 0.632696807384491
-0.721918523311615 0.27798187732696533 0.6336873769760132 -0.6887248158454895 0.35861608386039734 0.6301210522651672 -0.6544313430786133 0.42860472202301025
0.6229105591773987 -0.6174321174621582 0.4935658574104309 0.6125114560127258 -0.5810462832450867 0.5495362281799316 0.6003292202949524 -0.5453689098358154
00000000: 0000 0060 a868 d9bf 0000 0060 dd30 e83f
00000010: 0000 00a0 c2a7 e03f 0000 0060 dd35 d9bf
00000020: 0000 0060 8a49 e83f 0000 00a0 1c97 e03f
00000030: 0000 00e0 cbf8 d8bf 0000 0020 8766 e83f
00000040: 0000 0080 9f83 e03f 0000 00e0 f6b4 d8bf
00000050: 0000 00c0 3486 e83f 0000 00c0 266e e03f
00000060: 0000 0040 2b61 d8bf 0000 00e0 6fac e83f
00000070: 0000 00c0 1f54 e03f 0000 00e0 8d03 d8bf
00000080: 0000 00e0 7ed6 e83f 0000 0060 f036 e03f
00000090: 0000 00c0 0f96 d7bf 0000 0020 9c06 e93f
000000a0: 0000 0040 ff14 e03f 0000 0020 260d d7bf
000000b0: 0000 0060 0041 e93f 0000 0060 45d6 df3f
000000c0: 0000 0040 2e64 d6bf 0000 0060 e486 e93f
000000d0: 0000 0000 416f df3f 0000 0000 8f99 d5bf
000000e0: 0000 0060 dbd7 e93f 0000 0040 75f3 de3f
000000f0: 0000 00e0 36a1 d4bf 0000 00a0 f436 ea3f
00000100: 0000 0080 855b de3f 0000 00a0 145e d3bf
00000110: 0000 00c0 7bac ea3f 0000 0000 5494 dd3f
00000120: 0000 0060 11de d1bf 0000 0080 f42f eb3f
00000130: 0000 0000 67a3 dc3f 0000 00c0 1ee0 cfbf
00000140: 0000 00e0 c1cb eb3f 0000 0040 036a db3f
00000150: 0000 0000 7339 cbbf 0000 0040 9575 ec3f
00000160: 0000 0080 3ce7 d93f 0000 00a0 8baa c5bf
00000170: 0000 00e0 c927 ed3f 0000 0000 430d d83f
00000180: 0000 00c0 cd30 bebf 0000 0040 57d9 ed3f
00000190: 0000 0060 79cc d53f 0000 0000 9bfc abbf
000001a0: 0000 00a0 bf84 ee3f 0000 0000 56ed d23f
000001b0: 0000 0020 cde0 903f 0000 0020 6108 ef3f
000001c0: 0000 00c0 6f29 cf3f 0000 0080 2753 b93f
000001d0: 0000 00a0 d050 ef3f 0000 0020 b715 c73f
000001e0: 0000 0080 77a1 c83f 0000 00e0 8438 ef3f
000001f0: 0000 0000 78f2 ba3f 0000 0000 5f9e d13f
00000200: 0000 00c0 11be ee3f 0000 00c0 ef38 a23f
00000210: 0000 0060 27b7 d63f 0000 0020 6ce5 ed3f
00000220: 0000 0020 2fad a1bf 0000 00c0 4cd9 db3f
00000230: 0000 00c0 9d99 ec3f 0000 0060 d8e1 bbbf
00000240: 0000 0080 dd07 e03f 0000 0020 6622 eb3f
00000250: 0000 00a0 9a2d c6bf 0000 0040 38e2 e13f
00000260: 0000 0040 4077 e93f 0000 00c0 08d8 cdbf
00000270: 0000 00a0 7cdb e33f 0000 0080 e528 e73f
00000280: 0000 00c0 c951 d3bf 0000 0020 bc14 e53f
00000290: 0000 00a0 d75a e53f 0000 0020 4f3b d6bf
000002a0: 0000 0040 be0e e63f 0000 0080 289c e33f
000002b0: 0000 0020 3fbb d8bf 0000 0080 900b e73f
000002c0: 0000 00c0 d46f e13f 0000 00a0 897c dbbf
000002d0: 0000 0020 a1c7 e73f 0000 00a0 76c0 de3f
000002e0: 0000 00c0 63ce ddbf 0000 0080 b960 e83f
000002f0: 0000 0080 d476 da3f 0000 0020 1aea dfbf
00000300: 0000 0060 d0d3 e83f 0000 00e0 f3fd d53f
00000310: 0000 0000 8fee e0bf 0000 0060 b12a e93f
00000320: 0000 0000 79a7 d03f 0000 0020 b6ec e1bf
00000330: 0000 00e0 f64a e93f 0000 00e0 dd9b c63f
00000340: 0000 0020 34c5 e2bf 0000 0080 4c38 e93f
00000350: 0000 0000 ca07 b63f 0000 00c0 cd80 e3bf
00000360: 0000 0080 0401 e93f 0000 0020 c941 893f
00000370: 0000 0000 53f7 e3bf 0000 0020 e37c e83f
00000380: 0000 0000 3f5f b6bf 0000 00c0 b068 e4bf
00000390: 0000 0060 24d4 e73f 0000 0060 1837 c6bf
000003a0: 0000 0060 be9f e4bf 0000 00e0 6814 e73f
000003b0: 0000 00e0 58f6 cfbf 0000 00c0 eeac e4bf
000003c0: 0000 00e0 ad4b e63f 0000 0000 6939 d4bf
000003d0: 0000 00c0 669b e4bf 0000 0020 cf70 e53f
000003e0: 0000 0040 8736 d8bf 0000 0000 3f70 e4bf
000003f0: 0000 0040 c96b e43f 0000 00c0 b952 dcbf
00000400: 0000 0080 fe28 e4bf 0000 0040 3636 e33f
00000410: 0000 0060 bb48 e0bf 0000 00e0 e1bd e3bf
00000420: 0000 0000 7aff e13f 0000 0080 4a27 e2bf
00000430: 0000 00c0 bf3f e3bf 0000 00e0 156c e03f
00000440: 0000 00c0 ec42 e4bf 0000 0020 9d8a e2bf
00000450: 0000 0000 f269 dc3f 0000 0080 54c3 e6bf
00000460: 0000 00e0 936f e1bf 0000 00e0 3da7 d73f
00000470: 0000 00e0 65fc e8bf 0000 0060 8e1e e0bf
00000480: 0000 0040 a50d d23f 0000 0040 fe17 ebbf
00000490: 0000 0080 25e0 dcbf 0000 0060 07de c83f
000004a0: 0000 0080 c2bc ecbf 0000 0000 8c42 d9bf
000004b0: 0000 00c0 c13c b83f 0000 0080 3a17 eebf
000004c0: 0000 0080 78ea d4bf 0000 00e0 d811 933f
000004d0: 0000 0040 98c9 eebf 0000 0020 ed68 d1bf
000004e0: 0000 00c0 8b73 b2bf 0000 0020 a93e efbf
000004f0: 0000 00e0 530f cabf 0000 00e0 80c5 c0bf
00000500: 0000 00c0 6052 efbf 0000 0000 4525 c4bf
00000510: 0000 0000 d3d9 c7bf 0000 00a0 193b efbf
00000520: 0000 00a0 a7ee bcbf 0000 0080 a088 cdbf
00000530: 0000 00e0 3f0a efbf 0000 00c0 0999 b3bf
00000540: 0000 0000 1fbb d1bf 0000 00c0 55b9 eebf
00000550: 0000 0020 a335 a3bf 0000 00c0 6932 d4bf
00000560: 0000 00c0 4e5d eebf 0000 00c0 15c2 71bf
00000570: 0000 0060 3b1d d6bf 0000 0020 5605 eebf
00000580: 0000 00e0 4763 963f 0000 00a0 e70b d8bf
00000590: 0000 00e0 4f9d edbf 0000 0020 8fe7 a83f
000005a0: 0000 0040 e029 dabf 0000 00e0 3418 edbf
000005b0: 0000 00a0 6532 b43f 0000 0000 5349 dcbf
000005c0: 0000 00a0 397d ecbf 0000 00a0 8619 bc3f
000005d0: 0000 0040 b55b debf 0000 0000 5dcf ebbf
000005e0: 0000 0040 03fa c13f 0000 0080 d24f e0bf
000005f0: 0000 00a0 9bf4 eabf 0000 00a0 4b63 c63f
00000600: 0000 0000 7571 e1bf 0000 0020 26f8 e9bf
00000610: 0000 00e0 41ee ca3f 0000 0020 5292 e2bf
00000620: 0000 00c0 f8d4 e8bf 0000 00a0 a89d cf3f
00000630: 0000 0020 14bb e3bf 0000 0040 a078 e7bf
00000640: 0000 0040 f44e d23f 0000 00c0 d2c8 e4bf
00000650: 0000 0060 8e05 e6bf 0000 0000 6bb1 d43f
00000660: 0000 0060 abd0 e5bf 0000 00e0 4459 e4bf
00000670: 0000 0080 8327 d73f 0000 00e0 d0b6 e6bf
00000680: 0000 0000 769b e2bf 0000 0080 7071 d93f
00000690: 0000 00c0 56af e7bf 0000 0000 3344 e0bf
000006a0: 0000 0080 462c dc3f 0000 00a0 a669 e8bf
000006b0: 0000 00c0 7bfa dbbf 0000 0000 f57b de3f
000006c0: 0000 0080 1efc e8bf 0000 0020 6913 d7bf
000006d0: 0000 0080 3554 e03f 0000 00a0 985d e9bf
000006e0: 0000 0040 e935 d2bf 0000 0040 de40 e13f
000006f0: 0000 0000 5792 e9bf 0000 0020 b294 cabf
00000700: 0000 00a0 b80d e23f 0000 0080 e39b e9bf
00000710: 0000 00a0 60a3 c0bf 0000 0000 57bb e23f
00000720: 0000 0060 1379 e9bf 0000 00c0 d477 a9bf
00000730: 0000 0020 7f4d e33f 0000 00e0 ea28 e9bf
00000740: 0000 00a0 22fb 9f3f 0000 00a0 7dbf e33f
00000750: 0000 0000 529e e8bf 0000 00a0 b486 be3f
00000760: 0000 00e0 8915 e43f 0000 0040 66f6 e7bf
00000770: 0000 00a0 2043 c93f 0000 0060 0d3f e43f
00000780: 0000 00e0 f419 e7bf 0000 0080 74ca d13f
00000790: 0000 00c0 2a47 e43f 0000 00a0 080a e6bf
000007a0: 0000 00e0 90f3 d63f 0000 00a0 f329 e43f
000007b0: 0000 0000 1af1 e4bf 0000 0080 426e db3f
000007c0: 0000 0020 e2ee e33f 0000 0000 01c2 e3bf
000007d0: 0000 0040 9596 df3f 0000 00a0 b199 e33f
000007e0: 0000 0060 ee97 e2bf 0000 0000 cd95 e13f
000007f0: 0000 00a0 e535 e33f 0000 0080 a973 e1bf

cebra_veldir_test f8 [1700, 3]
-0.28989478945732117 0.8401272296905518 0.4584183096885681 -0.28795817494392395 0.8416407108306885 0.4568600058555603 -0.2852901220321655 0.8436523079872131
0.45481908321380615 -0.2828628718852997 0.845539391040802 0.4528263211250305 -0.27863168716430664 0.8486150503158569 0.44968539476394653 -0.27368536591529846
0.8521544933319092 0.44601473212242126 -0.2681017518043518 0.8561128973960876 0.44180554151535034 -0.2596767544746399 0.8617938756942749 0.4357513189315796
-0.2494674175977707 0.8684576153755188 0.428424209356308 -0.23483672738075256 0.8775256276130676 0.41809162497520447 -0.21513621509075165 0.8890360593795776
0.4041427671909332 -0.19170141220092773 0.9017520546913147 0.38741937279701233 -0.15979550778865814 0.9174714684486389 0.3642958998680115 -0.11661529541015625
0.9358950257301331 0.332417368888855 -0.05632617697119713 0.9563184380531311 0.28684911131858826 0.03321300819516182 0.9757150411605835 0.21651102602481842
0.16034092009067535 0.9809079170227051 0.11004719883203506 0.34918418526649475 0.9350734949111938 -0.06089245527982712 0.573279857635498 0.7654577493667603
-0.29227492213249207 0.7600345611572266 0.3326508700847626 -0.5582929253578186 0.7656158804893494 0.01711980625987053 -0.6430702209472656 0.7217832207679749
-0.2027762234210968 -0.6617482304573059 0.6525624394416809 -0.3872607946395874 -0.651299774646759 0.5987366437911987 -0.48989418148994446 -0.6336545348167419
0.5406929850578308 -0.5795862674713135 -0.6096973419189453 0.48045796155929565 -0.6560457944869995 -0.5820344090461731 0.4250796139240265 -0.7165111899375916
-0.5530995726585388 0.3783971965312958 -0.7603060007095337 -0.527968168258667 0.31472039222717285 -0.8117831945419312 -0.49189338088035583 0.24874582886695862
-0.8555867075920105 -0.4539790749549866 0.16623438894748688 -0.8992961645126343 -0.4045153856277466 0.041409365832805634 -0.9444222450256348 -0.3261163532733917
-0.09188202023506165 -0.9664915800094604 -0.23969107866287231 -0.6766220331192017 -0.6932520270347595 0.2481619268655777 -0.710892379283905 0.37160834670066833
0.5971090793609619 -0.43528518080711365 0.7394548654556274 0.5135497450828552 -0.29776421189308167 0.8435629606246948 0.4469205141067505 -0.22348502278327942
0.8861905932426453 0.40585795044898987 -0.1436227560043335 0.9230525493621826 0.35685619711875916 -0.08935532718896866 0.9426104426383972 0.3217158913612366
-0.0439731739461422 0.9556920528411865 0.2910654842853546 -0.003946848679333925 0.9647567868232727 0.2631133794784546 0.02534172497689724 0.9698856472969055
0.2422385960817337 0.05135364085435867 0.9733719229698181 0.22340548038482666 0.07331772893667221 0.9755600690841675 0.20714011788368225 0.08961889892816544
0.9767364263534546 0.1948186159133911 0.11088509112596512 0.9776370525360107 0.17869031429290771 0.12798531353473663 0.977848470211029 0.16562654078006744
0.1421651691198349 0.9777063727378845 0.15452975034713745 0.14919798076152802 0.9774947762489319 0.1491440087556839 0.15562251210212708 0.9772462248802185
0.1441231369972229 0.15842556953430176 0.9770948886871338 0.14208079874515533 0.15707100927829742 0.9771375060081482 0.14328616857528687 0.15611137449741364
0.9771603345870972 0.14417664706707 0.14610767364501953 0.9774675965309143 0.15234684944152832 0.13784602284431458 0.9775986671447754 0.15905748307704926
0.1274799108505249 0.9776093363761902 0.16741815209388733 0.11333496868610382 0.9773655533790588 0.178638756275177 0.0942949652671814 0.9765477776527405
0.1935536116361618 0.06651842594146729 0.9743370413780212 0.21504086256027222 0.04328664764761925 0.9715649485588074 0.23278260231018066 0.01444645319133997
0.9669749140739441 0.2544618248939514 -0.0195420254021883 0.9599413275718689 0.2795187532901764 -0.05470827594399452 0.9507824778556824 0.304991215467453
-0.09246861189603806 0.9388542771339417 0.331665962934494 -0.13066133856773376 0.9245124459266663 0.3580561876296997 -0.17190565168857574 0.9063961505889893
0.3858684003353119 -0.21070516109466553 0.8868276476860046 0.41126635670661926 -0.24641090631484985 0.8665593862533569 0.4340006411075592 -0.2788238525390625
0.8462108969688416 0.45407524704933167 -0.3059646487236023 0.8276575803756714 0.47049811482429504 -0.32987597584724426 0.8101354837417603 0.48462602496147156
-0.3480721712112427 0.7960374355316162 0.49514660239219666 -0.36165112257003784 0.7850385308265686 0.5029144287109375 -0.3712535798549652 0.7770364284515381
0.5083159804344177 -0.37785935401916504 0.771418035030365 0.5119928121566772 -0.3813108801841736 0.7684421539306641 0.5139052867889404 -0.38326603174209595
0.7667712569236755 0.5149456858634949 -0.3832347095012665 0.7668170928955078 0.5149007439613342 -0.3815659284591675 0.7682746052742004 0.5139665007591248
-0.3776322305202484 0.7716823220252991 0.5117619633674622 -0.37339457869529724 0.7753199338912964 0.5093678832054138 -0.3683697581291199 0.7795553207397461
0.5065542459487915 -0.36289823055267334 0.7841101288795471 0.5034642219543457 -0.35719841718673706 0.7887918949127197 0.500216543674469 -0.35177531838417053
00000000: 0000 00e0 a28d d2bf 0000 0080 52e2 ea3f
00000010: 0000 00c0 b956 dd3f 0000 0020 e86d d2bf
00000020: 0000 0080 b8ee ea3f 0000 00c0 313d dd3f
00000030: 0000 0080 3142 d2bf 0000 0020 33ff ea3f
00000040: 0000 0080 c11b dd3f 0000 00e0 6c1a d2bf
00000050: 0000 00a0 a80e eb3f 0000 0040 1bfb dc3f
00000060: 0000 0000 1ad5 d1bf 0000 00c0 da27 eb3f
00000070: 0000 0040 a5c7 dc3f 0000 00a0 0f84 d1bf
00000080: 0000 0080 d944 eb3f 0000 0060 818b dc3f
00000090: 0000 0040 9428 d1bf 0000 00e0 4665 eb3f
000000a0: 0000 00c0 8a46 dc3f 0000 0040 8b9e d0bf
000000b0: 0000 00c0 d093 eb3f 0000 0080 59e3 db3f
000000c0: 0000 0060 8cee cfbf 0000 00a0 67ca eb3f
000000d0: 0000 0060 4d6b db3f 0000 0040 210f cebf
000000e0: 0000 00a0 b014 ec3f 0000 0060 03c2 da3f
000000f0: 0000 0060 9589 cbbf 0000 00c0 fb72 ec3f
00000100: 0000 00a0 79dd d93f 0000 0000 ac89 c8bf
00000110: 0000 0020 27db ec3f 0000 00a0 7acb d83f
00000120: 0000 00e0 2d74 c4bf 0000 0020 ed5b ed3f
00000130: 0000 00c0 9f50 d73f 0000 0000 80da bdbf
00000140: 0000 0020 daf2 ed3f 0000 0080 5346 d53f
00000150: 0000 00e0 c8d6 acbf 0000 0020 299a ee3f
00000160: 0000 0060 bc5b d23f 0000 00a0 4b01 a13f
00000170: 0000 00c0 0e39 ef3f 0000 0020 a2b6 cb3f
00000180: 0000 0020 0d86 c43f 0000 0000 9963 ef3f
00000190: 0000 00a0 0d2c bc3f 0000 00a0 0859 d63f
000001a0: 0000 0040 1fec ed3f 0000 00c0 4b2d afbf
000001b0: 0000 0000 4f58 e23f 0000 0040 a17e e83f
000001c0: 0000 00e0 a1b4 d2bf 0000 0000 3452 e83f
000001d0: 0000 00e0 264a d53f 0000 0020 89dd e1bf
000001e0: 0000 00e0 ec7f e83f 0000 00c0 da87 913f
000001f0: 0000 0000 0894 e4bf 0000 0020 d918 e73f
00000200: 0000 0040 92f4 c9bf 0000 00a0 0a2d e5bf
00000210: 0000 00a0 cae1 e43f 0000 0080 e1c8 d8bf
00000220: 0000 00a0 72d7 e4bf 0000 00c0 d928 e33f
00000230: 0000 0020 6d5a dfbf 0000 00e0 e546 e4bf
00000240: 0000 0060 5b4d e13f 0000 0080 f88b e2bf
00000250: 0000 0000 a482 e3bf 0000 00c0 d2bf de3f
00000260: 0000 00c0 53fe e4bf 0000 00a0 06a0 e2bf
00000270: 0000 0020 8134 db3f 0000 00e0 a8ed e6bf
00000280: 0000 00e0 fdb2 e1bf 0000 00e0 a837 d83f
00000290: 0000 0040 6d54 e8bf 0000 0080 1de5 e0bf
000002a0: 0000 0000 6124 d43f 0000 00c0 20fa e9bf
000002b0: 0000 0060 2e7b dfbf 0000 0040 e7d6 cf3f
000002c0: 0000 0060 f760 ebbf 0000 0040 fe0d ddbf
000002d0: 0000 0020 2b47 c53f 0000 00c0 08c7 ecbf
000002e0: 0000 0080 94e3 d9bf 0000 00c0 9b33 a53f
000002f0: 0000 0000 b538 eebf 0000 0020 17df d4bf
00000300: 0000 0080 9485 b7bf 0000 00c0 7fed eebf
00000310: 0000 0080 32ae cebf 0000 0040 e3a6 e5bf
00000320: 0000 00e0 1e2f e6bf 0000 0020 c5c3 cf3f
00000330: 0000 0060 a1bf e6bf 0000 0060 6ec8 d73f
00000340: 0000 0080 841b e33f 0000 0060 b6db dbbf
00000350: 0000 0040 9da9 e73f 0000 00e0 ff6e e03f
00000360: 0000 00a0 910e d3bf 0000 00c0 77fe ea3f
00000370: 0000 0080 589a dc3f 0000 0040 289b ccbf
00000380: 0000 0060 ac5b ec3f 0000 00a0 93f9 d93f
00000390: 0000 0000 3b62 c2bf 0000 0080 a589 ed3f
000003a0: 0000 0060 bbd6 d63f 0000 00a0 fddf b6bf
000003b0: 0000 0060 dd29 ee3f 0000 0040 fe96 d43f
000003c0: 0000 00e0 a683 a6bf 0000 0080 0795 ee3f
000003d0: 0000 0020 d1a0 d23f 0000 0020 922a 70bf
000003e0: 0000 00a0 49df ee3f 0000 0080 d9d6 d03f
000003f0: 0000 0060 2ef3 993f 0000 00a0 4d09 ef3f
00000400: 0000 00a0 ac01 cf3f 0000 0040 064b aa3f
00000410: 0000 00e0 dc25 ef3f 0000 0000 8d98 cc3f
00000420: 0000 0060 f3c4 b23f 0000 00c0 c937 ef3f
00000430: 0000 0040 9183 ca3f 0000 00a0 43f1 b63f
00000440: 0000 00c0 6c41 ef3f 0000 0000 d1ef c83f
00000450: 0000 0020 f762 bc3f 0000 0080 cd48 ef3f
00000460: 0000 0000 53df c63f 0000 00a0 d261 c03f
00000470: 0000 00e0 884a ef3f 0000 0020 4033 c53f
00000480: 0000 00e0 7732 c23f 0000 00e0 5e49 ef3f
00000490: 0000 0080 a1c7 c33f 0000 0060 eb18 c33f
000004a0: 0000 0020 a347 ef3f 0000 00a0 2617 c33f
000004b0: 0000 0040 70eb c33f 0000 00e0 9945 ef3f
000004c0: 0000 0080 a072 c23f 0000 0000 4a47 c43f
000004d0: 0000 0080 5c44 ef3f 0000 0020 b42f c23f
000004e0: 0000 0020 e71a c43f 0000 00e0 b544 ef3f
000004f0: 0000 0080 3357 c23f 0000 0020 75fb c33f
00000500: 0000 00c0 e544 ef3f 0000 0060 6174 c23f
00000510: 0000 0000 a8b3 c23f 0000 0020 6a47 ef3f
00000520: 0000 0000 1a80 c33f 0000 0040 f0a4 c13f
00000530: 0000 0000 7d48 ef3f 0000 00e0 fe5b c43f
00000540: 0000 0000 4351 c03f 0000 0060 9348 ef3f
00000550: 0000 0040 f56d c53f 0000 0040 8503 bd3f
00000560: 0000 0020 9446 ef3f 0000 0080 a2dd c63f
00000570: 0000 0000 b723 b83f 0000 0020 e13f ef3f
00000580: 0000 0060 5dc6 c83f 0000 0000 5a07 b13f
00000590: 0000 00e0 c42d ef3f 0000 0080 7586 cb3f
000005a0: 0000 00e0 aa29 a63f 0000 0060 0f17 ef3f
000005b0: 0000 0000 d2cb cd3f 0000 0020 1a96 8d3f
000005c0: 0000 0060 75f1 ee3f 0000 0040 1a49 d03f
000005d0: 0000 0020 d302 94bf 0000 00e0 d6b7 ee3f
000005e0: 0000 00a0 a2e3 d13f 0000 0020 b902 acbf
000005f0: 0000 0060 cf6c ee3f 0000 00e0 f984 d33f
00000600: 0000 00e0 05ac b7bf 0000 0020 180b ee3f
00000610: 0000 00e0 033a d53f 0000 00c0 82b9 c0bf
00000620: 0000 0020 9b95 ed3f 0000 0080 64ea d63f
00000630: 0000 0020 0101 c6bf 0000 0080 3201 ed3f
00000640: 0000 0060 11b2 d83f 0000 0000 63f8 cabf
00000650: 0000 0060 e460 ec3f 0000 0020 3052 da3f
00000660: 0000 0080 648a cfbf 0000 00c0 daba eb3f
00000670: 0000 00a0 aac6 db3f 0000 0000 40d8 d1bf
00000680: 0000 00e0 2814 eb3f 0000 00a0 910f dd3f
00000690: 0000 00c0 ec94 d3bf 0000 00c0 2b7c ea3f
000006a0: 0000 0020 a41c de3f 0000 0020 b01c d5bf
000006b0: 0000 0040 a1ec e93f 0000 00e0 1c04 df3f
000006c0: 0000 0080 d046 d6bf 0000 0080 2379 e93f
000006d0: 0000 0060 7bb0 df3f 0000 00c0 4a25 d7bf
000006e0: 0000 0020 091f e93f 0000 0000 e017 e03f
000006f0: 0000 0060 9ec2 d7bf 0000 0080 7bdd e83f
00000700: 0000 00e0 1f44 e03f 0000 0000 d92e d8bf
00000710: 0000 00e0 74af e83f 0000 00c0 3e62 e03f
00000720: 0000 00c0 6567 d8bf 0000 0000 1497 e83f
00000730: 0000 0080 e971 e03f 0000 0040 6e87 d8bf
00000740: 0000 00e0 6389 e83f 0000 0060 6f7a e03f
00000750: 0000 00e0 ea86 d8bf 0000 0000 c489 e83f
00000760: 0000 0020 117a e03f 0000 0080 936b d8bf
00000770: 0000 00a0 b495 e83f 0000 00e0 6972 e03f
00000780: 0000 0060 202b d8bf 0000 0020 9fb1 e83f
00000790: 0000 00a0 5a60 e03f 0000 0060 b2e5 d7bf
000007a0: 0000 00c0 6bcf e83f 0000 00e0 bd4c e03f
000007b0: 0000 00c0 5e93 d7bf 0000 0000 1ef2 e83f
000007c0: 0000 0040 b135 e03f 0000 0080 b939 d7bf
000007d0: 0000 0020 6e17 e93f 0000 0000 611c e03f
000007e0: 0000 00c0 56dc d6bf 0000 0080 c83d e93f
000007f0: 0000 0020 c601 e03f 0000 00a0 7c83 d6bf

continuous_index_train f8 [6800, 3]
8.319871130950144 -0.8967248583744591 0.0 10.868746246191495 -0.2187285759508645 0.0 11.351201701152524 1.232291624302909
0.0 8.928227982731707 3.4537303929292995 0.0 4.576185735338852 6.7413404029012325 0.0 -1.6460035604366228
7.515990836157602 0.0 -8.41392110771582 5.769660333223485 0.0 -14.90371489868157 1.996913695616831 0.0
-21.43607062657744 -5.61994324960398 0.0 -28.193195264749523 -17.7621506370052 0.0 -35.400967956854636 -27.51775873457269
0.0 -42.46904505829985 -34.142903136034406 0.0 -48.20294597805922 -34.22155268875779 0.0 -50.94391405935518
-22.50626404433503 0.0 -49.48771165470437 -0.8561022434426497 0.0 -44.02392503658167 29.5542705638152 0.0
-35.32918028160946 67.34723269096968 0.0 -25.723636439738343 112.1832007912115 0.0 -17.34156909070695 164.59976189458214
0.0 -12.729901806242319 224.45763770085432 0.0 -10.447188664351891 291.17359253866255 0.0 -10.431697767669075
357.8100861707433 0.0 -11.493273579754062 418.1751687125382 0.0 -12.042949930034172 467.79968734764685 0.0
-11.676334753560141 499.88377975368775 0.0 -11.724544880850535 516.7850730189275 0.0 -11.327030163944402 522.4147319335997
0.0 -7.816618385654027 525.2136646693538 0.0 -0.28631635924777027 530.1436139629692 0.0 12.014616143966428
542.5141910269771 0.0 32.348417921999264 564.1280917748219 0.0 56.54322944008092 588.1421019638871 0.0
82.92759334419087 609.5026990673441 0.0 111.91714581130216 627.6553503213299 0.0 140.9061972731863 634.9317431671136
0.0 168.77213810782516 632.2683077007044 0.0 196.182575677648 625.6250967794404 0.0 224.43628102585853
617.1970219198854 0.0 254.33801507869634 612.3748952904534 0.0 286.3050103227939 614.3778723804948 0.0
322.7350990248176 620.3663576471785 0.0 359.79898166502784 624.8310163169681 0.0 395.041128203931 623.0515229863107
0.0 429.52774120799546 611.363236212788 0.0 457.0617615295252 585.9537567928215 0.0 477.00293129920544
551.9364509453967 0.0 492.1513949845332 516.7335806825186 0.0 506.59384515284404 481.88341342322957 0.0
523.8803356252113 453.96607415703284 0.0 547.7888171963252 434.0459594698547 0.0 579.7932474888241 416.7351935726907
0.0 613.5171762719938 397.1584171675049 0.0 644.9120432058598 371.54523841668157 0.0 672.2422582672477
338.07550170607124 0.0 687.9987992734456 298.1309514907143 0.0 694.3353161202964 257.50323965813135 0.0
695.9887655016179 220.72931067137233 0.0 695.8706067540944 184.40422824662528 0.0 697.6124357067175 151.7577939263072
0.0 703.6815699264589 121.29114622935896 0.0 711.4654912884362 90.45269294410829 0.0 714.4222541086225
61.15873798635216 0.0 708.618294954234 34.60214829379852 0.0 694.4799143039537 9.134203687311636 0.0
669.3188974998086 -14.735800676122233 0.0 639.1323345562239 -37.941198110046024 0.0 611.1494447053436 -61.078889000819636
0.0 585.3412194472058 -86.84428725303168 0.0 567.0190446060303 -110.93980566193301 0.0 557.9438168507825
-132.72136486111964 0.0 554.5661103133174 -152.65968918908248 0.0 552.3889594640319 -169.02358304583265 0.0
547.2324419380803 -181.84768774305505 0.0 533.9710452519805 -192.55501159947266 0.0 508.0805281737406 -198.70868738561774
0.0 472.7231646879314 -199.7649930641502 0.0 433.00267924317416 -197.34257202243288 0.0 388.73389699932505
-194.17920157281733 0.0 349.5367613735204 -191.90882891639683 0.0 317.3999045010272 -192.88168705549205 0.0
290.7464954448319 -195.86844386002812 0.0 266.3580894999468 -197.72409647463303 0.0 240.23587916331795 -196.5508522745695
0.0 208.73068551787614 -192.14241880877944 0.0 171.37861649045493 -184.5574767298183 0.0 129.89300010923984
00000000: 16bb 1c26 c6a3 2040 2650 8754 f8b1 ecbf
00000010: 0000 0000 0000 0000 9ad4 d74e ccbc 2540
00000020: 456e 3448 4cff cbbf 0000 0000 0000 0000
00000030: d37f 99b5 d0b3 2640 5c40 186c 77b7 f33f
00000040: 0000 0000 0000 0000 2521 bab2 40db 2140
00000050: 1ba9 7666 3da1 0b40 0000 0000 0000 0000
00000060: eece 26a2 034e 1240 33a8 46f0 21f7 1a40
00000070: 0000 0000 0000 0000 34cc 52d4 0756 fabf
00000080: 9454 d9e6 5f10 1e40 0000 0000 0000 0000
00000090: ef86 a977 edd3 20c0 b1e4 a0d6 2114 1740
000000a0: 0000 0000 0000 0000 987d 1db8 b3ce 2dc0
000000b0: 98bd 79c6 5bf3 ff3f 0000 0000 0000 0000
000000c0: 76e5 1753 a26f 35c0 43b3 3967 d27a 16c0
000000d0: 0000 0000 0000 0000 5dd7 af3e 7531 3cc0
000000e0: 1a90 dc4d 1cc3 31c0 0000 0000 0000 0000
000000f0: a1b7 02eb 52b3 41c0 4335 20d6 8b84 3bc0
00000100: 0000 0000 0000 0000 c7df 20ab 093c 45c0
00000110: bee1 63a6 4a12 41c0 0000 0000 0000 0000
00000120: 3e4f 4122 fa19 48c0 1d47 a8d6 5b1c 41c0
00000130: 0000 0000 0000 0000 2295 072d d278 49c0
00000140: 458f 3985 9a81 36c0 0000 0000 0000 0000
00000150: aa6a e355 6dbe 48c0 06ca 3388 3065 ebbf
00000160: 0000 0000 0000 0000 42d6 c0f9 0f03 46c0
00000170: c6b8 f8ac e48d 3d40 0000 0000 0000 0000
00000180: 1700 5894 22aa 41c0 47f4 760f 39d6 5040
00000190: 0000 0000 0000 0000 bcde da3c 40b9 39c0
000001a0: b4b6 cf8f b90b 5c40 0000 0000 0000 0000
000001b0: 2be9 6912 7157 31c0 c153 db3f 3193 6440
000001c0: 0000 0000 0000 0000 4534 86b0 b575 29c0
000001d0: c0d2 d1f7 a40e 6c40 0000 0000 0000 0000
000001e0: 0c11 a1e9 f5e4 24c0 2a46 f808 c732 7240
000001f0: 0000 0000 0000 0000 2eca 637d 07dd 24c0
00000200: 8da4 ea1c f65c 7640 0000 0000 0000 0000
00000210: 910c ca5a 8efc 26c0 253a b57d cd22 7a40
00000220: 0000 0000 0000 0000 7ab9 8188 fd15 28c0
00000230: b1d2 f584 cb3c 7d40 0000 0000 0000 0000
00000240: c860 7f8c 485a 27c0 4b2f 3df6 233e 7f40
00000250: 0000 0000 0000 0000 7b79 ef8b f772 27c0
00000260: 20ea 5cd4 4726 8040 0000 0000 0000 0000
00000270: b9e4 657f 70a7 26c0 57db f95e 5153 8040
00000280: 0000 0000 0000 0000 13c9 2e9c 3744 1fc0
00000290: 7b79 d295 b569 8040 0000 0000 0000 0000
000002a0: 7dda d1d9 0153 d2bf 9dd1 131f 2691 8040
000002b0: 0000 0000 0000 0000 aca8 68c4 7b07 2840
000002c0: 1b66 2f10 1df4 8040 0000 0000 0000 0000
000002d0: df29 5ef5 982c 4040 f9fd fa54 06a1 8140
000002e0: 0000 0000 0000 0000 9caf d38a 8845 4c40
000002f0: bdbc 5a06 2361 8240 0000 0000 0000 0000
00000300: 5f52 79b0 5dbb 5440 c8af 1687 050c 8340
00000310: 0000 0000 0000 0000 324d 5884 b2fa 5b40
00000320: 482c 4f28 3e9d 8340 0000 0000 0000 0000
00000330: e881 6c91 ff9c 6140 32f8 c235 74d7 8340
00000340: 0000 0000 0000 0000 5723 fa5a b518 6540
00000350: 53fe 817e 25c2 8340 0000 0000 0000 0000
00000360: 6291 f2a8 d785 6840 4084 bd32 008d 8340
00000370: 0000 0000 0000 0000 b03d a003 f60d 6c40
00000380: 0674 3a80 9349 8340 0000 0000 0000 0000
00000390: c891 ff04 d1ca 6f40 601f 1ac9 ff22 8340
000003a0: 0000 0000 0000 0000 7a15 8152 e1e4 7140
000003b0: 4b62 f4e1 0533 8340 0000 0000 0000 0000
000003c0: 9cee 31f7 c22b 7440 2b0a eb4c ee62 8340
000003d0: 0000 0000 0000 0000 5f96 ffa0 c87c 7640
000003e0: 90fe e1eb a586 8340 0000 0000 0000 0000
000003f0: 3b2d 0c76 a8b0 7840 9329 e284 6978 8340
00000400: 0000 0000 0000 0000 79d1 c3a0 71d8 7a40
00000410: 2e35 63e8 e71a 8340 0000 0000 0000 0000
00000420: 6357 a8f9 fc90 7c40 0dcc 3d4b a14f 8240
00000430: 0000 0000 0000 0000 8ea3 b001 0cd0 7d40
00000440: 4c46 fed9 7d3f 8140 0000 0000 0000 0000
00000450: 94b5 251d 6cc2 7e40 2883 8c5f de25 8040
00000460: 0000 0000 0000 0000 a765 c663 80a9 7f40
00000470: e519 1d76 221e 7e40 0000 0000 0000 0000
00000480: 4a7e 67ed 0a5f 8040 78df 2c0a 755f 7c40
00000490: 0000 0000 0000 0000 eae5 637f 4f1e 8140
000004a0: 7b3f ff3f bc20 7b40 0000 0000 0000 0000
000004b0: 12b1 2392 581e 8240 faee 555a c30b 7a40
000004c0: 0000 0000 0000 0000 d833 502d 232c 8340
000004d0: f098 70e0 88d2 7840 0000 0000 0000 0000
000004e0: a8ed 4edd 4b27 8440 b902 eb4b b938 7740
000004f0: 0000 0000 0000 0000 1e38 1a25 f001 8540
00000500: e4e5 4641 3521 7540 0000 0000 0000 0000
00000510: bd35 798a fd7f 8540 b01f 9760 18a2 7240
00000520: 0000 0000 0000 0000 f5d3 37ba aeb2 8540
00000530: 971b 0745 0d18 7040 0000 0000 0000 0000
00000540: e526 e3fd e8bf 8540 6045 5583 5697 6b40
00000550: 0000 0000 0000 0000 1984 ac00 f7be 8540
00000560: 006c 1370 ef0c 6740 0000 0000 0000 0000
00000570: 091a b144 e6cc 8540 1953 0cd9 3ff8 6240
00000580: 0000 0000 0000 0000 a000 efda 73fd 8540
00000590: d45c cb23 a252 5e40 0000 0000 0000 0000
000005a0: 4023 7f53 b93b 8640 ce84 d3eb f89c 5640
000005b0: 0000 0000 0000 0000 1519 c3c6 6053 8640
000005c0: f901 be86 5194 4e40 0000 0000 0000 0000
000005d0: bcfd 9f44 f224 8640 7a9a fe31 134d 4140
000005e0: 0000 0000 0000 0000 e982 4fdd d6b3 8540
000005f0: 1e03 8058 b644 2240 0000 0000 0000 0000
00000600: a2e3 211a 8dea 8440 ada3 c0dd ba78 2dc0
00000610: 0000 0000 0000 0000 e678 6b05 0ff9 8340
00000620: 33da fe2d 79f8 42c0 0000 0000 0000 0000
00000630: 17d0 1010 3219 8340 6944 e708 198a 4ec0
00000640: 0000 0000 0000 0000 11f4 42d1 ba4a 8240
00000650: d90c 67cd 08b6 55c0 0000 0000 0000 0000
00000660: 86c0 db00 27b8 8140 44a6 a5c6 25bc 5bc0
00000670: 0000 0000 0000 0000 325c d9ef 8c6f 8140
00000680: c2df c26b 1597 60c0 0000 0000 0000 0000
00000690: 030d d864 8754 8140 4a94 802c 1c15 63c0
000006a0: 0000 0000 0000 0000 e58b c796 1c43 8140
000006b0: ec52 3b31 c120 65c0 0000 0000 0000 0000
000006c0: 31d2 840a dc19 8140 87b4 0b42 20bb 66c0
000006d0: 0000 0000 0000 0000 8a81 5fb3 c4af 8040
000006e0: 5894 afa7 c211 68c0 0000 0000 0000 0000
000006f0: f609 e9d7 49c1 7f40 1c0a 2b91 add6 68c0
00000700: 0000 0000 0000 0000 99c4 2215 928b 7d40
00000710: 2406 bcd2 7af8 68c0 0000 0000 0000 0000
00000720: fadc 63f9 0a10 7b40 f61b 9a59 f6aa 68c0
00000730: 0000 0000 0000 0000 bdab c70a be4b 7840
00000740: 8dd4 ef04 bc45 68c0 0000 0000 0000 0000
00000750: 6b10 1893 96d8 7540 ac32 6120 15fd 67c0
00000760: 0000 0000 0000 0000 f616 4302 66d6 7340
00000770: a394 c5c7 361c 68c0 0000 0000 0000 0000
00000780: a822 35a5 f12b 7240 7327 c74a ca7b 68c0
00000790: 0000 0000 0000 0000 0035 0ebc baa5 7040
000007a0: 54b6 5ecc 2bb7 68c0 0000 0000 0000 0000
000007b0: 4588 7552 8c07 6e40 8106 f394 a091 68c0
000007c0: 0000 0000 0000 0000 0b5e 98c6 6117 6a40
000007d0: 60c1 e3b1 8e04 68c0 0000 0000 0000 0000
000007e0: 5e87 54a0 1d6c 6540 385b 70d9 d611 67c0
000007f0: 0000 0000 0000 0000 4e10 f774 933c 6040

continuous_index_test f8 [1700, 3]
5.05380757545544 13.270935367455976 0.0 8.109541570333711 17.878648967845646 0.0 10.167426972938296 20.43210029132438
0.0 10.39130165624727 20.37666879980111 0.0 10.363498140551739 20.599193054669843 0.0 10.739052284470205
22.19324719552447 0.0 11.780830077116585 23.868281014190124 0.0 14.530450362642856 27.61948646100328 0.0
18.862866732237073 34.0685611761438 0.0 22.74888520048401 37.74788917009928 0.0 27.26302321485702 43.47515491085668
0.0 31.541734878866947 52.22984263742306 0.0 36.73173086184076 64.93489377802639 0.0 44.48448339181014
83.8223908456746 0.0 57.173404179765974 112.11526058400815 0.0 75.85709156988986 150.66526549466136 0.0
99.0137200744559 200.26893518125078 0.0 124.88598929764252 260.52406509600513 0.0 149.87766532533732 328.66245296527126
0.0 167.34362659742618 396.49266316154956 0.0 177.86521730878815 462.9110491515583 0.0 182.02719735745598
519.417174452703 0.0 181.5239121341627 562.3097888662943 0.0 180.26066613409202 591.8498342213446 0.0
183.62988357760028 610.3782731035759 0.0 193.0765992187332 623.1184888748254 0.0 207.99212923900393 635.8926211240392
0.0 229.89012228099668 654.5547316862602 0.0 257.8969868784468 678.703852829808 0.0 286.94371604696005
703.1938929649426 0.0 320.3574689109764 727.2642617608327 0.0 353.90386992565686 743.1162687727509 0.0
383.91076067762515 743.7083805494909 0.0 411.2999375030645 734.0293369826243 0.0 437.0027343387626 717.2720367024892
0.0 464.4707435883767 699.0063258387113 0.0 497.4994062735927 687.1201749001347 0.0 536.7315716425695
683.3918055540016 0.0 578.4094170706453 682.6481186802711 0.0 614.6045723323568 678.5095616846569 0.0
643.6196051683869 665.740361293456 0.0 659.4804042734343 639.6736625594411 0.0 661.4435622076895 600.4561404611309
0.0 656.2759476661872 557.326097128744 0.0 648.2902860502919 512.6015026709366 0.0 642.0560434818791
470.4906127875962 0.0 641.2501102190818 436.8233865739219 0.0 647.2667556128415 408.9751217580657 0.0
655.3736545920127 383.4409410809748 0.0 659.4978513300856 357.739485370019 0.0 657.7438435987242 328.0492215779382
0.0 645.4720721636137 292.99372522180386 0.0 619.9572438135142 253.08424928569704 0.0 588.4276470436117
213.80508308252504 0.0 554.5000445029536 173.46454861787504 0.0 523.872048704865 134.8457785001907 0.0
503.6801781419935 102.15955060255254 0.0 492.3132609361124 73.2310553889092 0.0 484.7813063836995 48.414711020326116
0.0 476.0347195501038 28.081136559989677 0.0 462.5962875874507 10.121987141301446 0.0 442.7188835328719
-8.669623043690722 0.0 418.26262468184296 -27.046222703966954 0.0 396.34358177086034 -44.77388031072125 0.0
376.2433830809468 -62.255279985100664 0.0 357.9623123139592 -75.97253108737293 0.0 343.2039783630831 -83.16018178289794
0.0 325.57514855884904 -86.57850974665143 0.0 302.74541751310016 -88.61950416498426 0.0 275.5262810168471
-93.75933963276537 0.0 245.54476978872592 -106.4824846619036 0.0 216.2231533871333 -126.52615747781832 0.0
190.9854934665907 -147.97632879383195 0.0 173.21330961998797 -165.00777402663152 0.0 158.24611850021208 -172.5027867497919
0.0 142.86746698390627 -169.0067152978364 0.0 125.46550513355965 -156.93977888976463 0.0 103.22693876833146
-142.07689024937676 0.0 77.8663239095725 -128.0774091994088 0.0 52.76934840403406 -117.16283246091432 0.0
30.889150509053774 -108.89658935950214 0.0 13.605447326871158 -101.60339294303299 0.0 1.711432087047333 -93.4897827312395
0.0 -5.985708082516848 -84.12279086228197 0.0 -12.770495397534592 -74.94654601720812 0.0 -18.77137224522149
00000000: c36e 4355 1937 1440 381b 5d0a b88a 2a40
00000010: 0000 0000 0000 0000 8445 2cd5 1538 2040
00000020: ab8f 8523 efe0 3140 0000 0000 0000 0000
00000030: fd79 fafc b855 2440 8ed4 eb1f 9e6e 3440
00000040: 0000 0000 0000 0000 c3e7 d0b0 58c8 2440
00000050: c091 d05d 6d60 3440 0000 0000 0000 0000
00000060: 2fa7 a36d 1cba 2440 1dcc 4db7 6499 3440
00000070: 0000 0000 0000 0000 d0aa 9f0f 657a 2540
00000080: 42d2 f0a5 7831 3640 0000 0000 0000 0000
00000090: d5e5 b9f5 c88f 2740 2eaf 1faa 47de 3740
000000a0: 0000 0000 0000 0000 a267 9f30 970f 2d40
000000b0: e952 2aaa 969e 3b40 0000 0000 0000 0000
000000c0: bec3 8bd5 e4dc 3240 0ea8 d49c c608 4140
000000d0: 0000 0000 0000 0000 8889 c4f0 b6bf 3640
000000e0: f34d 13d5 badf 4240 0000 0000 0000 0000
000000f0: 52e6 497d 5543 3b40 e554 49e0 d1bc 4540
00000100: 0000 0000 0000 0000 08d6 1323 af8a 3f40
00000110: ae7a c97b 6b1d 4a40 0000 0000 0000 0000
00000120: 3c8a 5c5b a95d 4240 dd76 b64c d53b 5040
00000130: 0000 0000 0000 0000 cda3 418d 033e 4640
00000140: f1ac 360d a2f4 5440 0000 0000 0000 0000
00000150: d38a b01b 3296 4c40 4eb5 ed6d 6007 5c40
00000160: 0000 0000 0000 0000 ac96 9996 daf6 5240
00000170: 4ad7 dcda 49d5 6240 0000 0000 0000 0000
00000180: 8ec5 29ca e0c0 5840 e906 f41d 9b08 6940
00000190: 0000 0000 0000 0000 c37e 740c b438 5f40
000001a0: 1305 1592 6248 7040 0000 0000 0000 0000
000001b0: 06a5 97d5 15bc 6240 a7cf 4768 998a 7440
000001c0: 0000 0000 0000 0000 66bf 34fd feea 6440
000001d0: ca6c c4f2 e1c7 7840 0000 0000 0000 0000
000001e0: b4a5 35dc af3b 6640 dd6f 46a8 93ee 7c40
000001f0: 0000 0000 0000 0000 f419 fecc dec0 6640
00000200: b038 8f5f 563b 8040 0000 0000 0000 0000
00000210: 9b46 61e3 c3b0 6640 31cb 9572 7a92 8140
00000220: 0000 0000 0000 0000 3323 8160 5788 6640
00000230: 935d e275 cc7e 8240 0000 0000 0000 0000
00000240: 95c2 9a01 28f4 6640 8586 0cb4 0613 8340
00000250: 0000 0000 0000 0000 776b 3480 7322 6840
00000260: 8592 4baa f278 8340 0000 0000 0000 0000
00000270: ac5d d185 bfff 6940 bd3b 8b16 24df 8340
00000280: 0000 0000 0000 0000 4bca b8e1 7bbc 6c40
00000290: 5794 2a17 7074 8440 0000 0000 0000 0000
000002a0: ecbd e90e 5a1e 7040 c8a9 977d a135 8540
000002b0: 0000 0000 0000 0000 7666 ff75 19ef 7140
000002c0: d33a c117 8df9 8540 0000 0000 0000 0000
000002d0: b01f 5231 b805 7440 e122 4535 1dba 8640
000002e0: 0000 0000 0000 0000 8ca8 4f40 761e 7640
000002f0: 1784 521e ee38 8740 0000 0000 0000 0000
00000300: 20ce c979 92fe 7740 7de9 6bc3 aa3d 8740
00000310: 0000 0000 0000 0000 1868 448b ccb4 7940
00000320: 7a27 0715 3cf0 8640 0000 0000 0000 0000
00000330: fc78 2933 0b50 7b40 0624 9421 2d6a 8640
00000340: 0000 0000 0000 0000 13ce 6d2a 8807 7d40
00000350: 14b3 8ff4 0cd8 8540 0000 0000 0000 0000
00000360: f7c7 6e91 fd17 7f40 070f 421e f678 8540
00000370: 0000 0000 0000 0000 23bc 3b42 dac5 8040
00000380: a046 f36a 225b 8540 0000 0000 0000 0000
00000390: c406 757c 4613 8240 87bd d858 2f55 8540
000003a0: 0000 0000 0000 0000 50dc 042a d634 8340
000003b0: 2b97 1395 1334 8540 0000 0000 0000 0000
000003c0: 3cf5 8df3 f41c 8440 f1b4 8a42 eccd 8440
000003d0: 0000 0000 0000 0000 121a 32de d79b 8440
000003e0: b72a 32a9 63fd 8340 0000 0000 0000 0000
000003f0: 25be 576a 8cab 8440 8457 f82c a6c3 8240
00000400: 0000 0000 0000 0000 74cd 0c24 3582 8440
00000410: 33ba cfd8 9b6a 8140 0000 0000 0000 0000
00000420: e923 7e81 5242 8440 09e1 a1e0 cf04 8040
00000430: 0000 0000 0000 0000 99ce ecc6 7210 8440
00000440: 9a5b cb8c d967 7d40 0000 0000 0000 0000
00000450: d05a c939 000a 8440 5c6f 6697 2c4d 7b40
00000460: 0000 0000 0000 0000 6e49 c450 223a 8440
00000470: 2ac8 4519 9a8f 7940 0000 0000 0000 0000
00000480: 8f65 9e3e fd7a 8440 ff23 3c18 0ef7 7740
00000490: 0000 0000 0000 0000 e767 7a99 fb9b 8440
000004a0: a281 9cee d45b 7640 0000 0000 0000 0000
000004b0: e0ce 4564 f38d 8440 09b8 909c c980 7440
000004c0: 0000 0000 0000 0000 9540 c5cd c62b 8440
000004d0: ba0d 6b4c e64f 7240 0000 0000 0000 0000
000004e0: bcca 716f a85f 8340 f7d8 8e2b b2a2 6f40
000004f0: 0000 0000 0000 0000 5994 36d2 6b63 8240
00000500: 41c0 983d c3b9 6a40 0000 0000 0000 0000
00000510: d815 5517 0054 8140 9c25 1095 ddae 6540
00000520: 0000 0000 0000 0000 51df abf4 f95e 8040
00000530: 54bf 129e 10db 6040 0000 0000 0000 0000
00000540: 0fb5 7902 e27a 7f40 4c01 bb13 368a 5940
00000550: 0000 0000 0000 0000 793b e61d 03c5 7e40
00000560: 7ebb 8a9c c94e 5240 0000 0000 0000 0000
00000570: 5362 1f3b 804c 7e40 b5cb 2e40 1535 4840
00000580: 0000 0000 0000 0000 a443 1636 8ec0 7d40
00000590: 65aa 975d c514 3c40 0000 0000 0000 0000
000005a0: c971 da64 8ae9 7c40 30d8 3c19 753e 2440
000005b0: 0000 0000 0000 0000 16f5 048c 80ab 7b40
000005c0: 6999 e2d4 d856 21c0 0000 0000 0000 0000
000005d0: 353a f0b5 3324 7a40 eade 4940 d50b 3bc0
000005e0: 0000 0000 0000 0000 8d55 994f 7fc5 7840
000005f0: 76c8 9082 0e63 46c0 0000 0000 0000 0000
00000600: 0f51 a8e5 e483 7740 55aa b903 ad20 4fc0
00000610: 0000 0000 0000 0000 e3cf 98a1 655f 7640
00000620: 0ba7 07f3 3dfe 52c0 0000 0000 0000 0000
00000630: 89e8 d07e 4373 7540 8bbd 176b 40ca 54c0
00000640: 0000 0000 0000 0000 92a9 f9ce 3359 7440
00000650: 4092 be4d 06a5 55c0 0000 0000 0000 0000
00000660: 180a ea3a edeb 7240 f715 ccf4 a527 56c0
00000670: 0000 0000 0000 0000 d3bd a4a5 6b38 7140
00000680: 2c52 4205 9970 57c0 0000 0000 0000 0000
00000690: a74d 0dc1 6eb1 6e40 a5ec 5807 e19e 5ac0
000006a0: 0000 0000 0000 0000 5577 9212 2407 6b40
000006b0: a2f1 6990 aca1 5fc0 0000 0000 0000 0000
000006c0: b82d 9829 89df 6740 d8f4 e115 3e7f 62c0
000006d0: 0000 0000 0000 0000 a838 b26e d3a6 6540
000006e0: 80c4 50af 3fa0 64c0 0000 0000 0000 0000
000006f0: 3fab e733 e0c7 6340 fde6 3cd4 1690 65c0
00000700: 0000 0000 0000 0000 97c7 1e4a c2db 6140
00000710: e312 0003 3720 65c0 0000 0000 0000 0000
00000720: 9030 0bd6 ca5d 5f40 54a0 2dab 129e 63c0
00000730: 0000 0000 0000 0000 670b 2f2a 86ce 5940
00000740: 8b4e 8ae2 75c2 61c0 0000 0000 0000 0000
00000750: d5d6 d6d9 7177 5340 da7b db22 7a02 60c0
00000760: 0000 0000 0000 0000 2e47 2d02 7a62 4a40
00000770: ab96 d7d8 6b4a 5dc0 0000 0000 0000 0000
00000780: 939b 255e 9fe3 3e40 3640 56b8 6139 5bc0
00000790: 0000 0000 0000 0000 78b9 2831 fd35 2b40
000007a0: b03d 6ffd 9d66 59c0 0000 0000 0000 0000
000007b0: d717 b39c 0662 fb3f 6e34 ab99 585f 57c0
000007c0: 0000 0000 0000 0000 3d40 a775 5df1 17c0
000007d0: eb6f 34ce db07 55c0 0000 0000 0000 0000
000007e0: 5a42 6c5f 7e8a 29c0 5904 bf35 94bc 52c0
000007f0: 0000 0000 0000 0000 b544 c6a6 78c5 32c0
