NeuroAI/Neural Embeddings Rank Aligning 3D latent dynamics with movements/NER/data_NER/Fig8/Type_ curve-up-down=[34, 18]_parameters_5000itr_lr0.0001.npz (npz, 560044 bytes, 7 tensors)

train_loss_stable f4 [5000]
5.9388857 5.938732 5.938399 5.9386497 5.93848 5.9386 5.938342 5.9381547
5.938267 5.9385576 5.9380827 5.9383526 5.9384403 5.9383774 5.9381723 5.938544
5.9379363 5.9378514 5.9385734 5.938092 5.9380126 5.938154 5.937546 5.9378633
5.937794 5.9378223 5.9383025 5.9371734 5.937406 5.938168 5.9369545 5.937455
5.937345 5.937255 5.9373116 5.936866 5.938691 5.936994 5.9364214 5.93674
5.9373536 5.937167 5.936264 5.936277 5.936208 5.936369 5.93598 5.936044
5.9359155 5.9363217 5.9353905 5.9351387 5.9350038 5.9353976 5.934798 5.9345245
5.9349623 5.934286 5.9342847 5.9341455 5.933596 5.932761 5.9334764 5.933323
5.9332714 5.9315205 5.9326296 5.9320593 5.9313097 5.93167 5.9319644 5.93007
5.930556 5.930277 5.9293623 5.9294715 5.9283304 5.9287653 5.9288507 5.9280715
5.9267135 5.926384 5.925313 5.927109 5.9248185 5.9243064 5.9221425 5.9234004
5.9215145 5.9206038 5.921054 5.91726 5.920688 5.916513 5.9140596 5.9120107
5.9092174 5.9087496 5.9099684 5.905971 5.9054875 5.901397 5.8935957 5.8935275
5.8937554 5.8879733 5.88233 5.874379 5.8744164 5.8720994 5.860596 5.8548613
5.851955 5.847624 5.84059 5.828182 5.8141146 5.818018 5.7958126 5.772614
5.7664127 5.755746 5.7501307 5.827064 5.8103027 5.7422686 5.7561836 5.7527165
5.7868767 5.7576776 5.7667913 5.7505383 5.760734 5.7669997 5.7643213 5.761618
5.7642097 5.751937 5.7647367 5.730744 5.7376666 5.74565 5.743494 5.7218304
5.730687 5.7266126 5.7453322 5.739764 5.7417874 5.72661 5.7607055 5.72043
5.740429 5.7249255 5.7469554 5.721359 5.747495 5.760352 5.732076 5.722475
5.7374473 5.721233 5.72995 5.7317824 5.7274084 5.724349 5.7053065 5.7551847
5.7230005 5.744964 5.731769 5.7091036 5.716421 5.7391524 5.720567 5.69725
5.7423763 5.718742 5.7370753 5.7406836 5.7218575 5.735946 5.7181573 5.740629
5.713854 5.71529 5.7049627 5.7315407 5.7156177 5.7175617 5.72931 5.6939735
5.6972446 5.7272425 5.729504 5.7071853 5.7313313 5.735212 5.7189527 5.693991
5.711869 5.700691 5.709851 5.7156696 5.7061644 5.730721 5.7339377 5.716874
5.687661 5.698059 5.706602 5.730939 5.71649 5.730418 5.7272673 5.7050366
5.694085 5.7126117 5.7152143 5.7174764 5.704561 5.689346 5.6984606 5.734897
5.725027 5.7112937 5.7044835 5.699059 5.7222786 5.681985 5.6793776 5.6945057
5.6937947 5.7199783 5.708649 5.7065287 5.689402 5.7139826 5.695892 5.7245502
5.6919174 5.7053943 5.682761 5.720808 5.6809835 5.7042093 5.711796 5.7178516
5.674974 5.7113786 5.703534 5.7097645 5.6811504 5.675438 5.6897717 5.6896877
00000000: 5a0b be40 180a be40 5d07 be40 6b09 be40
00000010: 0708 be40 0309 be40 e606 be40 5d05 be40
00000020: 4906 be40 aa08 be40 c604 be40 fc06 be40
00000030: b407 be40 3007 be40 8205 be40 8d08 be40
00000040: 9303 be40 e102 be40 cb08 be40 da04 be40
00000050: 3304 be40 5c05 be40 6000 be40 fa02 be40
00000060: 6902 be40 a402 be40 9306 be40 53fd bd40
00000070: 3bff bd40 7905 be40 88fb bd40 a2ff bd40
00000080: bbfe bd40 fefd bd40 75fe bd40 cefa bd40
00000090: c209 be40 dbfb bd40 2af7 bd40 c6f9 bd40
000000a0: cdfe bd40 46fd bd40 e0f5 bd40 fbf5 bd40
000000b0: 6af5 bd40 bcf6 bd40 8cf3 bd40 13f4 bd40
000000c0: 05f3 bd40 59f6 bd40 b8ee bd40 a8ec bd40
000000d0: 8deb bd40 c7ee bd40 dde9 bd40 a0e7 bd40
000000e0: 36eb bd40 ace5 bd40 a9e5 bd40 85e4 bd40
000000f0: 05e0 bd40 2ed9 bd40 0adf bd40 c8dd bd40
00000100: 5cdd bd40 04cf bd40 1ad8 bd40 6ed3 bd40
00000110: 4acd bd40 3ed0 bd40 a7d2 bd40 22c3 bd40
00000120: 1dc7 bd40 d4c4 bd40 56bd bd40 3bbe bd40
00000130: e2b4 bd40 72b8 bd40 25b9 bd40 c3b2 bd40
00000140: a3a7 bd40 f0a4 bd40 2a9c bd40 e0aa bd40
00000150: 1d98 bd40 eb93 bd40 3182 bd40 7f8c bd40
00000160: 0c7d bd40 9675 bd40 4679 bd40 325a bd40
00000170: 4776 bd40 1354 bd40 fa3f bd40 312f bd40
00000180: 4f18 bd40 7a14 bd40 761e bd40 b7fd bc40
00000190: c1f9 bc40 3fd8 bc40 5698 bc40 c797 bc40
000001a0: a599 bc40 476a bc40 0c3c bc40 eafa bb40
000001b0: 38fb bb40 3de8 bb40 018a bb40 065b bb40
000001c0: 3743 bb40 bc1f bb40 1de6 ba40 7880 ba40
000001d0: 3a0d ba40 342d ba40 4c77 b940 41b9 b840
000001e0: 7486 b840 122f b840 1201 b840 4f77 ba40
000001f0: 00ee b940 aac0 b740 a832 b840 4116 b840
00000200: 182e b940 e53e b840 8e89 b840 6904 b840
00000210: ef57 b840 438b b840 5275 b840 2d5f b840
00000220: 6874 b840 de0f b840 b978 b840 4162 b740
00000230: f79a b740 5ddc b740 b4ca b740 3c19 b740
00000240: ca61 b740 6940 b740 c3d9 b740 26ac b740
00000250: b9bc b740 6440 b740 b357 b840 c30d b740
00000260: 98b1 b740 9732 b740 0fe7 b740 5f15 b740
00000270: 7beb b740 ce54 b840 2b6d b740 841e b740
00000280: 2b99 b740 5714 b740 c05b b740 c36a b740
00000290: ee46 b740 de2d b740 df91 b640 792a b840
000002a0: d222 b740 bfd6 b740 a76a b740 fab0 b640
000002b0: ecec b640 23a7 b740 e30e b740 df4f b640
000002c0: 8cc1 b740 efff b640 1f96 b740 aeb3 b740
000002d0: 7519 b740 df8c b740 25fb b640 3cb3 b740
000002e0: e4d7 b640 a8e3 b640 0e8f b640 c868 b740
000002f0: 57e6 b640 44f6 b640 8256 b740 0835 b640
00000300: d44f b640 9245 b740 1958 b740 43a1 b640
00000310: 1167 b740 db86 b740 a901 b740 2d35 b640
00000320: a1c7 b640 106c b640 19b7 b640 c4e6 b640
00000330: e698 b640 1162 b740 6b7c b740 a2f0 b640
00000340: 5201 b640 8056 b640 7c9c b640 da63 b740
00000350: 7ced b640 965f b740 c645 b740 a98f b640
00000360: f235 b640 b7cd b640 09e3 b640 91f5 b640
00000370: c48b b640 1f0f b640 ca59 b640 4784 b740
00000380: 6c33 b740 ebc2 b640 218b b640 b15e b640
00000390: e81c b740 d2d2 b540 76bd b540 6439 b640
000003a0: 9133 b640 100a b740 41ad b640 e29b b640
000003b0: 950f b640 f2d8 b640 bf44 b640 842f b740
000003c0: 3024 b640 9792 b640 2ed9 b540 dc10 b740
000003d0: 9eca b540 e288 b640 08c7 b640 a4f8 b640
000003e0: 6399 b540 9dc3 b640 5a83 b640 64b6 b640
000003f0: fccb b540 309d b540 9c12 b640 ec11 b640

cebra_veldir_train f8 [6700, 3]
-0.6664959788322449 0.6663182973861694 0.33436959981918335 -0.6628852486610413 0.6681485772132874 0.33787664771080017 -0.6574576497077942 0.6707864999771118
0.3432125151157379 -0.6498156785964966 0.6743444204330444 0.3507123589515686 -0.6395636200904846 0.6789079904556274 0.36061394214630127 -0.6255170702934265
0.6847507953643799 0.3739582896232605 -0.6074720025062561 0.6917038559913635 0.39054280519485474 -0.5841467976570129 0.6997908353805542 0.4111754596233368
-0.553974986076355 0.7089170813560486 0.43651846051216125 -0.5149323344230652 0.7186751365661621 0.46727997064590454 -0.46644777059555054 0.7277764678001404
0.5027603507041931 -0.40079835057258606 0.7356780767440796 0.5460205674171448 -0.3182716965675354 0.7390009760856628 0.5937850475311279 -0.21267805993556976
0.7337803244590759 0.6452397704124451 -0.09031800180673599 0.7155929207801819 0.6926539540290833 0.04835950583219528 0.6802586317062378 0.7313750982284546
0.19561387598514557 0.6256052851676941 0.7552173733711243 0.3299142122268677 0.5593541860580444 0.7604469060897827 0.44940489530563354 0.48533639311790466
0.7499892115592957 0.5424385070800781 0.4155803620815277 0.7301050424575806 0.617842972278595 0.3491547703742981 0.7045289278030396 0.6685335636138916
0.29791152477264404 0.6814039945602417 0.7076442241668701 0.2536027133464813 0.6594887375831604 0.7349804043769836 0.2192469835281372 0.6416653990745544
0.7559713125228882 0.19024737179279327 0.626349151134491 0.7676763534545898 0.17186301946640015 0.6173622012138367 0.7746206521987915 0.15934927761554718
0.6120217442512512 0.7829062342643738 0.14432504773139954 0.6051677465438843 0.7884610891342163 0.1329185515642166 0.6005512475967407 0.7919087409973145
0.12427296489477158 0.5978601574897766 0.7973715662956238 0.11226432025432587 0.592954695224762 0.8019317984580994 0.10110867023468018 0.5887974500656128
0.8094897270202637 0.08473297953605652 0.5809877514839172 0.818577766418457 0.06482857465744019 0.5707255601882935 0.8289490938186646 0.04167995601892471
0.5577689409255981 0.8396304845809937 0.016481926664710045 0.5429080128669739 0.8519167304039001 -0.013888332061469555 0.5234930515289307 0.8656612038612366
-0.05085118114948273 0.4980410039424896 0.8787937164306641 -0.09145311266183853 0.4683566689491272 0.8897295594215393 -0.13212835788726807 0.4369477331638336
0.899109959602356 -0.17674914002418518 0.40045106410980225 0.9052087664604187 -0.22200700640678406 0.36236730217933655 0.9082542657852173 -0.2667279839515686
0.3223821222782135 0.9081178307533264 -0.3116285800933838 0.2796599268913269 0.9046663641929626 -0.35025396943092346 0.2426949292421341 0.8987985253334045
-0.38666772842407227 0.20651711523532867 0.8911982178688049 -0.4183060824871063 0.17545916140079498 0.880479633808136 -0.4527193009853363 0.14071540534496307
0.8700243234634399 -0.47988277673721313 0.11300566047430038 0.8580119013786316 -0.50579833984375 0.08935032039880753 0.8449024558067322 -0.5305504202842712
0.06823690235614777 0.8337100744247437 -0.5489858984947205 0.059514015913009644 0.8177239298820496 -0.5738097429275513 0.04549728333950043 0.8031383752822876
-0.5943166613578796 0.04190996289253235 0.7840541005134583 -0.6193720698356628 0.04046405479311943 0.7569330930709839 -0.6522308588027954 0.04058608412742615
0.7213752269744873 -0.6908887624740601 0.0478593148291111 0.6555349230766296 -0.7518271803855896 0.07092148810625076 0.5199217200279236 -0.8475627303123474
0.10639036446809769 0.18047618865966797 -0.9719100594520569 0.15106002986431122 -0.6163949966430664 -0.7657519578933716 0.18352407217025757 -0.9457456469535828
-0.3103356957435608 0.09621360898017883 -0.9972835183143616 -0.06829238682985306 0.0276014544069767 -0.9964232444763184 0.08421508967876434 0.0069718025624752045
-0.9851484894752502 0.17169712483882904 -0.001608612365089357 -0.9753490686416626 0.22031128406524658 -0.012534255161881447 -0.9663752317428589 0.2566208243370056
-0.016267644241452217 -0.9587755799293518 0.28353631496429443 -0.018881428986787796 -0.9509044289588928 0.30901962518692017 -0.01695961318910122 -0.9449639320373535
0.3267498314380646 -0.016665689647197723 -0.9370482563972473 0.34912145137786865 -0.007401606068015099 -0.929244875907898 0.3694547116756439 0.002669574460014701
-0.9216182231903076 0.387903094291687 0.01229165866971016 -0.9137182235717773 0.4057095944881439 0.022774063050746918 -0.9027162194252014 0.4283418357372284
0.04033379629254341 -0.8929921984672546 0.4466404616832733 0.05547216162085533 -0.8823928833007812 0.465006023645401 0.07177846133708954 -0.8719285726547241
0.48182275891304016 0.08710604906082153 -0.8604761362075806 0.49889516830444336 0.10336533188819885 -0.8495187759399414 0.5140767693519592 0.11850302666425705
-0.8379876613616943 0.5289576649665833 0.1340910643339157 -0.827357828617096 0.5418326258659363 0.14797426760196686 -0.8176933526992798 0.552966296672821
0.1600182205438614 -0.8086200952529907 0.5629344582557678 0.17099183797836304 -0.7997919321060181 0.5721749663352966 0.18151797354221344 -0.7926636934280396
00000000: 0000 0060 ef53 e5bf 0000 00c0 7a52 e53f
00000010: 0000 00c0 4f66 d53f 0000 0020 5b36 e5bf
00000020: 0000 0020 7961 e53f 0000 0060 c59f d53f
00000030: 0000 00a0 e409 e5bf 0000 0040 1577 e53f
00000040: 0000 00a0 31f7 d53f 0000 0040 4acb e4bf
00000050: 0000 00c0 3a94 e53f 0000 0040 1272 d63f
00000060: 0000 0020 4e77 e4bf 0000 0040 9db9 e53f
00000070: 0000 0080 4c14 d73f 0000 0060 3c04 e4bf
00000080: 0000 0080 7ae9 e53f 0000 00c0 eeee d73f
00000090: 0000 0020 6970 e3bf 0000 0020 7022 e63f
000000a0: 0000 0040 a7fe d83f 0000 00a0 54b1 e2bf
000000b0: 0000 00c0 af64 e63f 0000 00e0 b250 da3f
000000c0: 0000 00c0 29ba e1bf 0000 00e0 72af e63f
000000d0: 0000 0020 ebef db3f 0000 0060 537a e0bf
000000e0: 0000 0000 63ff e63f 0000 0040 eae7 dd3f
000000f0: 0000 00c0 47da ddbf 0000 00e0 f149 e73f
00000100: 0000 00e0 9c16 e03f 0000 0020 aea6 d9bf
00000110: 0000 00c0 ac8a e73f 0000 0020 0079 e13f
00000120: 0000 0040 905e d4bf 0000 0060 e5a5 e73f
00000130: 0000 0080 4900 e33f 0000 00e0 0839 cbbf
00000140: 0000 00e0 207b e73f 0000 00e0 cda5 e43f
00000150: 0000 00a0 141f b7bf 0000 0020 23e6 e63f
00000160: 0000 00a0 382a e63f 0000 00c0 93c2 a83f
00000170: 0000 00c0 adc4 e53f 0000 00c0 6c67 e73f
00000180: 0000 0020 e009 c93f 0000 0060 f504 e43f
00000190: 0000 00a0 bd2a e83f 0000 0080 501d d53f
000001a0: 0000 00c0 3ae6 e13f 0000 00c0 9455 e83f
000001b0: 0000 00c0 0cc3 dc3f 0000 0060 c00f df3f
000001c0: 0000 0060 e9ff e73f 0000 0000 a85b e13f
000001d0: 0000 0060 de98 da3f 0000 0040 055d e73f
000001e0: 0000 00a0 5ec5 e33f 0000 0040 8d58 d63f
000001f0: 0000 0040 808b e63f 0000 0080 a064 e53f
00000200: 0000 0080 fb10 d33f 0000 00c0 0fce e53f
00000210: 0000 0080 05a5 e63f 0000 00e0 063b d03f
00000220: 0000 0020 881a e53f 0000 00a0 f584 e73f
00000230: 0000 0000 4910 cc3f 0000 00e0 8588 e43f
00000240: 0000 00c0 ea30 e83f 0000 00a0 065a c83f
00000250: 0000 0060 0d0b e43f 0000 0000 ce90 e83f
00000260: 0000 0080 9bff c53f 0000 0060 6ec1 e33f
00000270: 0000 0040 b1c9 e83f 0000 00a0 8e65 c43f
00000280: 0000 00a0 ae95 e33f 0000 0060 910d e93f
00000290: 0000 0040 3e79 c23f 0000 00c0 885d e33f
000002a0: 0000 00c0 123b e93f 0000 00a0 7903 c13f
000002b0: 0000 0040 b737 e33f 0000 0000 5157 e93f
000002c0: 0000 0060 5ad0 bf3f 0000 00a0 ab21 e33f
000002d0: 0000 0060 1184 e93f 0000 00c0 5abd bc3f
000002e0: 0000 0020 7cf9 e23f 0000 00e0 6ca9 e93f
000002f0: 0000 0000 42e2 b93f 0000 00c0 6dd7 e23f
00000300: 0000 0000 57e7 e93f 0000 0080 0fb1 b53f
00000310: 0000 00a0 7397 e23f 0000 0000 ca31 ea3f
00000320: 0000 0000 9b98 b03f 0000 0040 6243 e23f
00000330: 0000 0040 c086 ea3f 0000 0040 1357 a53f
00000340: 0000 0040 3ed9 e13f 0000 00c0 40de ea3f
00000350: 0000 0060 a3e0 903f 0000 00a0 805f e13f
00000360: 0000 00e0 e642 eb3f 0000 0060 7c71 8cbf
00000370: 0000 0080 74c0 e03f 0000 0020 7fb3 eb3f
00000380: 0000 0080 2a09 aabf 0000 0060 e7df df3f
00000390: 0000 0000 141f ec3f 0000 00a0 7869 b7bf
000003a0: 0000 0040 8ef9 dd3f 0000 0020 aa78 ec3f
000003b0: 0000 0000 95e9 c0bf 0000 00a0 f3f6 db3f
000003c0: 0000 0040 82c5 ec3f 0000 0040 b79f c6bf
000003d0: 0000 0080 fda0 d93f 0000 0060 78f7 ec3f
000003e0: 0000 00c0 b96a ccbf 0000 00a0 0631 d73f
000003f0: 0000 0040 6b10 ed3f 0000 0040 1212 d1bf
00000400: 0000 00a0 e8a1 d43f 0000 0020 4d0f ed3f
00000410: 0000 0000 b9f1 d3bf 0000 00c0 f2e5 d13f
00000420: 0000 00e0 06f3 ec3f 0000 00a0 8f6a d6bf
00000430: 0000 00a0 a010 cf3f 0000 0020 f5c2 ec3f
00000440: 0000 0000 2abf d8bf 0000 0020 276f ca3f
00000450: 0000 0020 b284 ec3f 0000 00e0 86c5 dabf
00000460: 0000 0020 7275 c63f 0000 00a0 e32c ec3f
00000470: 0000 0060 5af9 dcbf 0000 0060 f602 c23f
00000480: 0000 0040 3dd7 eb3f 0000 0040 66b6 debf
00000490: 0000 0060 f0ed bc3f 0000 0060 d574 eb3f
000004a0: 0000 0000 802f e0bf 0000 00a0 a9df b63f
000004b0: 0000 00e0 7009 eb3f 0000 00e0 44fa e0bf
000004c0: 0000 0040 f977 b13f 0000 00c0 c0ad ea3f
000004d0: 0000 00e0 4a91 e1bf 0000 0000 9f78 ae3f
000004e0: 0000 0060 cb2a ea3f 0000 0040 a65c e2bf
000004f0: 0000 0080 6b4b a73f 0000 0040 4fb3 e93f
00000500: 0000 0060 a404 e3bf 0000 0000 3975 a53f
00000510: 0000 00a0 f816 e93f 0000 0060 e5d1 e3bf
00000520: 0000 0060 b4b7 a43f 0000 00c0 cb38 e83f
00000530: 0000 0040 13df e4bf 0000 0000 b3c7 a43f
00000540: 0000 0080 8115 e73f 0000 00c0 c21b e6bf
00000550: 0000 0020 0481 a83f 0000 0060 24fa e43f
00000560: 0000 00e0 f70e e8bf 0000 0020 e927 b23f
00000570: 0000 00e0 32a3 e03f 0000 00e0 3b1f ebbf
00000580: 0000 0020 663c bb3f 0000 0000 d819 c73f
00000590: 0000 0020 e319 efbf 0000 0060 ef55 c33f
000005a0: 0000 0000 82b9 e3bf 0000 0040 0a81 e8bf
000005b0: 0000 0080 b77d c73f 0000 0060 8c43 eebf
000005c0: 0000 0040 8adc d3bf 0000 0080 74a1 b83f
000005d0: 0000 0020 bfe9 efbf 0000 0020 9c7b b1bf
000005e0: 0000 0040 8e43 9c3f 0000 0000 b3e2 efbf
000005f0: 0000 00c0 1e8f b53f 0000 0000 778e 7c3f
00000600: 0000 0020 5686 efbf 0000 00e0 2bfa c53f
00000610: 0000 0060 025b 5abf 0000 0040 0f36 efbf
00000620: 0000 0000 2933 cc3f 0000 0040 8fab 89bf
00000630: 0000 00c0 8bec eebf 0000 00c0 796c d03f
00000640: 0000 0020 77a8 90bf 0000 0020 4aae eebf
00000650: 0000 0080 7525 d23f 0000 0040 a755 93bf
00000660: 0000 0020 cf6d eebf 0000 0040 fac6 d33f
00000670: 0000 0060 dc5d 91bf 0000 0000 253d eebf
00000680: 0000 0020 78e9 d43f 0000 0080 cf10 91bf
00000690: 0000 00a0 4cfc edbf 0000 0080 0158 d63f
000006a0: 0000 0080 2551 7ebf 0000 00c0 5fbc edbf
000006b0: 0000 0060 25a5 d73f 0000 00e0 80de 653f
000006c0: 0000 0080 e57d edbf 0000 0080 67d3 d83f
000006d0: 0000 0080 5e2c 893f 0000 0000 2e3d edbf
000006e0: 0000 0060 25f7 d93f 0000 0080 1552 973f
000006f0: 0000 0020 0de3 ecbf 0000 00e0 f369 db3f
00000700: 0000 00a0 a1a6 a43f 0000 0060 6493 ecbf
00000710: 0000 00e0 c195 dc3f 0000 00e0 d866 ac3f
00000720: 0000 0000 903c ecbf 0000 00a0 a8c2 dd3f
00000730: 0000 00c0 1260 b23f 0000 00c0 d6e6 ebbf
00000740: 0000 0020 2fd6 de3f 0000 0000 954c b63f
00000750: 0000 0040 0589 ebbf 0000 0000 e6ed df3f
00000760: 0000 0080 2676 ba3f 0000 0000 422f ebbf
00000770: 0000 0020 5173 e03f 0000 00e0 3656 be3f
00000780: 0000 0080 cbd0 eabf 0000 00a0 38ed e03f
00000790: 0000 0060 e529 c13f 0000 0020 b779 eabf
000007a0: 0000 0060 b156 e13f 0000 0020 d2f0 c23f
000007b0: 0000 0040 8b2a eabf 0000 0060 e6b1 e13f
000007c0: 0000 0020 7a7b c43f 0000 0040 37e0 e9bf
000007d0: 0000 0020 8f03 e23f 0000 0080 0fe3 c53f
000007e0: 0000 0040 e597 e9bf 0000 00e0 414f e23f
000007f0: 0000 0020 fb3b c73f 0000 0040 805d e9bf

cebra_veldir_test f8 [1700, 3]
0.26967018842697144 0.6014225482940674 0.7520431876182556 0.22227394580841064 0.6239981055259705 0.7491466403007507 0.17907777428627014 0.6428842544555664
0.744735598564148 0.1377149224281311 0.6595339179039001 0.7389516830444336 0.10371002554893494 0.6721726655960083 0.7330949306488037 0.07041621953248978
0.6836772561073303 0.72637939453125 0.038995254784822464 0.6937809586524963 0.7191296219825745 0.011829306371510029 0.7019015550613403 0.712175726890564
-0.013249301351606846 0.7090599536895752 0.7050237059593201 -0.02983526885509491 0.7138228416442871 0.6996904611587524 -0.04339631646871567 0.7179377675056458
0.6947533488273621 -0.05824745446443558 0.7225654721260071 0.6888442635536194 -0.06835750490427017 0.7267009615898132 0.683544397354126 -0.06102042272686958
0.7288058400154114 0.6819960474967957 -0.050791945308446884 0.734101414680481 0.677137553691864 0.07299448549747467 0.7290493249893188 0.6805577874183655
0.7534728646278381 -0.5178502202033997 -0.40510469675064087 0.312560111284256 -0.7121766209602356 -0.628578245639801 0.2651228904724121 -0.7239168882369995
-0.6369099020957947 0.24514108896255493 -0.7276851534843445 -0.6406092643737793 0.24542836844921112 -0.7302062511444092 -0.6376234889030457 0.2478199303150177
-0.7318232655525208 -0.6348386406898499 0.2555215358734131 -0.7329970598220825 -0.6304157972335815 0.26806721091270447 -0.7343076467514038 -0.6236442923545837
0.281087726354599 -0.7351108193397522 -0.616929292678833 0.2958195209503174 -0.7356213331222534 -0.6093866229057312 0.3103460371494293 -0.7359161972999573
-0.6017580032348633 0.32725879549980164 -0.7359453439712524 -0.5926939249038696 0.3477407991886139 -0.7355826497077942 -0.5813729166984558 0.36882176995277405
-0.734725832939148 -0.5693404078483582 0.38719040155410767 -0.7335392236709595 -0.5585730075836182 0.410592257976532 -0.7314782738685608 -0.5443836450576782
0.4331807494163513 -0.7288131713867188 -0.5302695631980896 0.45373332500457764 -0.7259393930435181 -0.5168539881706238 0.4762330651283264 -0.7222299575805664
-0.501583456993103 0.49861037731170654 -0.7180165648460388 -0.4856335520744324 0.5143111348152161 -0.7145010232925415 -0.4743124544620514 0.532115638256073
-0.7102938890457153 -0.46079888939857483 0.5503187775611877 -0.7055099010467529 -0.44654786586761475 0.5659298300743103 -0.7011036276817322 -0.4337938725948334
0.580466628074646 -0.6966035962104797 -0.42166557908058167 0.5975248217582703 -0.6909458637237549 -0.4068880081176758 0.6112539172172546 -0.6860829591751099
-0.3945361375808716 0.6258049011230469 -0.6805042624473572 -0.38115885853767395 0.644634485244751 -0.6727936267852783 -0.3630360960960388 0.6629029512405396
-0.6645219326019287 -0.34492069482803345 0.6909534931182861 -0.6503214836120605 -0.3156980574131012 0.7440520524978638 -0.6181643009185791 -0.253493994474411
0.8587529063224792 -0.506657600402832 -0.07643003761768341 0.7155863642692566 0.2606850862503052 0.6480582356452942 -0.1614949107170105 0.7248912453651428
0.6696655750274658 -0.3743441104888916 0.7337727546691895 0.5669604539871216 -0.44175341725349426 0.7276155948638916 0.524813711643219 -0.47784557938575745
0.7222753167152405 0.49998199939727783 -0.4978276193141937 0.718429684638977 0.4858255684375763 -0.5091712474822998 0.7160998582839966 0.47743648290634155
-0.5166372656822205 0.7144637107849121 0.47183412313461304 -0.5210438370704651 0.7134101390838623 0.46857166290283203 -0.5243892073631287 0.7125422358512878
0.4661538898944855 -0.527122974395752 0.7118239402770996 0.46416381001472473 -0.5279890894889832 0.7114523649215698 0.46374884247779846 -0.529645562171936
0.7109085321426392 0.4626929759979248 -0.5316390991210938 0.7102102637290955 0.4614773094654083 -0.5329180955886841 0.7096152901649475 0.46091681718826294
-0.535068690776825 0.7088095545768738 0.4596634805202484 -0.5371074676513672 0.7079399228096008 0.4586247503757477 -0.5397627353668213 0.7068822383880615
0.45713648200035095 -0.5450524091720581 0.7051451802253723 0.4535285234451294 -0.5512313842773438 0.7030611634254456 0.449275940656662 -0.5576285719871521
0.700827956199646 0.44484883546829224 -0.5649512410163879 0.6982817053794861 0.43958258628845215 -0.5750134587287903 0.6947757005691528 0.4320257902145386
-0.5860968232154846 0.6907713413238525 0.42346835136413574 -0.5990224480628967 0.685994565486908 0.41301754117012024 -0.6136595010757446 0.6803503036499023
0.4006812870502472 -0.6297325491905212 0.6737934350967407 0.38657379150390625 -0.6463948488235474 0.666544497013092 0.37133824825286865 -0.6630171537399292
0.6588327288627625 0.3554542362689972 -0.6798370480537415 0.650553286075592 0.33852919936180115 -0.6963295936584473 0.6418806910514832 0.3211142122745514
-0.7123595476150513 0.6329228281974792 0.30323687195777893 -0.7268757224082947 0.6243031620979309 0.2861771583557129 -0.7380775213241577 0.6172775030136108
0.2724152207374573 -0.7491312026977539 0.6101229786872864 0.2579777240753174 -0.75705486536026 0.6048015356063843 0.24714970588684082 -0.7629662156105042
00000000: 0000 00c0 4642 d13f 0000 0080 da3e e33f
00000010: 0000 00e0 bc10 e83f 0000 0000 7973 cc3f
00000020: 0000 00e0 caf7 e33f 0000 0060 02f9 e73f
00000030: 0000 0040 05ec c63f 0000 0000 8292 e43f
00000040: 0000 00c0 dfd4 e73f 0000 0080 a4a0 c13f
00000050: 0000 00e0 e61a e53f 0000 0000 7ea5 e73f
00000060: 0000 0080 bd8c ba3f 0000 0040 7082 e53f
00000070: 0000 0080 8375 e73f 0000 0020 cc06 b23f
00000080: 0000 0020 afe0 e53f 0000 0000 803e e73f
00000090: 0000 00a0 2ff7 a33f 0000 0020 7433 e63f
000000a0: 0000 0020 1c03 e73f 0000 00a0 f639 883f
000000b0: 0000 0040 fa75 e63f 0000 00c0 24ca e63f
000000c0: 0000 0020 7322 8bbf 0000 0080 9eb0 e63f
000000d0: 0000 00e0 8d8f e63f 0000 0000 238d 9ebf
000000e0: 0000 0000 a3d7 e63f 0000 0040 dd63 e63f
000000f0: 0000 00c0 0a38 a6bf 0000 00a0 58f9 e63f
00000100: 0000 0060 6b3b e63f 0000 0040 9cd2 adbf
00000110: 0000 00a0 411f e73f 0000 0020 030b e63f
00000120: 0000 00a0 e07f b1bf 0000 0060 2241 e73f
00000130: 0000 0080 98df e53f 0000 00a0 113e afbf
00000140: 0000 00a0 6052 e73f 0000 0060 e9d2 e53f
00000150: 0000 00e0 6601 aabf 0000 0040 c27d e73f
00000160: 0000 0060 1cab e53f 0000 0040 c4af b23f
00000170: 0000 0040 5f54 e73f 0000 0020 21c7 e53f
00000180: 0000 0020 731c e83f 0000 00a0 3a92 e0bf
00000190: 0000 0040 3ced d9bf 0000 0020 fc00 d43f
000001a0: 0000 00a0 26ca e6bf 0000 0020 501d e4bf
000001b0: 0000 0000 c6f7 d03f 0000 00c0 532a e7bf
000001c0: 0000 00e0 9061 e4bf 0000 0080 c860 cf3f
000001d0: 0000 0060 3249 e7bf 0000 0000 df7f e4bf
000001e0: 0000 0060 326a cf3f 0000 0080 d95d e7bf
000001f0: 0000 0060 6967 e4bf 0000 0040 90b8 cf3f
00000200: 0000 00a0 186b e7bf 0000 0020 9950 e4bf
00000210: 0000 0000 775a d03f 0000 0040 b674 e7bf
00000220: 0000 00c0 5d2c e4bf 0000 0060 0328 d13f
00000230: 0000 00c0 727f e7bf 0000 00e0 e4f4 e3bf
00000240: 0000 0060 57fd d13f 0000 0020 0786 e7bf
00000250: 0000 0080 e2bd e3bf 0000 0000 b5ee d23f
00000260: 0000 00c0 358a e7bf 0000 0060 1880 e3bf
00000270: 0000 00a0 b5dc d33f 0000 0020 a08c e7bf
00000280: 0000 0000 9a41 e3bf 0000 00e0 cef1 d43f
00000290: 0000 0040 dd8c e7bf 0000 0040 59f7 e2bf
000002a0: 0000 00a0 6241 d63f 0000 00a0 e489 e7bf
000002b0: 0000 0060 9b9a e2bf 0000 00a0 c69a d73f
000002c0: 0000 00c0 df82 e7bf 0000 0060 0938 e2bf
000002d0: 0000 0040 bac7 d83f 0000 0040 2779 e7bf
000002e0: 0000 0080 d4df e1bf 0000 00c0 2447 da3f
000002f0: 0000 0020 4568 e7bf 0000 0040 976b e1bf
00000300: 0000 00c0 3bb9 db3f 0000 0000 7052 e7bf
00000310: 0000 00e0 f7f7 e0bf 0000 0080 f709 dd3f
00000320: 0000 0040 e53a e7bf 0000 0060 118a e0bf
00000330: 0000 0040 9a7a de3f 0000 0000 821c e7bf
00000340: 0000 00c0 f80c e0bf 0000 0080 3be9 df3f
00000350: 0000 00e0 fdf9 e6bf 0000 00c0 9e14 dfbf
00000360: 0000 00a0 3c75 e03f 0000 0040 31dd e6bf
00000370: 0000 00a0 225b debf 0000 0060 1707 e13f
00000380: 0000 0040 baba e6bf 0000 00a0 ba7d ddbf
00000390: 0000 0020 369c e13f 0000 0080 8993 e6bf
000003a0: 0000 0080 3d94 dcbf 0000 00e0 181c e23f
000003b0: 0000 00e0 706f e6bf 0000 0060 47c3 dbbf
000003c0: 0000 00c0 2e93 e23f 0000 00a0 934a e6bf
000003d0: 0000 00a0 91fc dabf 0000 0060 ec1e e33f
000003e0: 0000 0080 3a1c e6bf 0000 0000 740a dabf
000003f0: 0000 0060 648f e33f 0000 0040 64f4 e5bf
00000400: 0000 0080 1440 d9bf 0000 0000 9806 e43f
00000410: 0000 00e0 b0c6 e5bf 0000 0020 e864 d8bf
00000420: 0000 0080 d8a0 e43f 0000 0080 8687 e5bf
00000430: 0000 00c0 fb3b d7bf 0000 0040 8036 e53f
00000440: 0000 0080 c343 e5bf 0000 0040 2e13 d6bf
00000450: 0000 0080 4a1c e63f 0000 0000 6fcf e4bf
00000460: 0000 00a0 6534 d4bf 0000 0040 46cf e73f
00000470: 0000 0080 00c8 e3bf 0000 00e0 3e39 d0bf
00000480: 0000 0060 e77a eb3f 0000 0000 8a36 e0bf
00000490: 0000 0040 eb90 b3bf 0000 0060 15e6 e63f
000004a0: 0000 0080 10af d03f 0000 00a0 e4bc e43f
000004b0: 0000 0080 ddab c4bf 0000 0020 4f32 e73f
000004c0: 0000 0080 e66d e53f 0000 0000 41f5 d7bf
000004d0: 0000 0000 117b e73f 0000 0040 8a24 e23f
000004e0: 0000 0020 b045 dcbf 0000 0080 a048 e73f
000004f0: 0000 0020 46cb e03f 0000 00a0 0595 debf
00000500: 0000 0020 e11c e73f 0000 0080 b4ff df3f
00000510: 0000 0060 68dc dfbf 0000 0040 60fd e63f
00000520: 0000 0020 c417 df3f 0000 0080 214b e0bf
00000530: 0000 0040 4aea e63f 0000 00c0 518e de3f
00000540: 0000 00e0 4a88 e0bf 0000 0000 e3dc e63f
00000550: 0000 00c0 8732 de3f 0000 0020 64ac e0bf
00000560: 0000 0080 41d4 e63f 0000 0000 14fd dd3f
00000570: 0000 00e0 cbc7 e0bf 0000 0060 25cd e63f
00000580: 0000 0020 77d5 dd3f 0000 0000 31de e0bf
00000590: 0000 0000 43c7 e63f 0000 0020 dcb4 dd3f
000005a0: 0000 0060 49e5 e0bf 0000 00c0 37c4 e63f
000005b0: 0000 00a0 0fae dd3f 0000 0040 dbf2 e0bf
000005c0: 0000 0040 c3bf e63f 0000 0000 c39c dd3f
000005d0: 0000 0000 3003 e1bf 0000 00e0 0aba e63f
000005e0: 0000 0020 d888 dd3f 0000 0040 aa0d e1bf
000005f0: 0000 0020 2bb5 e63f 0000 0040 a97f dd3f
00000600: 0000 0060 481f e1bf 0000 0060 91ae e63f
00000610: 0000 0060 206b dd3f 0000 0000 fc2f e1bf
00000620: 0000 00a0 71a7 e63f 0000 00a0 1b5a dd3f
00000630: 0000 0080 bc45 e1bf 0000 0080 c79e e63f
00000640: 0000 0060 b941 dd3f 0000 00c0 1171 e1bf
00000650: 0000 00a0 8c90 e63f 0000 0080 9c06 dd3f
00000660: 0000 0000 b0a3 e1bf 0000 0020 7a7f e63f
00000670: 0000 00e0 efc0 dc3f 0000 00e0 17d8 e1bf
00000680: 0000 00c0 2e6d e63f 0000 0040 6778 dc3f
00000690: 0000 00a0 1414 e2bf 0000 00e0 5258 e63f
000006a0: 0000 0000 1f22 dc3f 0000 00a0 8266 e2bf
000006b0: 0000 0040 9a3b e63f 0000 0080 4fa6 db3f
000006c0: 0000 0020 4ec1 e2bf 0000 0080 cc1a e63f
000006d0: 0000 0000 1b1a db3f 0000 0020 312b e3bf
000006e0: 0000 00e0 aaf3 e53f 0000 0020 e16e da3f
000006f0: 0000 0040 19a3 e3bf 0000 0000 6ec5 e53f
00000700: 0000 0020 c3a4 d93f 0000 00e0 c426 e4bf
00000710: 0000 0040 b78f e53f 0000 0000 a0bd d83f
00000720: 0000 0040 44af e4bf 0000 0020 5554 e53f
00000730: 0000 0080 01c4 d73f 0000 00c0 6f37 e5bf
00000740: 0000 0060 2815 e53f 0000 0020 c3bf d63f
00000750: 0000 00a0 39c1 e5bf 0000 0020 55d1 e43f
00000760: 0000 0060 76aa d53f 0000 0000 5548 e6bf
00000770: 0000 0060 498a e43f 0000 00a0 228d d43f
00000780: 0000 0040 a6cb e6bf 0000 0060 e740 e43f
00000790: 0000 00a0 3b68 d33f 0000 00e0 9042 e7bf
000007a0: 0000 00a0 4afa e33f 0000 0000 ba50 d23f
000007b0: 0000 00c0 549e e7bf 0000 00c0 bcc0 e33f
000007c0: 0000 0040 406f d13f 0000 0000 e2f8 e7bf
000007d0: 0000 00a0 2086 e33f 0000 0000 b582 d03f
000007e0: 0000 0020 cb39 e8bf 0000 00c0 885a e33f
000007f0: 0000 0000 9aa2 cf3f 0000 0020 386a e8bf

continuous_index_train f8 [6700, 3]
-1.3444578348857992 -5.860418751765019 0.0 -2.542635756425132 -5.485165773219385 0.0 -2.0051049120617606 -1.1923660735711759
0.0 -0.4670463103002687 4.190162476704639 0.0 0.3812781943434983 7.9479940217161005 0.0 2.9776581040841137
9.572753910466826 0.0 7.875759083728541 9.895030829140131 0.0 13.098456756903602 9.910598272161097 0.0
18.901157447886625 11.350679451156209 0.0 25.090846191252666 14.80918090607686 0.0 29.831156682089848 19.638066314735628
0.0 33.88722879532 25.870617428145827 0.0 42.16418008127964 33.21389802229658 0.0 57.72053645623771
42.982611330418 0.0 83.97268222490219 56.73603383648751 0.0 124.21106182744086 73.86309089314231 0.0
172.15826435398637 91.86826009229945 0.0 222.47291879678772 110.1052565386465 0.0 268.20936160838363 125.9372215538605
0.0 308.0117254733107 137.98251526610355 0.0 339.458784742031 145.82458735573755 0.0 370.5460448904372
149.3755407810314 0.0 403.82721887460445 146.6321188894507 0.0 436.8689867080012 136.98619718917342 0.0
466.59837873349505 120.2128039391651 0.0 487.7434877240232 97.02463091821052 0.0 499.8797537415513 70.30796534421613
0.0 505.23321809520934 43.83629864908772 0.0 513.4059748099471 21.0463673181879 0.0 529.3500934783939
2.5527172866545778 0.0 552.1511937034389 -13.06082309036404 0.0 576.6616174975479 -27.26704969762442 0.0
598.2200221834113 -42.498360246891984 0.0 607.7109729539686 -58.95803201505243 0.0 607.7366369801817 -76.0755566196
0.0 605.4556227807844 -93.58309938226874 0.0 602.9497641536424 -109.4221195529096 0.0 603.019118308966
-122.60177176075503 0.0 606.6957886204186 -133.82341182016833 0.0 608.0866479991578 -145.1713347282552 0.0
608.6285792633445 -155.5859025510211 0.0 609.7192379721819 -166.14530455650063 0.0 613.8669884726316 -178.625383993967
0.0 616.6498179246458 -191.19178249939677 0.0 617.7779790781144 -203.03773785849467 0.0 613.9720371265355
-215.47960736425006 0.0 597.1571736362828 -225.56019487890777 0.0 574.127470277024 -233.14363887749084 0.0
546.7753768423756 -238.79632322480234 0.0 520.7878991036283 -243.25246514722102 0.0 499.4020230877804 -248.19117108063173
0.0 484.75964762003457 -256.01347612376685 0.0 473.31113688552927 -268.7581190924871 0.0 462.774495664806
-284.28480452924396 0.0 450.174237392123 -300.4821801733148 0.0 433.6800222829065 -314.57637723387955 0.0
409.9271827468711 -321.21954273625283 0.0 381.5103450029872 -318.5209841083075 0.0 351.3477592496218 -309.1826385918537
0.0 317.971392104623 -296.3183255675913 0.0 287.41507428784996 -285.26484351968094 0.0 261.59674781297923
-279.5862775163864 0.0 239.29611862489594 -280.5630082933975 0.0 219.65279455056123 -284.41892208078144 0.0
200.7950329664859 -288.11161261862014 0.0 179.69434881706303 -290.44224985981646 0.0 155.54318222004386 -288.5693746119259
0.0 130.0038702656532 -284.5442510013649 0.0 105.78640993325403 -281.6349833767131 0.0 81.65896033115892
-279.9404360675295 0.0 61.93209205631226 -282.3702615241399 0.0 46.537745363856885 -289.4117336815045 0.0
32.68258123076206 -298.9574331078531 0.0 20.361171026246538 -308.25464072156177 0.0 8.815840525284042 -314.6906660532198
0.0 -3.577350752996024 -315.7178071556031 0.0 -15.024757905919595 -308.6580200827665 0.0 -23.389288387405585
-295.2430525541253 0.0 -28.309139661950294 -278.70321756812046 0.0 -32.226493426657704 -261.10661271914995 0.0
-35.09892591048779 -245.97031696181193 0.0 -39.25532390157778 -234.50670698027474 0.0 -46.19641163543105 -225.08694052624898
0.0 -55.02379301322894 -215.07181276865498 0.0 -65.13619553857419 -203.3759945548417 0.0 -76.25845416575655
00000000: b5f7 fa37 e682 f5bf 9ac8 fe9c 1171 17c0
00000010: 0000 0000 0000 0000 aae3 5b6a 5157 04c0
00000020: 9776 e44b cff0 15c0 0000 0000 0000 0000
00000030: 70d5 b271 740a 00c0 f191 ad72 ee13 f3bf
00000040: 0000 0000 0000 0000 7d41 1d35 16e4 ddbf
00000050: bc7d c9f3 b9c2 1040 0000 0000 0000 0000
00000060: 4a87 d8a7 dc66 d83f f24b e0f1 beca 1f40
00000070: 0000 0000 0000 0000 60af 7d69 3ed2 0740
00000080: e638 2400 4025 2340 0000 0000 0000 0000
00000090: f227 3ffd c680 1f40 2323 187b 41ca 2340
000000a0: 0000 0000 0000 0000 40f1 8dec 6832 2a40
000000b0: b973 cdef 39d2 2340 0000 0000 0000 0000
000000c0: 4a38 2741 b2e6 3240 b730 cc41 8cb3 2640
000000d0: 0000 0000 0000 0000 7865 2cb2 4117 3940
000000e0: a74b b0f5 4c9e 2d40 0000 0000 0000 0000
000000f0: 826d 2faf c6d4 3d40 0178 6250 58a3 3340
00000100: 0000 0000 0000 0000 04fc 91b6 90f1 4040
00000110: c636 a5c8 e0de 3940 0000 0000 0000 0000
00000120: 16e0 57da 0315 4540 b138 a902 619b 4040
00000130: 0000 0000 0000 0000 f08e e189 3adc 4c40
00000140: 8569 4435 c67d 4540 0000 0000 0000 0000
00000150: bf56 f26c 40fe 5440 4c3b 545b 365e 4c40
00000160: 0000 0000 0000 0000 b892 7709 820d 5f40
00000170: 63e1 95e1 3c77 5240 0000 0000 0000 0000
00000180: cf0f 6880 1085 6540 4736 c792 91f7 5640
00000190: 0000 0000 0000 0000 bebb 9926 22cf 6b40
000001a0: 52cb eb85 bc86 5b40 0000 0000 0000 0000
000001b0: bbd0 8e8b 59c3 7040 fabb 1c70 fb7b 5f40
000001c0: 0000 0000 0000 0000 65c6 0c07 3040 7340
000001d0: 89f7 dac3 703f 6140 0000 0000 0000 0000
000001e0: d56e ab2e 5737 7540 d0b2 0505 633a 6240
000001f0: 0000 0000 0000 0000 3629 9199 bc28 7740
00000200: 039b 196e 04ac 6240 0000 0000 0000 0000
00000210: f6d0 db49 3c3d 7940 fdab 6451 3a54 6240
00000220: 0000 0000 0000 0000 6238 9b5e e74d 7b40
00000230: 065d 68ed 8e1f 6140 0000 0000 0000 0000
00000240: bb2f 94f5 9229 7d40 24cb 6994 9e0d 5e40
00000250: 0000 0000 0000 0000 843a 6253 e57b 7e40
00000260: d10b 8f8d 9341 5840 0000 0000 0000 0000
00000270: f2c7 a878 133e 7f40 6b6d 46b4 b593 5140
00000280: 0000 0000 0000 0000 27bc e542 bb93 7f40
00000290: a8c2 89d5 0beb 4540 0000 0000 0000 0000
000002a0: c89d b86f 3f0b 8040 6338 83ba de0b 3540
000002b0: 0000 0000 0000 0000 f541 cffd cc8a 8040
000002c0: 12ec 700a f76b 0440 0000 0000 0000 0000
000002d0: 0d5d 0ba5 3541 8140 11e9 3f34 241f 2ac0
000002e0: 0000 0000 0000 0000 7053 1dfe 4a05 8240
000002f0: 1db4 755e 5d44 3bc0 0000 0000 0000 0000
00000300: 2b91 fd9a c2b1 8240 8703 c144 ca3f 45c0
00000310: 0000 0000 0000 0000 168d 9612 b0fd 8240
00000320: e995 06cb a07a 4dc0 0000 0000 0000 0000
00000330: 3dd7 eda1 e4fd 8240 698b 6eeb d504 53c0
00000340: 0000 0000 0000 0000 4176 8e1d a5eb 8240
00000350: 5f4a 1280 5165 57c0 0000 0000 0000 0000
00000360: 75d6 f21d 99d7 8240 eeaf ba01 045b 5bc0
00000370: 0000 0000 0000 0000 1cfe 7f27 27d8 8240
00000380: 5906 b46d 83a6 5ec0 0000 0000 0000 0000
00000390: 04cd 9ff9 90f5 8240 69d8 be63 59ba 60c0
000003a0: 0000 0000 0000 0000 2c95 8174 b100 8340
000003b0: ced0 f792 7b25 62c0 0000 0000 0000 0000
000003c0: 1198 9054 0705 8340 eae8 b4b6 bf72 63c0
000003d0: 0000 0000 0000 0000 8084 d6ff c00d 8340
000003e0: 29c4 bd55 a6c4 64c0 0000 0000 0000 0000
000003f0: b2ff a697 ef2e 8340 f730 4b25 0354 66c0
00000400: 0000 0000 0000 0000 ab75 bdd3 3245 8340
00000410: 565b 0d15 23e6 67c0 0000 0000 0000 0000
00000420: ca4b 184d 394e 8340 c881 0626 3561 69c0
00000430: 0000 0000 0000 0000 bea7 66bb c62f 8340
00000440: fe0b 8bf1 58ef 6ac0 0000 0000 0000 0000
00000450: 065d 40e4 41a9 8240 7589 cf1d ed31 6cc0
00000460: 0000 0000 0000 0000 3ef8 220f 05f1 8140
00000470: 3c28 8fb0 9824 6dc0 0000 0000 0000 0000
00000480: a220 c6f8 3316 8140 48f2 d77a 7bd9 6dc0
00000490: 0000 0000 0000 0000 0d95 0b9e 4d46 8040
000004a0: 36d6 c931 1468 6ec0 0000 0000 0000 0000
000004b0: 0fe4 c2af 6e36 7f40 2368 d012 1e06 6fc0
000004c0: 0000 0000 0000 0000 8648 4384 274c 7e40
000004d0: b06d bd32 3700 70c0 0000 0000 0000 0000
000004e0: d7be ab6a fa94 7d40 494b 7c41 21cc 70c0
000004f0: 0000 0000 0000 0000 c5f3 9055 64ec 7c40
00000500: b0ad 318f 8ec4 71c0 0000 0000 0000 0000
00000510: 8ace 25ad c922 7c40 abb2 8e02 b7c7 72c0
00000520: 0000 0000 0000 0000 289a 0b5f e11a 7b40
00000530: bf9a 55d7 38a9 73c0 0000 0000 0000 0000
00000540: a173 93bd d59e 7940 7c84 3e3f 8313 74c0
00000550: 0000 0000 0000 0000 1d98 855f 2ad8 7740
00000560: aaae 6ef3 55e8 73c0 0000 0000 0000 0000
00000570: 1dc0 006c 90f5 7540 fcaf 7116 ec52 73c0
00000580: 0000 0000 0000 0000 2d8f 72d2 8adf 7340
00000590: 90e4 8cdc 1785 72c0 0000 0000 0000 0000
000005a0: 9ebb ef24 a4f6 7140 65f9 8ecc 3cd4 71c0
000005b0: 0000 0000 0000 0000 494b 6f47 8c59 7040
000005c0: 2874 8864 6179 71c0 0000 0000 0000 0000
000005d0: 4435 c4cd 79e9 6d40 4ef8 fb14 0289 71c0
000005e0: 0000 0000 0000 0000 5cb5 65b1 e374 6b40
000005f0: 75c8 a3e7 b3c6 71c0 0000 0000 0000 0000
00000600: 90c9 f9e8 7019 6940 b62c 502a c901 72c0
00000610: 0000 0000 0000 0000 aaa9 021b 3876 6640
00000620: 28c9 9674 1327 72c0 0000 0000 0000 0000
00000630: 6ddb adbf 6171 6340 5096 8d28 1c09 72c0
00000640: 0000 0000 0000 0000 090d 89b4 1f40 6040
00000650: d7ba 8940 b5c8 71c0 0000 0000 0000 0000
00000660: d724 548a 5472 5a40 c847 54e4 289a 71c0
00000670: 0000 0000 0000 0000 17ec f367 2c6a 5440
00000680: 4aa0 b006 0c7f 71c0 0000 0000 0000 0000
00000690: 7c5c e1ca 4ef7 4e40 5e12 5997 eca5 71c0
000006a0: 0000 0000 0000 0000 a4ab 0fd7 d444 4740
000006b0: 938b 0e76 9616 72c0 0000 0000 0000 0000
000006c0: 457e 5fd2 5e57 4040 63e5 60a5 51af 72c0
000006d0: 0000 0000 0000 0000 dcfd 51b4 755c 3440
000006e0: 6735 2602 1344 73c0 0000 0000 0000 0000
000006f0: 5eb1 6dd9 b5a1 2140 95f0 d8f7 0cab 73c0
00000700: 0000 0000 0000 0000 dc82 5312 6a9e 0cc0
00000710: 6722 5b23 7cbb 73c0 0000 0000 0000 0000
00000720: f57b 7811 ad0c 2ec0 7ef9 1040 874a 73c0
00000730: 0000 0000 0000 0000 9c9e 5c67 a863 37c0
00000740: d732 138b e373 72c0 0000 0000 0000 0000
00000750: 17f9 e1c6 234f 3cc0 cd90 1061 406b 71c0
00000760: 0000 0000 0000 0000 7d20 92bc fd1c 40c0
00000770: 63e1 89af b451 70c0 0000 0000 0000 0000
00000780: d422 af9a a98c 41c0 9037 28d6 0cbf 6ec0
00000790: 0000 0000 0000 0000 f494 1f74 aea0 43c0
000007a0: eb9d 8ef1 3650 6dc0 0000 0000 0000 0000
000007b0: 785d 3704 2419 47c0 f79d 7f37 c822 6cc0
000007c0: 0000 0000 0000 0000 86d8 42a6 0b83 4bc0
000007d0: de99 4a4a 4ce2 6ac0 0000 0000 0000 0000
000007e0: 6202 7e6d b748 50c0 9d90 bb25 086c 69c0
000007f0: 0000 0000 0000 0000 1e5c 5783 8a10 53c0

continuous_index_test f8 [1700, 3]
0.002742025418435251 -3.1721177559595453 0.0 0.08488438621014638 -6.4203537792794565 0.0 -0.7379060952098084 -11.174625116515884
0.0 -3.1127433720353266 -15.153925384945245 0.0 -5.6138418039332905 -19.72811531598971 0.0 -7.752424942718429
-26.264772599761905 0.0 -8.735492608920941 -32.45640472599873 0.0 -7.457099764319658 -38.143659518929084 0.0
-3.2833861022119577 -44.31951155827492 0.0 4.862777607449223 -48.48973708575919 0.0 16.530691498667437 -49.485497328447885
0.0 33.64306954423306 -52.785278163308455 0.0 54.211143322600385 -61.57084877316951 0.0 74.37212418710907
-77.38860264484053 0.0 91.7525131158534 -107.36454195363147 0.0 102.7867084318271 -147.79715255306655 0.0
104.59070757312955 -194.46555201244263 0.0 99.53398098013112 -243.32066610441063 0.0 95.38860115485608 -292.82647447788634
0.0 97.54021607361038 -343.25889509205143 0.0 108.51482870710011 -396.77561820124083 0.0 131.48623088648847
-455.76986720560865 0.0 161.2167415946323 -517.0054770316558 0.0 190.17446713363057 -576.2355751796965 0.0
220.4070148391885 -631.1607870135239 0.0 248.44237929676285 -672.1818813865186 0.0 276.2362157291451 -700.5512396729954
0.0 307.7171371527381 -718.7885387903981 0.0 345.5890310446895 -731.0277896964783 0.0 391.1171776299786
-741.3736178603563 0.0 444.373779090931 -754.7089694333063 0.0 503.325583367735 -770.07539066254 0.0
562.5224880961257 -780.7982458500546 0.0 615.1060260948921 -781.3793327141101 0.0 659.8347449630636 -769.0808544843836
0.0 688.5295276883149 -740.0692472027138 0.0 701.4921841852187 -695.9390379410148 0.0 703.9178397867363
-646.7773719190299 0.0 701.2190839505619 -594.8089759580107 0.0 699.6886144397731 -544.5734733659802 0.0
703.2038361781703 -499.23356313468395 0.0 713.7103965414053 -456.02350474454823 0.0 724.5134227047744 -411.19583892179025
0.0 728.6434028085373 -362.77730443941147 0.0 726.1208190482067 -309.29323429979894 0.0 711.7379309313352
-252.76357695807638 0.0 685.6891243179695 -195.83764056927407 0.0 657.2935554119014 -145.76532647212673 0.0
628.8583794537036 -99.24491594934746 0.0 606.5908695654359 -60.04756310825554 0.0 595.2632513026566 -28.953243983945356
0.0 593.5488889210561 -0.6199453029602444 0.0 596.3477115997371 25.466180491981902 0.0 597.9962252794535
48.89051637180249 0.0 593.7931113376583 72.57266187386526 0.0 577.651407450157 94.16088771895959 0.0
550.5471080434143 111.40935494623575 0.0 519.437669287214 124.66440236372786 0.0 484.9094568352389 138.09570093936517
0.0 455.0655004910135 151.77162631972539 0.0 434.84164750155213 167.38013353086492 0.0 421.74287251941485
185.8779059605653 0.0 411.6870316173976 203.56037790317558 0.0 399.8813700140482 216.94876290314883 0.0
381.3207708165634 224.39411914500937 0.0 353.47918912916526 224.2142385209682 0.0 319.07759494094535 216.4973589726567
0.0 285.17033508425317 204.55008492792723 0.0 252.0779282957548 190.42464039115066 0.0 225.50225723848354
174.8913575602922 0.0 208.02583618632565 158.64813002136586 0.0 195.95421404326805 141.01636841916763 0.0
186.666028742239 121.61818459305941 0.0 176.54807469184388 101.80262655174108 0.0 161.1269280423828 83.58153948199457
0.0 138.75982889786758 69.2307892752885 0.0 110.95871894156257 58.76901246429761 0.0 82.08351196051959
53.000422992905825 0.0 53.971185275575486 48.28778944422312 0.0 31.218319428980067 41.88916209775335 0.0
15.445834082748366 31.075140242954852 0.0 3.745902309953348 14.498822573614051 0.0 -5.410786564388265 -6.329675865332143
0.0 -14.511815098221877 -27.236143069179796 0.0 -24.809142825322056 -45.45427145385733 0.0 -35.59162682120693
00000000: d942 e7af 7176 663f db41 2746 7f60 09c0
00000010: 0000 0000 0000 0000 48af b6ae fbba b53f
00000020: 6505 9b38 71ae 19c0 0000 0000 0000 0000
00000030: fe3e 4e3e ed9c e7bf e8fd 9876 6859 26c0
00000040: 0000 0000 0000 0000 23dc 3dff e5e6 08c0
00000050: 63ba dc4e cf4e 2ec0 0000 0000 0000 0000
00000060: 983e 23f2 9274 16c0 7ce4 edc3 65ba 33c0
00000070: 0000 0000 0000 0000 6aae 26af 7b02 1fc0
00000080: b2da 1823 c843 3ac0 0000 0000 0000 0000
00000090: c387 bb7c 9278 21c0 c3f3 5578 6b3a 40c0
000000a0: 0000 0000 0000 0000 880c ebf5 11d4 1dc0
000000b0: 9ec7 636f 6312 43c0 0000 0000 0000 0000
000000c0: 5321 c9ee 5f44 0ac0 0dbe 36c1 e528 46c0
000000d0: 0000 0000 0000 0000 b6dc 1ef9 7b73 1340
000000e0: ae7c 6fb4 af3e 48c0 0000 0000 0000 0000
000000f0: b80a e765 db87 3040 51fd c5c6 24be 48c0
00000100: 0000 0000 0000 0000 6ec4 521a 50d2 4040
00000110: 1dd6 aefe 8364 4ac0 0000 0000 0000 0000
00000120: 31ab 90be 061b 4b40 c5dc 9592 11c9 4ec0
00000130: 0000 0000 0000 0000 c76b f7e1 d097 5240
00000140: abae a0dd de58 53c0 0000 0000 0000 0000
00000150: b199 c52c 29f0 5640 7f37 c6a7 54d7 5ac0
00000160: 0000 0000 0000 0000 d48b 526e 59b2 5940
00000170: 002b 1246 8279 62c0 0000 0000 0000 0000
00000180: d205 2327 ce25 5a40 e680 55cd e54e 68c0
00000190: 0000 0000 0000 0000 5996 8fbe 2ce2 5840
000001a0: 24ec 8fe5 426a 6ec0 0000 0000 0000 0000
000001b0: dcd2 60d7 ded8 5740 0258 4d3d 394d 72c0
000001c0: 0000 0000 0000 0000 873b 70e6 9262 5840
000001d0: 4b17 2e6f 2474 75c0 0000 0000 0000 0000
000001e0: 5d02 1bf4 f220 5b40 3088 a1ee 68cc 78c0
000001f0: 0000 0000 0000 0000 bd78 1334 8f6f 6040
00000200: a265 4660 517c 7cc0 0000 0000 0000 0000
00000210: 1e94 118c ef26 6440 babe 8a37 0b28 80c0
00000220: 0000 0000 0000 0000 7225 193c 95c5 6740
00000230: 5e64 3d75 e201 82c0 0000 0000 0000 0000
00000240: a4e9 fb43 068d 6b40 a7a5 b34a 49b9 83c0
00000250: 0000 0000 0000 0000 c480 a0f8 270e 6f40
00000260: ca76 3a7e 7401 85c0 0000 0000 0000 0000
00000270: aaf7 248a c743 7140 2f7e 58f0 68e4 85c0
00000280: 0000 0000 0000 0000 1b9c ce64 793b 7340
00000290: 19e3 6ced 4e76 86c0 0000 0000 0000 0000
000002a0: 5214 d1ab 6c99 7540 52ec cde9 38d8 86c0
000002b0: 0000 0000 0000 0000 4b89 a6f5 df71 7840
000002c0: 745b 5c2b fd2a 87c0 0000 0000 0000 0000
000002d0: a3b7 c8ff fac5 7b40 508f 2af8 ab95 87c0
000002e0: 0000 0000 0000 0000 b2c8 e796 3575 7f40
000002f0: 4470 6b66 9a10 88c0 0000 0000 0000 0000
00000300: 462b 3d0e 2e94 8140 3861 b8ce 6266 88c0
00000310: 0000 0000 0000 0000 ac90 3524 d938 8340
00000320: 3f0b 97df 086b 88c0 0000 0000 0000 0000
00000330: df66 c48e ad9e 8440 4d31 0997 a508 88c0
00000340: 0000 0000 0000 0000 1d3d 0379 3c84 8540
00000350: f637 7ad1 8d20 87c0 0000 0000 0000 0000
00000360: fb18 43fe efeb 8540 e5f2 5226 83bf 85c0
00000370: 0000 0000 0000 0000 00d8 62bc 57ff 8540
00000380: 7fc8 c40e 3836 84c0 0000 0000 0000 0000
00000390: ef15 16af c0e9 8540 4017 63c8 7896 82c0
000003a0: 0000 0000 0000 0000 0893 4948 82dd 8540
000003b0: 1940 3479 9604 81c0 0000 0000 0000 0000
000003c0: ddb7 dc74 a1f9 8540 4d90 b2ac bc33 7fc0
000003d0: 0000 0000 0000 0000 38c4 61e4 ae4d 8640
000003e0: 2bd2 8246 6080 7cc0 0000 0000 0000 0000
000003f0: 3df0 5c7d 1ba4 8640 f845 fe27 22b3 79c0
00000400: 0000 0000 0000 0000 9426 5fb0 25c5 8640
00000410: eda4 c7d6 6fac 76c0 0000 0000 0000 0000
00000420: 4126 fa6f f7b0 8640 3bfb 7216 b154 73c0
00000430: 0000 0000 0000 0000 5506 5548 e73d 8640
00000440: 5add f138 6f98 6fc0 0000 0000 0000 0000
00000450: 7544 9c53 836d 8540 b85a 98f3 cd7a 68c0
00000460: 0000 0000 0000 0000 716d 9433 598a 8440
00000470: 8411 f18d 7d38 62c0 0000 0000 0000 0000
00000480: b909 0cf6 dda6 8340 d52d f2b3 accf 58c0
00000490: 0000 0000 0000 0000 fe9d d219 baf4 8240
000004a0: 113a 458c 1606 4ec0 0000 0000 0000 0000
000004b0: 51bc 7f23 1b9a 8240 7027 38cc 07f4 3cc0
000004c0: 0000 0000 0000 0000 95e8 df1f 648c 8240
000004d0: ecbc 3088 97d6 e3bf 0000 0000 0000 0000
000004e0: 7cea 041d c8a2 8240 7018 cf9a 5777 3940
000004f0: 0000 0000 0000 0000 9c95 f544 f8af 8240
00000500: deb8 c270 fc71 4840 0000 0000 0000 0000
00000510: a2ca c14a 588e 8240 b6fa fc7d a624 5240
00000520: 0000 0000 0000 0000 5cf6 1b15 360d 8240
00000530: 9bd0 00fc 4b8a 5740 0000 0000 0000 0000
00000540: be8e 2e7a 6034 8140 75a2 16df 32da 5b40
00000550: 0000 0000 0000 0000 6258 c158 803b 8040
00000560: 29e6 7d91 852a 5f40 0000 0000 0000 0000
00000570: 9947 9c22 8d4e 7e40 a398 6afb 0f43 6140
00000580: 0000 0000 0000 0000 662c 3e4a 0c71 7c40
00000590: 82fe ad29 b1f8 6240 0000 0000 0000 0000
000005a0: d3de 5e63 772d 7b40 b165 cb0d 2aec 6440
000005b0: 0000 0000 0000 0000 be7f 4bce e25b 7a40
000005c0: edb2 3dce 173c 6740 0000 0000 0000 0000
000005d0: a780 dd14 feba 7940 49f1 a39d ee71 6940
000005e0: 0000 0000 0000 0000 31a0 7117 1afe 7840
000005f0: d515 0544 5c1e 6b40 0000 0000 0000 0000
00000600: 6b6a 94e0 21d5 7740 5ed1 c09f 9c0c 6c40
00000610: 0000 0000 0000 0000 d165 38c2 aa17 7640
00000620: 4223 be0a db06 6c40 0000 0000 0000 0000
00000630: 205b 31d4 3df1 7340 d93d 5d5d ea0f 6b40
00000640: 0000 0000 0000 0000 a903 48b1 b9d2 7140
00000650: 0aef b44b 9a91 6940 0000 0000 0000 0000
00000660: 6536 7b63 7e82 6f40 b011 72a7 96cd 6740
00000670: 0000 0000 0000 0000 eaae c57d 1230 6c40
00000680: ea4f 4a00 86dc 6540 0000 0000 0000 0000
00000690: 4eea 68a6 d300 6a40 4faa 2b7b bdd4 6340
000006a0: 0000 0000 0000 0000 0ca7 e3eb 887e 6840
000006b0: 6420 1017 86a0 6140 0000 0000 0000 0000
000006c0: 9a43 821b 5055 6740 3385 1c56 9067 5e40
000006d0: 0000 0000 0000 0000 83a7 efd3 8911 6640
000006e0: 45a8 c13b 5e73 5940 0000 0000 0000 0000
000006f0: 57df 65cb 0f24 6440 f71f 60f1 37e5 5440
00000700: 0000 0000 0000 0000 b45c b184 5058 6140
00000710: 6d68 6140 c54e 5140 0000 0000 0000 0000
00000720: 4904 b1a6 5bbd 5b40 f32f 1c00 6f62 4d40
00000730: 0000 0000 0000 0000 6ad0 8c42 5885 5440
00000740: 3659 52dc 0d80 4a40 0000 0000 0000 0000
00000750: 0b7a 92cc 4ffc 4a40 4289 d548 d624 4840
00000760: 0000 0000 0000 0000 008d 37c8 e337 3f40
00000770: c158 4910 d0f1 4440 0000 0000 0000 0000
00000780: 5ab1 695d 44e4 2e40 c61a 1664 3c13 3f40
00000790: 0000 0000 0000 0000 7915 5aa1 9bf7 0d40
000007a0: 995b 20ac 65ff 2c40 0000 0000 0000 0000
000007b0: 35bc ae3b a5a4 15c0 3987 cf8c 9651 19c0
000007c0: 0000 0000 0000 0000 8aec e8a0 0c06 2dc0
000007d0: e64d 47df 733c 3bc0 0000 0000 0000 0000
000007e0: 208d f4fb 23cf 38c0 6ce9 2691 25ba 46c0
000007f0: 0000 0000 0000 0000 9642 7c6d bacb 41c0
