NeuroAI/Neural Embeddings Rank Aligning 3D latent dynamics with movements/NER/data_NER/Fig8/Type_ curve-straight=[13]_parameters_5000itr_lr0.0001.npz (npz, 425644 bytes, 7 tensors)

train_loss_stable f4 [5000]
000000 1b 0c be 40 63 0c be 40 3a 0e be 40 f9 0c be 40
       5.9389777 5.939012 5.9392366 5.9390836
000010 2c 0f be 40 df 09 be 40 e9 0c be 40 ce 0a be 40
       5.939352 5.938705 5.939076 5.938819
000020 31 0b be 40 94 0d be 40 60 0a be 40 8c 11 be 40
       5.938866 5.9391575 5.9387665 5.939642
000030 15 0a be 40 ca 0b be 40 08 0a be 40 fa 0b be 40
       5.9387307 5.938939 5.9387245 5.938962
000040 4f 0c be 40 af 0b be 40 77 0f be 40 ab 0c be 40
       5.9390025 5.938926 5.939388 5.9390464
000050 74 08 be 40 61 0e be 40 7b 0e be 40 03 09 be 40
       5.938532 5.939255 5.9392676 5.9386
000060 86 09 be 40 d2 08 be 40 3e 0a be 40 2e 0b be 40
       5.9386625 5.9385767 5.9387503 5.9388647
000070 13 08 be 40 0d 08 be 40 8a 0e be 40 f9 06 be 40
       5.9384856 5.9384828 5.939275 5.938351
000080 ee 09 be 40 ac 07 be 40 46 09 be 40 59 08 be 40
       5.938712 5.9384365 5.938632 5.938519
000090 26 0b be 40 2a 08 be 40 2e 0c be 40 4f 08 be 40
       5.938861 5.9384966 5.938987 5.938514
0000a0 ba 03 be 40 59 04 be 40 c9 03 be 40 9e 10 be 40
       5.937955 5.9380307 5.937962 5.9395285
0000b0 be 03 be 40 39 04 be 40 02 04 be 40 42 06 be 40
       5.937957 5.9380155 5.937989 5.938264
0000c0 c2 02 be 40 8d 01 be 40 f9 02 be 40 bb 02 be 40
       5.9378366 5.9376893 5.937863 5.9378333
0000d0 aa 02 be 40 f1 03 be 40 89 02 be 40 b4 00 be 40
       5.937825 5.937981 5.9378095 5.937586
0000e0 f3 ff bd 40 f1 ff bd 40 3b fc bd 40 53 ff bd 40
       5.937494 5.937493 5.93704 5.9374175
0000f0 e4 00 be 40 0f fe bd 40 f2 07 be 40 53 fc bd 40
       5.9376087 5.937263 5.93847 5.9370513
000100 40 fd bd 40 4d fe bd 40 8e fb bd 40 44 fc bd 40
       5.9371643 5.9372926 5.9369574 5.937044
000110 99 f8 bd 40 05 fb bd 40 c7 fa bd 40 18 fa bd 40
       5.9365964 5.936892 5.9368625 5.936779
000120 4e f9 bd 40 b1 f8 bd 40 b8 f8 bd 40 07 f9 bd 40
       5.9366827 5.936608 5.936611 5.936649
000130 41 f8 bd 40 82 f1 bd 40 b4 f2 bd 40 01 f3 bd 40
       5.9365544 5.935731 5.935877 5.9359136
000140 20 f3 bd 40 84 f1 bd 40 04 ee bd 40 85 ef bd 40
       5.9359283 5.935732 5.9353046 5.935488
000150 98 f2 bd 40 ad f9 bd 40 f3 ee bd 40 06 ec bd 40
       5.9358635 5.936728 5.9354186 5.9350615
000160 bb ed bd 40 db e7 bd 40 1a ef bd 40 e3 e8 bd 40
       5.93527 5.9345527 5.935437 5.9346786
000170 06 e4 bd 40 09 eb bd 40 32 de bd 40 8c e5 bd 40
       5.934085 5.934941 5.9333735 5.934271
000180 74 e2 bd 40 62 e6 bd 40 a8 e3 bd 40 c9 e0 bd 40
       5.933893 5.934373 5.93404 5.9336896
000190 b4 e4 bd 40 6f e2 bd 40 bc e0 bd 40 c4 e0 bd 40
       5.934168 5.933891 5.9336834 5.933687
0001a0 c4 de bd 40 f2 d5 bd 40 d0 d5 bd 40 72 d4 bd 40
       5.933443 5.9323664 5.93235 5.9321833
0001b0 9a d1 bd 40 12 d9 bd 40 cc ca bd 40 0c d4 bd 40
       5.931836 5.932748 5.9310055 5.9321346
0001c0 07 d5 bd 40 7d c9 bd 40 0d c8 bd 40 4a ce bd 40
       5.9322543 5.9308457 5.9306703 5.931432
0001d0 ad c9 bd 40 a9 c7 bd 40 9c c3 bd 40 3b c1 bd 40
       5.9308686 5.9306226 5.930128 5.9298377
0001e0 99 b9 bd 40 36 c3 bd 40 69 ba bd 40 50 c2 bd 40
       5.928906 5.9300795 5.929005 5.92997
0001f0 0b b9 bd 40 78 bc bd 40 3b b4 bd 40 c4 b4 bd 40
       5.9288383 5.9292564 5.928251 5.928316
000200 29 ae bd 40 36 a8 bd 40 b1 a9 bd 40 04 95 bd 40
       5.92751 5.9267836 5.9269643 5.9244404
000210 72 9e bd 40 76 ad bd 40 91 a1 bd 40 4f a1 bd 40
       5.9255915 5.9274244 5.9259725 5.925941
000220 a2 9c bd 40 78 a0 bd 40 ad 90 bd 40 af 89 bd 40
       5.92537 5.9258385 5.9239106 5.923057
000230 90 8d bd 40 4d 96 bd 40 67 8e bd 40 07 91 bd 40
       5.9235306 5.9245973 5.923633 5.9239535
000240 37 7c bd 40 16 82 bd 40 73 7e bd 40 67 71 bd 40
       5.921413 5.9221296 5.9216857 5.920093
000250 f0 70 bd 40 f4 64 bd 40 6e 77 bd 40 64 67 bd 40
       5.9200363 5.9185734 5.920829 5.918871
000260 49 73 bd 40 59 59 bd 40 2c 63 bd 40 3d 4e bd 40
       5.920323 5.9171567 5.918356 5.9158006
000270 cc 45 bd 40 2e 50 bd 40 4b 48 bd 40 1d 50 bd 40
       5.91477 5.9160376 5.915075 5.9160295
000280 e2 3f bd 40 d0 11 bd 40 22 24 bd 40 3c 29 bd 40
       5.914048 5.9084244 5.9106607 5.9112835
000290 c5 18 bd 40 23 20 bd 40 0d fc bc 40 55 1e bd 40
       5.9092736 5.910173 5.905768 5.9099526
0002a0 1a 18 bd 40 5f 09 bd 40 34 e9 bc 40 1f e4 bc 40
       5.909192 5.907394 5.903467 5.902847
0002b0 d5 03 bd 40 40 ea bc 40 fd d2 bc 40 c5 d8 bc 40
       5.906718 5.903595 5.9007554 5.901461
0002c0 16 d3 bc 40 f1 c1 bc 40 5a 98 bc 40 ef 8d bc 40
       5.9007673 5.8986745 5.8935976 5.892326
0002d0 ea 93 bc 40 73 a9 bc 40 31 93 bc 40 67 84 bc 40
       5.893056 5.8956847 5.8929677 5.8911624
0002e0 90 8c bc 40 17 a6 bc 40 4d 57 bc 40 b0 3e bc 40
       5.8921585 5.8952746 5.885657 5.8826523
0002f0 a4 37 bc 40 c3 20 bc 40 6f 28 bc 40 53 15 bc 40
       5.881792 5.878999 5.8799357 5.877603
000300 51 f0 bb 40 7a f9 bb 40 79 cc bb 40 f5 a1 bb 40
       5.8730855 5.8742037 5.86871 5.86352
000310 19 ae bb 40 e5 a4 bb 40 af e8 bb 40 12 d4 bb 40
       5.865002 5.8638787 5.8721538 5.8696375
000320 b0 5a bb 40 af 57 bb 40 48 3b bb 40 3a 62 bb 40
       5.8548203 5.8544536 5.8509865 5.8557405
000330 e3 32 bb 40 bf 16 bb 40 d8 29 bb 40 1d d9 ba 40
       5.8499618 5.8465266 5.848858 5.839003
000340 8a 0a bb 40 3a a7 ba 40 39 f3 ba 40 64 5a ba 40
       5.8450365 5.8329134 5.8421903 5.823534
000350 e7 28 ba 40 52 63 ba 40 93 56 ba 40 08 ee b9 40
       5.817493 5.824624 5.823068 5.8103065
000360 36 d6 b9 40 18 d1 b9 40 ed 34 b9 40 77 3b b9 40
       5.807399 5.806774 5.7877107 5.788509
000370 4a f0 b8 40 ed ff b8 40 1a c3 b8 40 60 dc b8 40
       5.779332 5.781241 5.773816 5.7769012
000380 8a d4 b8 40 cc d7 b8 40 d4 46 b8 40 4c 72 b7 40
       5.7759447 5.7763424 5.758646 5.7327023
000390 db d3 b7 40 a8 67 b8 40 5d 81 b7 40 9a 2f b9 40
       5.7446113 5.7626534 5.7345414 5.7870607
0003a0 75 7a b7 40 05 dd b7 40 72 1e b8 40 82 61 b7 40
       5.7336984 5.74573 5.7537165 5.730653
0003b0 57 69 b7 40 7b 66 b7 40 cb 82 b7 40 8f 1e b8 40
       5.731609 5.73126 5.734716 5.7537303
0003c0 48 ae b7 40 c6 6c b8 40 68 25 b8 40 db f2 b7 40
       5.7400246 5.763278 5.754566 5.7483954
0003d0 ea 6a b8 40 e2 a1 b7 40 68 8c b7 40 2b 34 b7 40
       5.763051 5.738511 5.7358894 5.725118
0003e0 cb 99 b8 40 a4 3b b8 40 91 a3 b8 40 40 5a b7 40
       5.7687736 5.7572803 5.7699666 5.729767
0003f0 58 9e b7 40 f8 ed b7 40 cc c3 b7 40 a7 14 b8 40
       5.738079 5.747799 5.742651 5.752521

cebra_veldir_train f8 [5000, 3]
000000 00 00 00 c0 ed f5 ec bf 00 00 00 40 dc 24 d7 bf
       -0.9050205945968628 -0.3616247773170471
000010 00 00 00 20 40 ab cc 3f 00 00 00 c0 fc 03 ed bf
       0.22397615015506744 -0.9067367315292358
000020 00 00 00 40 12 38 d7 bf 00 00 00 c0 b7 83 cb 3f
       -0.3627973198890686 0.21495720744132996
000030 00 00 00 40 6d 10 ed bf 00 00 00 c0 78 4e d7 bf
       -0.9082552194595337 -0.3641645312309265
000040 00 00 00 c0 d8 5f ca 3f 00 00 00 60 b6 1c ed bf
       0.20605000853538513 -0.9097549319267273
000050 00 00 00 60 d8 68 d7 bf 00 00 00 80 26 22 c9 3f
       -0.3657742440700531 0.1963546872138977
000060 00 00 00 80 fe 24 ed bf 00 00 00 40 4c 88 d7 bf
       -0.9107658863067627 -0.3676939606666565
000070 00 00 00 00 22 0d c8 3f 00 00 00 80 06 2c ed bf
       0.18790078163146973 -0.9116241931915283
000080 00 00 00 00 ce ab d7 bf 00 00 00 40 e4 f2 c6 3f
       -0.3698611259460449 0.17928746342658997
000090 00 00 00 80 02 2f ed bf 00 00 00 40 b7 da d7 bf
       -0.9119884967803955 -0.37272435426712036
0000a0 00 00 00 e0 18 ee c5 3f 00 00 00 60 35 2f ed bf
       0.17132864892482758 -0.9120127558708191
0000b0 00 00 00 00 b8 15 d8 bf 00 00 00 40 7a e1 c4 3f
       -0.3763256072998047 0.16313102841377258
0000c0 00 00 00 40 58 2b ed bf 00 00 00 a0 11 5d d8 bf
       -0.9115411043167114 -0.38068047165870667
0000d0 00 00 00 a0 e5 e6 c3 3f 00 00 00 60 2f 23 ed bf
       0.1554839164018631 -0.9105450510978699
0000e0 00 00 00 60 2d b7 d8 bf 00 00 00 60 19 e3 c2 3f
       -0.38618025183677673 0.14755551517009735
0000f0 00 00 00 00 47 17 ed bf 00 00 00 20 d7 24 d9 bf
       -0.9090914726257324 -0.3928735554218292
000100 00 00 00 c0 d1 bc c1 3f 00 00 00 e0 ee 04 ed bf
       0.13857480883598328 -0.9068521857261658
000110 00 00 00 80 ca b7 d9 bf 00 00 00 c0 29 43 c0 3f
       -0.40184271335601807 0.12704965472221375
000120 00 00 00 80 38 e8 ec bf 00 00 00 80 2d 6d da bf
       -0.9033472537994385 -0.4129136800765991
000130 00 00 00 c0 fb b4 bd 3f 00 00 00 60 2c b6 ec bf
       0.1160428375005722 -0.8972379565238953
000140 00 00 00 20 96 61 db bf 00 00 00 c0 82 f4 bb 3f
       -0.4278312027454376 0.10919968783855438
000150 00 00 00 e0 76 75 ec bf 00 00 00 00 06 a4 dc bf
       -0.8893389105796814 -0.4475111961364746
000160 00 00 00 40 4d 07 b8 3f 00 00 00 20 50 0f ec bf
       0.0938614159822464 -0.876869261264801
000170 00 00 00 40 57 70 de bf 00 00 00 c0 d4 ea b1 3f
       -0.4756067395210266 0.06998948752880096
000180 00 00 00 c0 16 63 eb bf 00 00 00 c0 be 80 e0 bf
       -0.8558458089828491 -0.5157159566879272
000190 00 00 00 00 43 41 a4 3f 00 00 00 e0 be 13 ea bf
       0.039560407400131226 -0.814910352230072
0001a0 00 00 00 a0 94 89 e2 bf 00 00 00 e0 dc da 92 bf
       -0.5792945027351379 -0.01841302029788494
0001b0 00 00 00 00 54 0e e7 bf 00 00 00 40 f7 d6 e5 bf
       -0.7204990386962891 -0.6824909448623657
0001c0 00 00 00 c0 ca 71 bf bf 00 00 00 80 c2 8e dc bf
       -0.12283007800579071 -0.44621336460113525
0001d0 00 00 00 60 84 87 ea bf 00 00 00 20 b9 91 d5 bf
       -0.8290426135063171 -0.3370192348957062
0001e0 00 00 00 40 fe 02 d2 3f 00 00 00 c0 4d c7 e7 bf
       0.2814326882362366 -0.7430790662765503
0001f0 00 00 00 60 c2 6d e3 bf 00 00 00 e0 81 c3 e7 3f
       -0.6071483492851257 0.7426156401634216
000200 00 00 00 00 ac 49 d7 bf 00 00 00 80 e9 fd e1 bf
       -0.36387157440185547 -0.5622451305389404
000210 00 00 00 a0 64 d1 eb 3f 00 00 00 c0 92 f9 c0 bf
       0.8693106770515442 -0.13261637091636658
000220 00 00 00 80 1e 79 de bf 00 00 00 60 67 f8 ec 3f
       -0.4761425256729126 0.9053227305412292
000230 00 00 00 40 39 87 94 bf 00 00 00 00 ed 26 db bf
       -0.020047087222337723 -0.42425084114074707
000240 00 00 00 e0 92 67 ed 3f 00 00 00 20 b0 00 a7 3f
       0.9188932776451111 0.04492712393403053
000250 00 00 00 80 8a 15 d9 bf 00 00 00 60 0f 9f ed 3f
       -0.39193975925445557 0.9256665110588074
000260 00 00 00 a0 ac d7 b5 3f 00 00 00 60 0b 97 d7 bf
       0.08532217890024185 -0.3685940206050873
000270 00 00 00 00 4d c2 ed 3f 00 00 00 60 3d 88 bc 3f
       0.9299683570861816 0.11145385354757309
000280 00 00 00 e0 f0 6b d6 bf 00 00 00 c0 f0 d6 ed 3f
       -0.3503381907939911 0.9324878454208374
000290 00 00 00 40 37 6f c0 3f 00 00 00 60 6c 9b d5 bf
       0.12839403748512268 -0.33761128783226013
0002a0 00 00 00 80 fd e9 ed 3f 00 00 00 a0 12 0f c2 3f
       0.9348132610321045 0.14108498394489288
0002b0 00 00 00 a0 c1 db d4 bf 00 00 00 20 fd f5 ed 3f
       -0.32591286301612854 0.9362779259681702
0002c0 00 00 00 a0 63 12 c3 3f 00 00 00 c0 a1 5b d4 bf
       0.1489986926317215 -0.3180927634239197
0002d0 00 00 00 00 28 0b ee 3f 00 00 00 40 b5 d9 c3 3f
       0.9388618469238281 0.15508142113685608
0002e0 00 00 00 80 44 ac d3 bf 00 00 00 80 df 1e ee 3f
       -0.30738937854766846 0.9412686824798584
0002f0 00 00 00 00 5f 38 c4 3f 00 00 00 e0 6c 19 d3 bf
       0.15797030925750732 -0.2984268367290497
000300 00 00 00 00 7c 38 ee 3f 00 00 00 20 44 8c c4 3f
       0.9443950653076172 0.16053058207035065
000310 00 00 00 e0 9a 5d d2 bf 00 00 00 c0 b2 59 ee 3f
       -0.28696319460868835 0.9484494924545288
000320 00 00 00 40 09 8a c4 3f 00 00 00 20 d1 7d d1 bf
       0.16046252846717834 -0.2733042538166046
000330 00 00 00 e0 20 75 ee 3f 00 00 00 40 b8 4b c4 3f
       0.9517979025840759 0.15856078267097473
000340 00 00 00 20 d4 cd d0 bf 00 00 00 00 40 94 ee 3f
       -0.2625627815723419 0.955596923828125
000350 00 00 00 20 93 f0 c3 3f 00 00 00 40 34 02 d0 bf
       0.15577925741672516 -0.25013452768325806
000360 00 00 00 40 b9 af ee 3f 00 00 00 c0 eb 9b c3 3f
       0.9589506387710571 0.1531958281993866
000370 00 00 00 a0 75 8b ce bf 00 00 00 00 3f d0 ee 3f
       -0.2386309653520584 0.9629206657409668
000380 00 00 00 a0 4b 2d c3 3f 00 00 00 60 dd b7 cc bf
       0.14981980621814728 -0.2243611067533493
000390 00 00 00 60 42 e9 ee 3f 00 00 00 00 c4 ae c2 3f
       0.9659740328788757 0.14595842361450195
0003a0 00 00 00 a0 94 54 cb bf 00 00 00 40 79 02 ef 3f
       -0.21351869404315948 0.9690519571304321
0003b0 00 00 00 60 24 d2 c1 3f 00 00 00 20 bf 17 ca bf
       0.1392255276441574 -0.2038496881723404
0003c0 00 00 00 60 b5 16 ef 3f 00 00 00 c0 ae e3 c0 3f
       0.9715220332145691 0.131948322057724
0003d0 00 00 00 60 19 31 c9 bf 00 00 00 80 1a 21 ef 3f
       -0.19681088626384735 0.9727909564971924
0003e0 00 00 00 40 8f 77 c0 3f 00 00 00 e0 e2 a9 c8 bf
       0.12864866852760315 -0.19268451631069183
0003f0 00 00 00 00 df 22 ef 3f 00 00 00 20 73 f1 bf 3f
       0.9730067253112793 0.12477798014879227
000400 00 00 00 a0 6a d9 c8 bf 00 00 00 e0 60 1c ef 3f
       -0.19413502514362335 0.9722141623497009
000410 00 00 00 60 ef ed be 3f 00 00 00 e0 2e aa c9 bf
       0.12081810086965561 -0.2005060762166977
000420 00 00 00 20 2e 08 ef 3f 00 00 00 20 48 5f be 3f
       0.9697485566139221 0.11864138394594193
000430 00 00 00 c0 92 4e cb bf 00 00 00 e0 5e e2 ee 3f
       -0.21333536505699158 0.9651331305503845
000440 00 00 00 80 c9 9e bd 3f 00 00 00 00 e5 0d ce bf
       0.11570414900779724 -0.23479902744293213
000450 00 00 00 a0 98 b0 ee 3f 00 00 00 a0 8b 18 bd 3f
       0.9590571522712708 0.11365578323602676
000460 00 00 00 80 1d 9a d0 bf 00 00 00 80 98 68 ee 3f
       -0.2594064474105835 0.950268030166626
000470 00 00 00 e0 1a a2 bc 3f 00 00 00 60 19 9a d2 bf
       0.11184852570295334 -0.2906554639339447
000480 00 00 00 c0 c5 0b ee 3f 00 00 00 00 5b 10 bd 3f
       0.9389370679855347 0.11353081464767456
000490 00 00 00 e0 d8 c9 d4 bf 00 00 00 80 50 a1 ed 3f
       -0.32481977343559265 0.9259417057037354
0004a0 00 00 00 a0 45 ef bc 3f 00 00 00 80 16 10 d7 bf
       0.11302600055932999 -0.3603569269180298
0004b0 00 00 00 e0 52 22 ed 3f 00 00 00 a0 19 52 bc 3f
       0.9104399085044861 0.11062774807214737
0004c0 00 00 00 20 3a 82 d9 bf 00 00 00 80 da 8b ec 3f
       -0.3985734283924103 0.8920719623565674
0004d0 00 00 00 e0 97 dd ba 3f 00 00 00 00 68 21 dc bf
       0.10494374483823776 -0.43953895568847656
0004e0 00 00 00 60 3a cd eb 3f 00 00 00 40 93 31 b9 3f
       0.8688022494316101 0.09841270744800568
0004f0 00 00 00 20 d8 0e df bf 00 00 00 e0 d3 1c eb 3f
       -0.4852810204029083 0.8472689986228943
000500 00 00 00 00 b6 f5 b6 3f 00 00 00 80 d1 c0 e0 bf
       0.08968675136566162 -0.5235373973846436
000510 00 00 00 e0 64 44 ea 3f 00 00 00 60 e0 02 b4 3f
       0.8208488821983337 0.07816889137029648
000520 00 00 00 c0 cb 1a e2 bf 00 00 00 c0 b5 4b e9 3f
       -0.5657709836959839 0.7904919385910034
000530 00 00 00 80 9f 5b af 3f 00 00 00 a0 39 80 e3 bf
       0.06124590337276459 -0.6094024777412415
000540 00 00 00 80 2c 13 e8 3f 00 00 00 00 74 39 a3 3f
       0.75234055519104 0.03754770755767822
000550 00 00 00 40 e8 0b e5 bf 00 00 00 e0 39 eb e5 3f
       -0.6577035188674927 0.684964120388031
000560 00 00 00 60 81 83 85 bf 00 00 00 60 e1 4f e7 bf
       -0.010504732839763165 -0.72850102186203
000570 00 00 00 80 34 d8 e2 3f 00 00 00 c0 cb 11 b3 bf
       0.5888922214508057 -0.07449029386043549
000580 00 00 00 20 b0 c0 e9 bf 00 00 00 80 ea 2b db 3f
       -0.8047714829444885 0.4245554208755493
000590 00 00 00 40 64 11 c7 bf 00 00 00 c0 a2 64 ec bf
       -0.18021824955940247 -0.8872846364974976
0005a0 00 00 00 60 8c ca c5 3f 00 00 00 20 01 e6 d3 bf
       0.1702437847852707 -0.3109133541584015
0005b0 00 00 00 60 11 ec ed bf 00 00 00 80 a1 3b c7 bf
       -0.9350668787956238 -0.18150728940963745
0005c0 00 00 00 80 e2 8c dc bf 00 00 00 a0 58 0b ec bf
       -0.4460989236831665 -0.8763850331306458
0005d0 00 00 00 00 c4 60 e1 bf 00 00 00 60 98 03 e1 bf
       -0.5430622100830078 -0.5316888689994812
0005e0 00 00 00 e0 1b cc e4 bf 00 00 00 a0 d5 bf e7 bf
       -0.6499156355857849 -0.7421672940254211
0005f0 00 00 00 60 61 fc e0 bf 00 00 00 60 0c 30 da bf
       -0.53080815076828 -0.4091826379299164
000600 00 00 00 80 2c 98 ea bf 00 00 00 80 f2 12 e0 bf
       -0.83107590675354 -0.5023128986358643
000610 00 00 00 60 e1 8e ce bf 00 00 00 a0 25 e1 eb bf
       -0.2387353628873825 -0.8712337613105774
000620 00 00 00 00 9d 76 de bf 00 00 00 a0 67 b4 be bf
       -0.47598958015441895 -0.11994025856256485
000630 00 00 00 00 47 82 ec bf 00 00 00 e0 7e f4 dc bf
       -0.8909029960632324 -0.4524228274822235
000640 00 00 00 a0 db 83 a4 bf 00 00 00 a0 f7 d7 ec bf
       -0.04006849601864815 -0.9013631939888
000650 00 00 00 80 ce af db bf 00 00 00 40 5f 66 94 3f
       -0.4326053857803345 0.019921768456697464
000660 00 00 00 c0 91 00 ed bf 00 00 00 c0 85 bd da bf
       -0.9063194990158081 -0.41781753301620483
000670 00 00 00 a0 df 37 b0 3f 00 00 00 a0 a2 10 ed bf
       0.0633525624871254 -0.9082806706428528
000680 00 00 00 20 43 0c da bf 00 00 00 20 b2 ca b8 3f
       -0.4069984257221222 0.09684289246797562
000690 00 00 00 e0 46 14 ed bf 00 00 00 60 8f 79 d9 bf
       -0.9087252020835876 -0.3980444371700287
0006a0 00 00 00 60 27 14 c0 3f 00 00 00 80 cb 19 ed bf
       0.12561504542827606 -0.9093987941741943
0006b0 00 00 00 c0 8b f6 d8 bf 00 00 00 40 48 7c c2 3f
       -0.39004796743392944 0.14441779255867004
0006c0 00 00 00 80 76 15 ed bf 00 00 00 40 77 97 d8 bf
       -0.9088699817657471 -0.38424474000930786
0006d0 00 00 00 20 39 c3 c4 3f 00 00 00 e0 a8 0f ed bf
       0.1622077375650406 -0.9081615805625916
0006e0 00 00 00 60 1c 4e d8 bf 00 00 00 00 32 8b c6 3f
       -0.379767507314682 0.17612290382385254
0006f0 00 00 00 c0 b6 ff ec bf 00 00 00 a0 51 0c d8 bf
       -0.9062150716781616 -0.37575188279151917
000700 00 00 00 e0 ab d0 c8 3f 00 00 00 40 e7 f1 ec bf
       0.19386814534664154 -0.9045292139053345
000710 00 00 00 60 f5 d2 d7 bf 00 00 00 e0 22 9f ca 3f
       -0.37225088477134705 0.20798145234584808
000720 00 00 00 c0 6b e0 ec bf 00 00 00 e0 ee a5 d7 bf
       -0.9023951292037964 -0.3695027530193329
000730 00 00 00 e0 a8 60 cc 3f 00 00 00 40 c9 ca ec bf
       0.2216998189687729 -0.8997541666030884
000740 00 00 00 80 10 7b d7 bf 00 00 00 c0 06 3f ce 3f
       -0.3668862581253052 0.23629841208457947
000750 00 00 00 60 e0 b3 ec bf 00 00 00 20 d9 5b d7 bf
       -0.8969575762748718 -0.3649809658527374
000760 00 00 00 60 fe ef cf 3f 00 00 00 c0 33 97 ec bf
       0.24951152503490448 -0.893457293510437
000770 00 00 00 60 63 4a d7 bf 00 00 00 00 10 d9 d0 3f
       -0.3639152944087982 0.2632484436035156
000780 00 00 00 a0 5a 7b ec bf 00 00 00 40 f0 3d d7 bf
       -0.8900578618049622 -0.36315542459487915
000790 00 00 00 c0 3c a2 d1 3f 00 00 00 80 b7 5c ec bf
       0.2755271792411804 -0.8863179683685303
0007a0 00 00 00 80 4d 34 d7 bf 00 00 00 20 c5 6f d2 3f
       -0.36256730556488037 0.2880719006061554
0007b0 00 00 00 00 21 3e ec bf 00 00 00 80 76 2d d7 bf
       -0.8825840950012207 -0.36214983463287354
0007c0 00 00 00 80 46 30 d3 3f 00 00 00 20 00 1c ec bf
       0.29982149600982666 -0.8784180283546448
0007d0 00 00 00 40 ec 2f d7 bf 00 00 00 20 f0 f1 d3 3f
       -0.36229997873306274 0.31164172291755676
0007e0 00 00 00 40 e0 fa eb bf 00 00 00 00 ad 37 d7 bf
       -0.874374508857727 -0.36277318000793457
0007f0 00 00 00 00 3f a0 d4 3f 00 00 00 60 4f da eb bf
       0.3222806453704834 -0.8703991770744324

cebra_veldir_test f8 [1300, 3]
000000 00 00 00 e0 6b c4 ed bf 00 00 00 60 19 b3 d6 bf
       -0.9302272200584412 -0.3546813428401947
000010 00 00 00 60 27 1f b8 3f 00 00 00 40 04 dd ed bf
       0.09422536939382553 -0.9332295656204224
000020 00 00 00 a0 ad 94 d6 bf 00 00 00 c0 99 5b b1 3f
       -0.3528245985507965 0.06780396401882172
000030 00 00 00 40 d8 f1 ed bf 00 00 00 40 e2 6c d6 bf
       -0.9357720613479614 -0.35039573907852173
000040 00 00 00 60 13 2e a4 3f 00 00 00 20 09 01 ee bf
       0.03941402956843376 -0.9376264214515686
000050 00 00 00 40 dc 3d d6 bf 00 00 00 c0 bd 9e 82 3f
       -0.3475256562232971 0.009091837331652641
000060 00 00 00 00 79 09 ee bf 00 00 00 60 04 03 d6 bf
       -0.9386563301086426 -0.34393414855003357
000070 00 00 00 60 15 c7 99 bf 00 00 00 20 e0 07 ee bf
       -0.025173505768179893 -0.9384613633155823
000080 00 00 00 c0 e0 c2 d5 bf 00 00 00 60 fe 0b af bf
       -0.3400194048881531 -0.06063837930560112
000090 00 00 00 60 a0 fb ed bf 00 00 00 e0 88 77 d5 bf
       -0.9369661211967468 -0.3354208171367645
0000a0 00 00 00 c0 f9 10 b9 bf 00 00 00 e0 04 e2 ed bf
       -0.09791527688503265 -0.9338402152061462
0000b0 00 00 00 80 9c 21 d5 bf 00 00 00 80 f5 9b c1 bf
       -0.3301764726638794 -0.13757199048995972
0000c0 00 00 00 a0 9d b9 ed bf 00 00 00 40 2f c0 d4 bf
       -0.9289081692695618 -0.32423001527786255
0000d0 00 00 00 e0 20 e6 c6 bf 00 00 00 80 05 83 ed bf
       -0.17889796197414398 -0.9222438335418701
0000e0 00 00 00 c0 f4 54 d4 bf 00 00 00 a0 8c 33 cc bf
       -0.3176853060722351 -0.22032316029071808
0000f0 00 00 00 a0 e9 38 ed bf 00 00 00 80 79 da d3 bf
       -0.9131973385810852 -0.31020963191986084
000100 00 00 00 40 dd e9 d0 bf 00 00 00 e0 b0 e4 ec bf
       -0.2642739415168762 -0.9029163718223572
000110 00 00 00 20 88 5f d3 bf 00 00 00 e0 6e 87 d3 bf
       -0.3027057945728302 -0.3051411807537079
000120 00 00 00 a0 eb 84 ec bf 00 00 00 c0 f9 e2 d2 bf
       -0.8912256360054016 -0.2951034903526306
000130 00 00 00 a0 1c 0b d6 bf 00 00 00 a0 58 1a ec bf
       -0.3444282114505768 -0.8782160878181458
000140 00 00 00 e0 b2 65 d2 bf 00 00 00 00 91 76 d8 bf
       -0.2874571979045868 -0.3822367191314697
000150 00 00 00 00 69 a5 eb bf 00 00 00 c0 1d e7 d1 bf
       -0.8639416694641113 -0.27973121404647827
000160 00 00 00 80 df cc da bf 00 00 00 40 5d 2a eb bf
       -0.4187544584274292 -0.8489214181900024
000170 00 00 00 00 1d 6d d1 bf 00 00 00 40 ab fd dc bf
       -0.27228474617004395 -0.45298272371292114
000180 00 00 00 00 d6 a7 ea bf 00 00 00 40 d8 f2 d0 bf
       -0.8329877853393555 -0.2648220658302307
000190 00 00 00 e0 54 17 df bf 00 00 00 60 9e 16 ea bf
       -0.48579904437065125 -0.8152610659599304
0001a0 00 00 00 00 a7 7b d0 bf 00 00 00 60 f2 98 e0 bf
       -0.25754714012145996 -0.5186702609062195
0001b0 00 00 00 a0 c9 88 e9 bf 00 00 00 a0 f8 09 d0 bf
       -0.7979477047920227 -0.2506085932254791
0001c0 00 00 00 40 7e 8a e1 bf 00 00 00 c0 38 f8 e8 bf
       -0.5481559038162231 -0.780300498008728
0001d0 00 00 00 a0 f6 43 cf bf 00 00 00 a0 65 6c e2 bf
       -0.24426157772541046 -0.5757320523262024
0001e0 00 00 00 80 0f 4f e8 bf 00 00 00 e0 2f 5a ce bf
       -0.7596509456634521 -0.23712728917598724
0001f0 00 00 00 60 bc 60 e3 bf 00 00 00 20 ac 8c e7 bf
       -0.6055585741996765 -0.7359219193458557
000200 00 00 00 80 c4 5e cd bf 00 00 00 80 4e 62 e4 bf
       -0.22945457696914673 -0.637000322341919
000210 00 00 00 e0 1d a6 e6 bf 00 00 00 60 5e 34 cc bf
       -0.7077779173851013 -0.22034816443920135
000220 00 00 00 00 65 7a e5 bf 00 00 00 e0 4e ae e5 bf
       -0.6711907386779785 -0.6775278449058533
000230 00 00 00 c0 bd 02 cb bf 00 00 00 00 e1 8b e6 bf
       -0.21102115511894226 -0.7045750617980957
000240 00 00 00 00 85 68 e4 bf 00 00 00 40 4a 5b c9 bf
       -0.637758731842041 -0.19809845089912415
000250 00 00 00 40 84 d1 e7 bf 00 00 00 a0 4b e7 e2 bf
       -0.7443257570266724 -0.5907343029975891
000260 00 00 00 c0 a9 66 c7 bf 00 00 00 e0 f0 25 e9 bf
       -0.18282052874565125 -0.7858814597129822
000270 00 00 00 a0 eb ff e0 bf 00 00 00 60 89 d5 c4 bf
       -0.5312402844429016 -0.16276662051677704
000280 00 00 00 e0 25 9b ea bf 00 00 00 e0 c2 3c de bf
       -0.8314389586448669 -0.4724585711956024
000290 00 00 00 40 e6 70 c2 bf 00 00 00 60 ed d2 eb bf
       -0.14407041668891907 -0.8694979548454285
0002a0 00 00 00 e0 0a c9 d9 bf 00 00 00 60 21 32 bf bf
       -0.40289565920829773 -0.12185867875814438
0002b0 00 00 00 00 f1 06 ed bf 00 00 00 20 8a fb d4 bf
       -0.907097339630127 -0.3278527557849884
0002c0 00 00 00 c0 e5 fd b8 bf 00 00 00 60 c9 11 ee bf
       -0.09762416779994965 -0.9396712183952332
0002d0 00 00 00 60 cc 3a cf bf 00 00 00 e0 d8 c9 b1 bf
       -0.24398188292980194 -0.06948619335889816
0002e0 00 00 00 60 04 f4 ee bf 00 00 00 a0 b0 9f c3 bf
       -0.9672872424125671 -0.1533108502626419
0002f0 00 00 00 80 9a f8 a3 bf 00 00 00 60 d8 98 ef bf
       -0.0390060693025589 -0.9874078631401062
000300 00 00 00 60 51 6c b2 bf 00 00 00 80 e2 57 87 bf
       -0.0719652995467186 -0.01139809563755989
000310 00 00 00 e0 39 ea ef bf 00 00 00 60 a3 c8 89 3f
       -0.997342050075531 0.012589718215167522
000320 00 00 00 a0 ed d4 90 3f 00 00 00 60 3e fe ef bf
       0.016437256708741188 -0.9997856020927429
000330 00 00 00 20 59 42 b6 3f 00 00 00 00 19 68 a5 3f
       0.0869498923420906 0.04180982708930969
000340 00 00 00 a0 c8 d9 ef bf 00 00 00 a0 c3 30 c4 3f
       -0.9953349232673645 0.15773816406726837
000350 00 00 00 80 7b cd b0 3f 00 00 00 00 8e 87 ef bf
       0.06563541293144226 -0.9852972030639648
000360 00 00 00 c0 78 af cb 3f 00 00 00 60 b8 8e b5 3f
       0.21629247069358826 0.08420898765325546
000370 00 00 00 60 47 20 ef bf 00 00 00 60 8a 15 d1 3f
       -0.9726902842521667 0.2669397294521332
000380 00 00 00 c0 dd c2 b9 3f 00 00 00 e0 94 ab ee bf
       0.10062967240810394 -0.9584450125694275
000390 00 00 00 00 1d a6 d3 3f 00 00 00 00 41 12 bd 3f
       0.30701375007629395 0.1135597825050354
0003a0 00 00 00 e0 aa 3c ee bf 00 00 00 80 af 86 d5 3f
       -0.944905698299408 0.3363455533981323
0003b0 00 00 00 20 07 24 bf 3f 00 00 00 e0 17 e2 ed bf
       0.12164349108934402 -0.9338492751121521
0003c0 00 00 00 80 25 3e d6 3f 00 00 00 80 0e 84 bf 3f
       0.3475431203842163 0.12310877442359924
0003d0 00 00 00 00 da be ed bf 00 00 00 e0 3c 48 d5 3f
       -0.9295473098754883 0.3325340449810028
0003e0 00 00 00 80 4d 5f bd 3f 00 00 00 a0 6a f4 ed bf
       0.11473545432090759 -0.9360859990119934
0003f0 00 00 00 a0 d3 03 d4 3f 00 00 00 40 02 67 ba 3f
       0.31273356080055237 0.10313428938388824
000400 00 00 00 80 17 37 ee bf 00 00 00 c0 e1 7a d1 3f
       -0.9442250728607178 0.2731251120567322
000410 00 00 00 60 5b 2a b5 3f 00 00 00 60 5e ab ee bf
       0.08267756551504135 -0.9584190249443054
000420 00 00 00 a0 a2 8c c7 3f 00 00 00 e0 ce b7 a4 3f
       0.1839793473482132 0.040464844554662704
000430 00 00 00 40 56 6d ef bf 00 00 00 20 5e 7d 98 3f
       -0.982096791267395 0.023915739730000496
000440 00 00 00 a0 11 07 a1 bf 00 00 00 c0 1f f9 ef bf
       -0.03325705602765083 -0.999160647392273
000450 00 00 00 00 80 af ce bf 00 00 00 a0 52 0c c3 bf
       -0.2397308349609375 -0.14881356060504913
000460 00 00 00 e0 20 b3 ee bf 00 00 00 20 fe 15 e2 bf
       -0.9593662619590759 -0.5651846528053284
000470 00 00 00 c0 61 26 d2 bf 00 00 00 80 3e ca e8 bf
       -0.2835926413536072 -0.7746880054473877
000480 00 00 00 40 4e 74 e9 bf 00 00 00 40 fe bf d7 bf
       -0.7954474687576294 -0.3710933327674866
000490 00 00 00 40 da a9 de bf 00 00 00 40 e7 79 ec bf
       -0.4791169762611389 -0.8898807764053345
0004a0 00 00 00 20 2b b0 d9 bf 00 00 00 20 92 c0 cb bf
       -0.40137746930122375 -0.2168142944574356
0004b0 00 00 00 40 b7 3d ed bf 00 00 00 40 18 db d9 bf
       -0.9137836694717407 -0.4039974808692932
0004c0 00 00 00 80 48 a2 a5 bf 00 00 00 c0 26 41 ed bf
       -0.04225374758243561 -0.9142030477523804
0004d0 00 00 00 a0 f9 85 d9 bf 00 00 00 60 1a 71 b2 3f
       -0.3988021910190582 0.07203831523656845
0004e0 00 00 00 c0 48 11 ed bf 00 00 00 80 87 21 d9 bf
       -0.9083598852157593 -0.39267146587371826
0004f0 00 00 00 80 84 69 c2 3f 00 00 00 80 0b db ec bf
       0.14384514093399048 -0.9017388820648193
000500 00 00 00 80 d8 cd d8 bf 00 00 00 00 24 82 c8 3f
       -0.3875638246536255 0.19147157669067383
000510 00 00 00 c0 2a ac ec bf 00 00 00 a0 c1 7f d8 bf
       -0.8960164785385132 -0.38279762864112854
000520 00 00 00 40 76 cc cc 3f 00 00 00 40 fb 82 ec bf
       0.22498968243598938 -0.8909889459609985
000530 00 00 00 40 9d 4d d8 bf 00 00 00 40 1b db cf 3f
       -0.3797371983528137 0.24887409806251526
000540 00 00 00 00 18 65 ec bf 00 00 00 e0 a9 1e d8 bf
       -0.8873405456542969 -0.3768715560436249
000550 00 00 00 40 2c 01 d1 3f 00 00 00 a0 d8 4f ec bf
       0.26569658517837524 -0.8847468495368958
000560 00 00 00 00 35 fc d7 bf 00 00 00 80 a0 bb d1 3f
       -0.3747684955596924 0.2770768404006958
000570 00 00 00 40 7f 42 ec bf 00 00 00 20 de de d7 bf
       -0.8831173181533813 -0.37297776341438293
000580 00 00 00 e0 b7 36 d2 3f 00 00 00 40 28 37 ec bf
       0.2845897376537323 -0.8817330598831177
000590 00 00 00 80 2a c8 d7 bf 00 00 00 00 b0 99 d2 3f
       -0.3715921640396118 0.2906303405761719
0005a0 00 00 00 60 d8 30 ec bf 00 00 00 80 53 b3 d7 bf
       -0.8809625506401062 -0.370320200920105
0005b0 00 00 00 a0 22 da d2 3f 00 00 00 40 75 2f ec bf
       0.2945639193058014 -0.8807932138442993
0005c0 00 00 00 40 27 9f d7 bf 00 00 00 c0 a1 fb d2 3f
       -0.36908894777297974 0.2966083884239197
0005d0 00 00 00 c0 6a 2d ec bf 00 00 00 80 02 90 d7 bf
       -0.8805440664291382 -0.36816465854644775
0005e0 00 00 00 60 7a 1a d3 3f 00 00 00 c0 5b 2e ec bf
       0.29849109053611755 -0.8806589841842651
0005f0 00 00 00 a0 22 81 d7 bf 00 00 00 40 3a 27 d3 3f
       -0.3672567903995514 0.29926925897598267
000600 00 00 00 40 ed 2e ec bf 00 00 00 c0 2e 73 d7 bf
       -0.8807283639907837 -0.366405189037323
000610 00 00 00 60 f8 34 d3 3f 00 00 00 60 18 33 ec bf
       0.30010804533958435 -0.8812372088432312
000620 00 00 00 80 4c 64 d7 bf 00 00 00 20 a4 2e d3 3f
       -0.36549675464630127 0.29972174763679504
000630 00 00 00 20 a2 36 ec bf 00 00 00 c0 50 56 d7 bf
       -0.8816691040992737 -0.36464327573776245
000640 00 00 00 80 dc 2a d3 3f 00 00 00 e0 9b 3a ec bf
       0.2994910478591919 -0.8821544051170349
000650 00 00 00 00 29 49 d7 bf 00 00 00 c0 70 23 d3 3f
       -0.36384034156799316 0.2990381121635437
000660 00 00 00 80 8d 3e ec bf 00 00 00 c0 22 3c d7 bf
       -0.8826358318328857 -0.3630453944206238
000670 00 00 00 40 fe 1b d3 3f 00 00 00 e0 6f 41 ec bf
       0.2985835671424866 -0.882987916469574
000680 00 00 00 00 ca 30 d7 bf 00 00 00 c0 b7 18 d3 3f
       -0.3623528480529785 0.2983836531639099
000690 00 00 00 20 7b 43 ec bf 00 00 00 c0 9e 24 d7 bf
       -0.8832374215126038 -0.3616101145744324
0006a0 00 00 00 e0 61 1b d3 3f 00 00 00 40 e0 46 ec bf
       0.29854628443717957 -0.883651852607727
0006b0 00 00 00 a0 e9 18 d7 bf 00 00 00 40 73 15 d3 3f
       -0.3608955442905426 0.29818421602249146
0006c0 00 00 00 a0 eb 48 ec bf 00 00 00 a0 94 0e d7 bf
       -0.8839014172554016 -0.36026492714881897
0006d0 00 00 00 a0 d3 15 d3 3f 00 00 00 60 eb 49 ec bf
       0.29820719361305237 -0.8840233683586121
0006e0 00 00 00 60 7a 05 d7 bf 00 00 00 c0 e3 1a d3 3f
       -0.35970935225486755 0.2985162138938904
0006f0 00 00 00 60 68 49 ec bf 00 00 00 60 5a fe d6 bf
       -0.8839609026908875 -0.3592744767665863
000700 00 00 00 c0 7c 26 d3 3f 00 00 00 c0 7d 48 ec bf
       0.2992240786552429 -0.883849024772644
000710 00 00 00 40 24 f8 d6 bf 00 00 00 c0 56 33 d3 3f
       -0.35889536142349243 0.30000847578048706
000720 00 00 00 40 53 46 ec bf 00 00 00 c0 14 f4 d6 bf
       -0.8835846185684204 -0.35864752531051636
000730 00 00 00 80 ec 44 d3 3f 00 00 00 a0 61 45 ec bf
       0.3010817766189575 -0.8834694027900696
000740 00 00 00 e0 50 f0 d6 bf 00 00 00 20 ef 4e d3 3f
       -0.35841771960258484 0.30169275403022766
000750 00 00 00 e0 b6 43 ec bf 00 00 00 00 4e ee d6 bf
       -0.8832659125328064 -0.3582949638366699
000760 00 00 00 80 12 5b d3 3f 00 00 00 60 7f 41 ec bf
       0.3024336099624634 -0.8829953074455261
000770 00 00 00 80 cc ee d6 bf 00 00 00 a0 6a 67 d3 3f
       -0.35832512378692627 0.3031870424747467
000780 00 00 00 80 c3 3f ec bf 00 00 00 40 e5 f0 d6 bf
       -0.8827836513519287 -0.35845309495925903
000790 00 00 00 60 07 6f d3 3f 00 00 00 20 dd 3e ec bf
       0.3036516606807709 -0.8826737999916077
0007a0 00 00 00 60 54 f3 d6 bf 00 00 00 80 63 71 d3 3f
       -0.3586016595363617 0.3037956953048706
0007b0 00 00 00 e0 1b 3e ec bf 00 00 00 60 b0 f8 d6 bf
       -0.8825816512107849 -0.35892876982688904
0007c0 00 00 00 e0 72 6f d3 3f 00 00 00 20 1d 3f ec bf
       0.3036772906780243 -0.8827043175697327
0007d0 00 00 00 40 2c fd d6 bf 00 00 00 40 4a 64 d3 3f
       -0.35920244455337524 0.3029962182044983
0007e0 00 00 00 c0 5b 41 ec bf 00 00 00 60 01 03 d7 bf
       -0.8829783201217651 -0.35955843329429626
0007f0 00 00 00 e0 40 50 d3 3f 00 00 00 a0 e2 45 ec bf
       0.3017732799053192 -0.8835309147834778

continuous_index_train f8 [5000, 3]
000000 7b 49 0d f1 44 8b 12 40 9c 33 ab ba 7d 79 e7 3f
       4.636005178867317 0.7335804601549287
000010 00 00 00 00 00 00 00 00 fa c6 b3 50 b7 8d 1c 40
       0.0 7.138394604656918
000020 39 89 c0 d0 21 45 a7 3f 00 00 00 00 00 00 00 00
       0.04544931100123723 0.0
000030 3e 13 33 9f 97 61 1b 40 23 5d 35 7f 78 00 5e bf
       6.845304954044705 -0.0018311669089906078
000040 00 00 00 00 00 00 00 00 41 9c c0 35 a3 8c 15 40
       0.0 5.387341346627239
000050 3a e6 75 70 20 40 f5 3f 00 00 00 00 00 00 00 00
       1.3281559365262994 0.0
000060 59 21 f5 63 5a 4c 11 40 c0 9b d7 ec f4 7c 0f 40
       4.324563562237324 3.9360140326784574
000070 00 00 00 00 00 00 00 00 40 3f 77 e5 14 62 10 40
       0.0 4.095782838252319
000080 a6 8b 2e 40 02 1b 19 40 00 00 00 00 00 00 00 00
       6.276375773278152 0.0
000090 31 07 15 25 38 87 14 40 bf 5e ba e8 53 c8 1e 40
       5.132050113113835 7.6956325877906115
0000a0 00 00 00 00 00 00 00 00 bc 8d 66 73 36 90 24 40
       0.0 10.281665426510578
0000b0 92 55 c4 48 6f 8f 25 40 00 00 00 00 00 00 00 00
       10.780145906416497 0.0
0000c0 ec ec a4 48 35 4a 2e 40 8b 8c 5c 25 0a 56 2c 40
       15.14493777287722 14.168046157405362
0000d0 00 00 00 00 00 00 00 00 fd 01 62 b6 ca 02 34 40
       0.0 20.010905646255186
0000e0 97 ad 63 5e a9 7b 33 40 00 00 00 00 00 00 00 00
       19.483053111396284 0.0
0000f0 15 8c 3c 1f d2 6a 3a 40 6c 7b 1b 32 93 69 3b 40
       26.417268707544356 27.412402278623105
000100 00 00 00 00 00 00 00 00 7a ba bf c8 09 27 41 40
       0.0 34.30498608934154
000110 21 d0 76 87 e7 0a 42 40 00 00 00 00 00 00 00 00
       36.08519070912758 0.0
000120 3e fc 17 4b 4f 8b 46 40 cf 53 e3 81 b1 7b 46 40
       45.08835734053763 44.966354595184036
000130 00 00 00 00 00 00 00 00 86 d8 76 77 13 17 4f 40
       0.0 62.18028157523172
000140 07 61 06 0a 3a ec 4a 40 00 00 00 00 00 00 00 00
       53.845521214594605 0.0
000150 bd 52 86 ab 44 da 55 40 b6 8c 42 01 2f 2b 50 40
       87.41044128530025 64.67474395274152
000160 00 00 00 00 00 00 00 00 f5 54 cd bc cb 70 5e 40
       0.0 121.76243515064182
000170 29 1c a4 ab 4b 2f 54 40 00 00 00 00 00 00 00 00
       80.73899355913512 0.0
000180 da 5d 94 b3 52 89 64 40 10 1a ab f3 11 25 5a 40
       164.29134539583066 104.57922069272195
000190 00 00 00 00 00 00 00 00 d6 fc 1a 62 f7 bb 6a 40
       0.0 213.8739481474974
0001a0 64 29 a2 e6 c0 25 61 40 00 00 00 00 00 00 00 00
       137.17979747459606 0.0
0001b0 e7 fb 5c e9 97 79 70 40 68 9c 29 39 28 bf 65 40
       263.5995877868831 173.97366006972447
0001c0 00 00 00 00 00 00 00 00 77 81 da 17 bc 6f 73 40
       0.0 310.9834211860065
0001d0 85 2d a3 8b af 54 6a 40 00 00 00 00 00 00 00 00
       210.64642888899485 0.0
0001e0 2d 10 46 98 8b 12 76 40 2a a8 2d 24 2e 3f 6e 40
       353.1590807663768 241.97438248555528
0001f0 00 00 00 00 00 00 00 00 29 0a b3 87 cd 1f 78 40
       0.0 385.9876782411325
000200 61 00 6b e7 3d 66 70 40 00 00 00 00 00 00 00 00
       262.39011327550367 0.0
000210 91 71 d7 8f df a9 79 40 b2 2f b0 20 5d e9 70 40
       410.61708053739227 270.5852362520483
000220 00 00 00 00 00 00 00 00 7c df 1d 8e 7e cb 7a 40
       0.0 428.7183972517885
000230 5e b6 6a 7f 01 c9 70 40 00 00 00 00 00 00 00 00
       268.56286565479775 0.0
000240 5d 38 bb c1 a9 c5 7b 40 b0 04 98 20 61 44 70 40
       444.35394452221755 260.27371272451546
000250 00 00 00 00 00 00 00 00 a6 a3 23 0d 21 b6 7c 40
       0.0 459.3830691711577
000260 8e 4b 2c c1 07 57 6f 40 00 00 00 00 00 00 00 00
       250.71969660426515 0.0
000270 6b 51 66 db dd c8 7d 40 9a 4d d5 43 35 98 6e 40
       476.5541643139647 244.75650207196014
000280 00 00 00 00 00 00 00 00 d1 0f 59 d4 12 1c 7f 40
       0.0 497.7545970419861
000290 f1 5c 05 ef e4 ca 6e 40 00 00 00 00 00 00 00 00
       246.34044600532027 0.0
0002a0 b5 f6 cf c9 c6 2d 80 40 f1 47 55 40 76 c0 6f 40
       517.7220646140255 254.0144349733014
0002b0 00 00 00 00 00 00 00 00 94 4b 74 2b 50 c4 80 40
       0.0 536.5391453824582
0002c0 f4 a9 58 59 54 ae 70 40 00 00 00 00 00 00 00 00
       266.89559301981285 0.0
0002d0 02 a1 86 97 07 49 81 40 dc 72 4c f8 91 b7 71 40
       553.1287069814573 283.47313718664896
0002e0 00 00 00 00 00 00 00 00 52 f9 de 6a b5 89 81 40
       0.0 561.2135827464901
0002f0 55 dc 5d 5c 33 8f 72 40 00 00 00 00 00 00 00 00
       296.95003925957036 0.0
000300 b0 ec bc 0f 53 92 81 40 d0 a5 d2 48 56 10 73 40
       562.2905573615772 305.02106554302463
000310 00 00 00 00 00 00 00 00 e6 a0 28 55 95 88 81 40
       0.0 561.0729163335898
000320 7c ed 10 10 12 45 73 40 00 00 00 00 00 00 00 00
       308.31690985309956 0.0
000330 d9 6b b0 f7 b6 85 81 40 78 35 a4 b4 83 34 73 40
       560.7143396170533 307.28215469497763
000340 00 00 00 00 00 00 00 00 db 9b 62 6e ab af 81 40
       0.0 565.9587066367925
000350 e5 f9 80 51 3c 1a 73 40 00 00 00 00 00 00 00 00
       305.63972616559323 0.0
000360 79 7e ba 83 64 16 82 40 87 f9 f2 10 1c 29 73 40
       578.7990793771597 306.5693521014404
000370 00 00 00 00 00 00 00 00 eb d3 06 69 26 a5 82 40
       0.0 596.6437550099776
000380 c1 64 27 1a e2 77 73 40 00 00 00 00 00 00 00 00
       311.4927007235347 0.0
000390 81 96 5e 5d a1 12 83 40 ac bc 4b 40 63 e5 73 40
       610.3287913694077 318.33673123917356
0003a0 00 00 00 00 00 00 00 00 d1 b1 6a 89 e1 3c 83 40
       0.0 615.6101253829494
0003b0 78 23 68 b3 7c 52 74 40 00 00 00 00 00 00 00 00
       325.15544453314897 0.0
0003c0 16 8b 5e ac 69 19 83 40 89 95 77 fa 81 a5 74 40
       611.1765982996174 330.34423300468967
0003d0 00 00 00 00 00 00 00 00 ee 11 d8 85 1f 95 82 40
       0.0 594.6403920059654
0003e0 25 83 ce 19 02 a5 74 40 00 00 00 00 00 00 00 00
       330.3130128924261 0.0
0003f0 ef 5b f8 ab 3f eb 81 40 28 5a 51 35 d3 71 74 40
       573.4060897257858 327.11406451967423
000400 00 00 00 00 00 00 00 00 f8 d7 41 6c 02 4b 81 40
       0.0 553.3761830467256
000410 7d b1 c5 58 17 27 74 40 00 00 00 00 00 00 00 00
       322.4431998941798 0.0
000420 32 33 6c db 24 c5 80 40 cf 85 1e 07 5d d6 73 40
       536.6429966405033 317.3977118675511
000430 00 00 00 00 00 00 00 00 4d 83 45 ff f8 87 80 40
       0.0 528.9965806418128
000440 fb 20 c5 82 20 b2 73 40 00 00 00 00 00 00 00 00
       315.13293721202325 0.0
000450 6e 53 14 69 b4 98 80 40 b9 4d 54 99 7a dc 73 40
       531.0880910480462 317.7799313824758
000460 00 00 00 00 00 00 00 00 3e 76 d6 8b 62 db 80 40
       0.0 539.4231182818255
000470 d7 df 6d 7d e4 53 74 40 00 00 00 00 00 00 00 00
       325.2432836811035 0.0
000480 7d 51 65 1e 5d 2d 81 40 23 02 0f 8c a9 ef 74 40
       549.6704681315892 334.97889333593974
000490 00 00 00 00 00 00 00 00 ab 09 40 1f 2e 75 81 40
       0.0 558.6475205424262
0004a0 e5 3e b9 b1 77 8e 75 40 00 00 00 00 00 00 00 00
       344.90422222482295 0.0
0004b0 ba 56 94 c3 b2 91 81 40 f3 ae 93 e0 1e ed 75 40
       562.2122871006934 350.8200383919604
0004c0 00 00 00 00 00 00 00 00 b2 7c 75 01 83 5d 81 40
       0.0 555.6889676264457
0004d0 67 e2 87 a8 1d cb 75 40 00 00 00 00 00 00 00 00
       348.69474080161893 0.0
0004e0 76 6e 4c f3 67 f8 80 40 25 52 fa 60 c5 48 75 40
       543.0507570239267 340.5481881883773
0004f0 00 00 00 00 00 00 00 00 52 54 e9 e0 dd 69 80 40
       0.0 525.2333391407831
000500 8a 29 bd 26 ec 87 74 40 00 00 00 00 00 00 00 00
       328.49515413180836 0.0
000510 b6 49 46 03 b4 51 7f 40 d1 17 38 33 b3 ac 73 40
       501.1064484353659 314.79375001822797
000520 00 00 00 00 00 00 00 00 56 0f 79 58 14 d7 7d 40
       0.0 477.44246718682314
000530 0c 2c c9 60 cc 1a 73 40 00 00 00 00 00 00 00 00
       305.6748969896587 0.0
000540 34 34 8b ee ce 5b 7c 40 0d cc cb 8e d1 e9 72 40
       453.7380204618123 302.6136615715812
000550 00 00 00 00 00 00 00 00 c6 15 bd a2 4e a9 7a 40
       0.0 426.58169816838597
000560 9a 2a 81 82 8d eb 72 40 00 00 00 00 00 00 00 00
       302.7220482869685 0.0
000570 0a aa 65 5b 55 bc 78 40 12 e3 b5 a0 bd e4 72 40
       395.7708391162165 302.2962958435975
000580 00 00 00 00 00 00 00 00 d8 f4 be d3 01 7f 76 40
       0.0 359.93794607727386
000590 92 50 20 27 c6 93 72 40 00 00 00 00 00 00 00 00
       297.2358771574301 0.0
0005a0 36 0c af 03 bc 1e 74 40 f3 ec f5 cd 08 ba 71 40
       321.92090195062644 283.62714954437905
0005b0 00 00 00 00 00 00 00 00 00 97 03 eb 08 b1 71 40
       0.0 283.06467725183757
0005c0 31 8d 90 9a c9 4f 70 40 00 00 00 00 00 00 00 00
       260.98671966996613 0.0
0005d0 40 d4 fe 1f e5 9f 6e 40 a6 26 81 9c cd 08 6d 40
       244.9967193581706 232.2750990412216
0005e0 00 00 00 00 00 00 00 00 2d b2 67 ed b6 00 6a 40
       0.0 208.02233000043034
0005f0 c1 6f f1 df 53 4e 69 40 00 00 00 00 00 00 00 00
       202.44773862033438 0.0
000600 f0 17 40 c3 45 c6 64 40 44 4a 59 e3 31 a1 65 40
       166.1960159541918 173.03733985366318
000610 00 00 00 00 00 00 00 00 80 2b cf 00 6b 4f 5e 40
       0.0 121.24090595466078
000620 c4 47 ee 52 b6 70 62 40 00 00 00 00 00 00 00 00
       147.52225634135368 0.0
000630 a7 ae c8 d4 11 a8 52 40 49 64 ae 55 c2 34 5f 40
       74.62608832929492 124.82436124830669
000640 00 00 00 00 00 00 00 00 40 7e f1 43 9c a8 3f 40
       0.0 31.65863442083196
000650 32 b7 6d 66 25 97 59 40 00 00 00 00 00 00 00 00
       102.36165772165694 0.0
000660 22 3a d0 bb 26 40 bf bf 2e 92 1a 0b 97 a3 53 40
       -0.12207262120521326 78.5560939559443
000670 00 00 00 00 00 00 00 00 4b 48 f3 a5 f2 3e 2f c0
       0.0 -15.622945009181555
000680 2c 57 37 67 07 70 4a 40 00 00 00 00 00 00 00 00
       52.875225927373634 0.0
000690 63 bd df 21 48 63 30 c0 26 6a 0b 15 50 5d 3b 40
       -16.387819401859257 27.36450320748022
0006a0 00 00 00 00 00 00 00 00 06 15 dc 35 00 b2 1a c0
       0.0 -6.673828927572009
0006b0 36 7c e7 ee f0 b5 15 40 00 00 00 00 00 00 00 00
       5.427676899794326 0.0
0006c0 b6 37 20 cd d8 50 1b 40 61 07 13 c3 71 2b 22 c0
       6.828952031222732 -9.084852310250144
0006d0 00 00 00 00 00 00 00 00 62 1d 23 bb 20 84 30 40
       0.0 16.51612443549437
0006e0 29 1c bd af 77 04 2e c0 00 00 00 00 00 00 00 00
       -15.008725635370938 0.0
0006f0 e3 68 a8 25 eb 49 31 40 fd 3b 59 c9 6c 77 2f c0
       17.288744310012486 -15.733251850264418
000700 00 00 00 00 00 00 00 00 d4 45 e6 db 27 17 2c 40
       0.0 14.0452259749026
000710 22 71 0f 2f 8b da 28 c0 00 00 00 00 00 00 00 00
       -12.426843138346673 0.0
000720 ed 5c cb 18 eb e7 20 40 dc d0 5c ec 05 18 25 c0
       8.45296552164515 -10.546920191125928
000730 00 00 00 00 00 00 00 00 10 2a 0d 25 5d 50 09 40
       0.0 3.1642401594774654
000740 98 5e 7a 5f fe 2d 2a c0 00 00 00 00 00 00 00 00
       -13.08983133667725 0.0
000750 bb 48 fd 84 05 ac e6 3f 8d 65 e0 18 a1 61 33 c0
       0.7084987256478351 -19.38136439779696
000760 00 00 00 00 00 00 00 00 d7 48 3a 23 2c 09 eb 3f
       0.0 0.8448696792641169
000770 d3 f4 ba 50 7b 81 3b c0 00 00 00 00 00 00 00 00
       -27.505787892955436 0.0
000780 df ef 65 0c c0 ab c1 3f 47 94 b1 0e bb a1 41 c0
       0.13805389981632651 -35.26352103873119
000790 00 00 00 00 00 00 00 00 30 17 de 70 de 75 c6 bf
       0.0 -0.17547207366094986
0007a0 83 38 fe 1d af b3 43 c0 00 00 00 00 00 00 00 00
       -39.40378165162203 0.0
0007b0 75 e3 59 53 7e db f4 bf a4 2a d9 c5 bd 34 43 c0
       -1.3035872703460119 -38.41204140762173
0007c0 00 00 00 00 00 00 00 00 de 94 ef 25 41 2f 0b c0
       0.0 -3.3980734790553546
0007d0 2d a8 f8 03 6e 74 41 c0 00 00 00 00 00 00 00 00
       -34.90960740701153 0.0
0007e0 ba 92 70 3e 7f e5 1b c0 82 97 d7 8b 77 79 3f c0
       -6.974118209477348 -31.474480381140445
0007f0 00 00 00 00 00 00 00 00 78 74 5d e9 75 fa 27 c0
       0.0 -11.989180843980861
